Data/Dim8_mnist/pneumonia_AE_CNN_018_t.pth (torch, 800434 bytes, 77 tensors)

encoder.cnn_model.0.conv.0.weight f4 [32, 1, 3, 3]
0	0x3e1defa6	0.1542345
1	0x3e9b9cfc	0.30393207
2	0xbe3c68dc	-0.18399376
3	0x3e3e2e9f	0.18572472
4	0xbe989550	-0.29801416
5	0xbd343060	-0.043991446
6	0x3e544fcb	0.20733564
7	0x3e19feab	0.15038554
8	0xbe3124f1	-0.17299248
9	0x3e7e4b2d	0.24833365
10	0x3d858545	0.0651956
11	0x3d762740	0.060096025
12	0xbdb520b5	-0.08844129
13	0xbc700c48	-0.014651366
14	0xbea3376e	-0.31878227
15	0xbd2acac7	-0.04169729
16	0x3e049707	0.12948237
17	0x3e848931	0.2588592
18	0x3daa77dc	0.083236426
19	0xbde24688	-0.11048609
20	0xbe4c0dd7	-0.19927154
21	0x3e090382	0.13380244
22	0xbe8ab301	-0.27089694
23	0x3e4f418c	0.20239848
24	0xbc0dd3d3	-0.00865646
25	0xbe4e2989	-0.20133032
26	0x3e6bd713	0.23031263
27	0x3e9e849c	0.30960548
28	0xbe836724	-0.25664628
29	0xbe898d3a	-0.2686556
30	0xbcc025fc	-0.023455612
31	0xbe8a44b3	-0.27005538
32	0xbe72ff53	-0.23730211
33	0x3e84806a	0.25879222
34	0x3e0db5a3	0.1383882
35	0x3ea1e741	0.31621745
36	0x3dddb722	0.108259454
37	0x3e55bb14	0.20872146
38	0xbe7501ae	-0.23926422
39	0x3dcd3bb1	0.10021151
40	0xbe0c46d4	-0.13698894
41	0xbe369810	-0.17831445
42	0xbe114404	-0.14186102
43	0xbdc40de2	-0.095729604
44	0xbd701d33	-0.058621597
45	0xbe49eae5	-0.19718511
46	0xbd824de9	-0.063625164
47	0xbe43989e	-0.19101188
48	0xbe72ede4	-0.2372356
49	0xbd55ef58	-0.05223021
50	0x3d40ad7f	0.04704046
51	0x3e7659ce	0.24057695
52	0xbd9f7231	-0.07785452
53	0xbea27e1b	-0.31736836
54	0xbe50af23	-0.2037931
55	0xbd317c97	-0.04333171
56	0xbb61db56	-0.003446301
57	0x3e1e4b84	0.15458494
58	0x3dbc692d	0.09199748
59	0xbdefac38	-0.1170277
60	0xbe1ff7c2	-0.15621856
61	0x3e915d9b	0.28391728
62	0x3e82a5fb	0.25517258
63	0x3e483d62	0.19554666
64	0x3e6b54aa	0.22981516
65	0xbdbae275	-0.091252245
66	0x3e5005cd	0.20314713
67	0x3d203e9b	0.039122205
68	0x3daca7eb	0.08430465
69	0x3e0368e6	0.12832984
70	0x3dd2eea2	0.10299422
71	0xbdd08784	-0.101820976
72	0xbe869766	-0.26287383
73	0x3e831938	0.25605178
74	0x3d5036d1	0.050833527
75	0x3c267c15	0.010161419
76	0xbdffaefb	-0.12484547
77	0x3d68c533	0.05682869
78	0xbecd56bb	-0.40105233
79	0xbe896577	-0.26835224
80	0x3e2a8f0d	0.16656132
81	0xbb403cc7	-0.00293331
82	0xbd329b5e	-0.0436052
83	0xbe68b5b8	-0.2272557
84	0xbe80c02d	-0.25146618
85	0xbc933976	-0.017971735
86	0xbe2dc8c3	-0.16971116
87	0xbde19d25	-0.11016301
88	0xbdc21b47	-0.09477859
89	0xbe0b7777	-0.13619791
90	0x3e3d07e3	0.1846004
91	0x3e80a52d	0.2512602
92	0x3e92d0ff	0.28675076
93	0x3e5ea344	0.21741968
94	0xbe45cc66	-0.19316253
95	0xbdf9b4e9	-0.12192709
96	0x3e99fb69	0.30074623
97	0x3e8c4b0a	0.27401
98	0x3e0afe93	0.13573675
99	0x3e8dd3f5	0.27700773
100	0x3db87e2f	0.090084426
101	0xbdbfb4b7	-0.093606405
102	0xbe024232	-0.12720564
103	0xbea18772	-0.3154865
104	0x3e12a961	0.14322425
105	0xbea32ffe	-0.31872553
106	0x3e7ab13d	0.24481674
107	0x3e00c136	0.12573704
108	0x3c89f66a	0.016841132
109	0x3dd7c561	0.10535694
110	0xbe4e8ef2	-0.20171717
111	0xbe64b801	-0.22335817
112	0x3dfce550	0.123484254
113	0x3d2ac25d	0.041689266
114	0x3de40318	0.111334026
115	0x3de4f651	0.111797936
116	0x3ea1f40b	0.31631503
117	0xbe7ec948	-0.2488147
118	0xbe186fd7	-0.14886414
119	0xbd7dc04e	-0.061950974
120	0xbeb7505b	-0.35803494
121	0x3ea21768	0.31658483
122	0x3e0028bd	0.1251554
123	0xbe62243d	-0.22084136
124	0xbe8e7b9c	-0.2782868
125	0x3e2d0d1d	0.16899534
126	0xbdc8dcbb	-0.09807726
127	0x3e924bba	0.285734
128	0x3e6b1bc9	0.22959818
129	0xbdb748eb	-0.08949455
130	0x3eacf8aa	0.33783466
131	0x3e900970	0.281322
132	0xbd31a116	-0.043366514
133	0x3e587569	0.21138538
134	0x3e841cf8	0.2580335
135	0xbdeac362	-0.114630476
136	0x3e854314	0.2602774
137	0x3e1ee1fd	0.15515895
138	0xbe74c287	-0.23902331
139	0xbe31f4c8	-0.17378533
140	0x3e95021a	0.29103166
141	0xbe1375d6	-0.1440042
142	0xbbe5651f	-0.00700058
143	0x3e38cafb	0.18046181
144	0xbd4f2ebb	-0.050581675
145	0x3ba2d5d5	0.0049693384
146	0xbde7974e	-0.11308156
147	0x3e3011f0	0.17194343
148	0xbe51e655	-0.20498021
149	0xbdd14049	-0.102173395
150	0x3d8db86f	0.069199435
151	0x3e99d697	0.30046532
152	0x3e877fa2	0.26464564
153	0xbe33123e	-0.17487428
154	0x3e923006	0.28552264
155	0x3da2d948	0.07951599
156	0x3d8de7b3	0.06928959
157	0xbe1e2abc	-0.1544599
158	0xbdcdaac0	-0.100423336
159	0xbd91b265	-0.07114104
160	0xbe8af091	-0.27136663
161	0xbd79a233	-0.0609457
162	0x3d3b6cc7	0.045758035
163	0xbdfb4f26	-0.12270956
164	0x3e8cac01	0.2747498
165	0xbe8f5633	-0.27995452
166	0x3de58014	0.112060696
167	0x3e3b0fb4	0.18267709
168	0xbeb9acd4	-0.3626467
169	0xbe8f920f	-0.2804112
170	0x3d10f9ef	0.035394605
171	0xbe098e0d	-0.13433094
172	0x3d892966	0.06697349
173	0x3e3165c1	0.17323972
174	0xbc440f25	-0.011966501
175	0xbe80faff	-0.25191495
176	0x3d248f77	0.04017588
177	0x3e88d241	0.2672291
178	0x3e5a33e2	0.21308854
179	0x3eb70815	0.35748354
180	0x3eb613e8	0.35562062
181	0x3e0bbf29	0.1364714
182	0x3e9924d6	0.29910916
183	0x3de04830	0.10951269
184	0xbc894ab6	-0.016759258
185	0xbdc8db13	-0.0980741
186	0x3e03636b	0.12830894
187	0xbe3cdb55	-0.18443044
188	0xbdbbbdbe	-0.0916705
189	0x3d3d48d1	0.04621202
190	0xbda086f8	-0.07838243
191	0xbd3b73e1	-0.045764808
192	0x3de60443	0.112312816
193	0xbe37dcda	-0.17955342
194	0x3d81ddf7	0.063411646
195	0x3e8708aa	0.26373798
196	0x3e83cc42	0.25741774
197	0x3eb137e8	0.34612966
198	0xbe106a91	-0.14103152
199	0x3d824ed3	0.06362691
200	0xbea10d01	-0.31455234
201	0xbdd8253d	-0.10553978
202	0xbdf2fc2b	-0.118645035
203	0xbe1ca677	-0.15297876
204	0x3ea0e549	0.3142493
205	0xbdb85116	-0.08999841
206	0xbe552406	-0.20814523
207	0x3b89692c	0.0041934457
208	0xbe17ef51	-0.14837386
209	0x3e2debcc	0.1698448
210	0x3d584871	0.05280346
211	0x3d911318	0.0708372
212	0xbe85e192	-0.2614866
213	0xbe3fb5e2	-0.18721727
214	0xbe4b50a4	-0.1985498
215	0x3e3584c5	0.17726429
216	0xbe7780e5	-0.24170263
217	0xbe8a84e4	-0.27054513
218	0xbd846588	-0.06464678
219	0xbe476649	-0.19472612
220	0x3e936494	0.28787673
221	0xbdec2e15	-0.11532227
222	0x3e27a6d1	0.16372229
223	0x3d16a3d6	0.03677734
224	0xbe8bf301	-0.27333835
225	0x3ea72ecb	0.32652888
226	0xbe9fbe8d	-0.31200066
227	0x3d9bd7f8	0.07609552
228	0xbe969973	-0.29413947
229	0xbc8f5c81	-0.017500164
230	0xbe14a76f	-0.14516996
231	0x3e186887	0.14883624
232	0xbe13c6c4	-0.14431292
233	0x3e6418e3	0.22275119
234	0xbe891a05	-0.26777664
235	0xbe8868ce	-0.2664246
236	0x3dc51d0b	0.0962468
237	0xbe35c85d	-0.17752214
238	0x3e2e56ce	0.17025301
239	0x3e576f65	0.21038587
240	0x3e2a556a	0.16634145
241	0xbe268881	-0.1626301
242	0x3cb4114a	0.0219809
243	0x3e05c2d1	0.13062598
244	0x3e82c955	0.2554423
245	0xbdce7eca	-0.10082777
246	0xbe534fc6	-0.206359
247	0xbd83b7fa	-0.06431575
248	0x3e9dd891	0.3082929
249	0xbe216f0b	-0.15765016
250	0x3d94b85d	0.07261727
251	0x3dd19663	0.10233762
252	0xbb9e9853	-0.004839936
253	0x3e643697	0.2228645
254	0x3e9029fe	0.28157037
255	0xbe840607	-0.25785848

encoder.cnn_model.0.conv.0.bias f4 [32]
0	0xbe8ce22f	-0.27516314
1	0x3db273b7	0.08713477
2	0xbe9b73b1	-0.30361703
3	0x3e0dd0e7	0.13849221
4	0x3e772214	0.24134094
5	0xbe0d35a2	-0.1378999
6	0xbdfa4b1f	-0.122213595
7	0x3d4b9845	0.049705762
8	0xbe86c949	-0.26325443
9	0xbe4bf6df	-0.19918393
10	0x3e6ecdd1	0.233207
11	0x3e99989c	0.29999244
12	0xbd98b467	-0.07456284
13	0xbe8f2af5	-0.2796246
14	0x3e3f5df8	0.1868819
15	0xbe046d33	-0.12932281
16	0xbd468c88	-0.048473865
17	0xbe9aa3e6	-0.3020317
18	0x3e0c545d	0.13704057
19	0x3e3783f5	0.17921431
20	0xbe86f673	-0.263599
21	0x3e95e8fb	0.29279312
22	0x3e82f291	0.25575688
23	0xbe759459	-0.23982371
24	0xbdd6e1e7	-0.10492306
25	0x3d6ff542	0.058583505
26	0xbea26bc4	-0.31722844
27	0xbdca5555	-0.09879557
28	0xbe9a01a8	-0.3007939
29	0xbde2edf1	-0.1108054
30	0x3e2fd4ff	0.17171095
31	0x3dacba5e	0.08433984

encoder.cnn_model.0.conv.1.weight f4 [32]
0	0x3f6e4cfc	0.9308622
1	0x3f7e90d7	0.9943976
2	0x3f73e3e6	0.9526962
3	0x3f7deb0b	0.9918677
4	0x3f7bef01	0.98411566
5	0x3f7fae70	0.99875546
6	0x3f7497eb	0.9554431
7	0x3f6b2acc	0.9186218
8	0x3f7bf251	0.9841662
9	0x3f860851	1.0471288
10	0x3f82fa52	1.0232642
11	0x3f7cf1b1	0.9880629
12	0x3f738f04	0.951401
13	0x3f79d19e	0.97585475
14	0x3f6d3858	0.926641
15	0x3f756d9f	0.95870394
16	0x3f7148b9	0.9425159
17	0x3f71762d	0.94320947
18	0x3f7f1d4a	0.99654067
19	0x3f7d1c80	0.9887161
20	0x3f793f66	0.97362363
21	0x3f8da287	1.1065224
22	0x3f757be5	0.95892173
23	0x3f7053b8	0.93877745
24	0x3f82800b	1.0195326
25	0x3f8242f7	1.0176686
26	0x3f7103cd	0.94146425
27	0x3f82a706	1.0207222
28	0x3f702acd	0.9381531
29	0x3f876cc0	1.0580063
30	0x3f6fde82	0.93698895
31	0x3f71b9b5	0.9442399

encoder.cnn_model.0.conv.1.bias f4 [32]
0	0x3da18b1d	0.07887862
1	0x3da164fd	0.0788059
2	0xbcbb7f5a	-0.022887874
3	0xbcece61f	-0.028918324
4	0xbc7b5582	-0.015340211
5	0x3b07c756	0.0020718179
6	0x3d8b8d96	0.06814115
7	0x3dc62fde	0.09677099
8	0xbcacd749	-0.02109875
9	0x3d732136	0.059357844
10	0xbd8552fc	-0.06509969
11	0xbc252a3c	-0.01008087
12	0x3da31762	0.07963444
13	0x3d3aa9a1	0.045571927
14	0xbcaa3c83	-0.020780807
15	0x3dbc27c5	0.09187273
16	0x3c361a55	0.0111146765
17	0xbc19fc7c	-0.009398576
18	0xbc57019d	-0.013122943
19	0xbbdf0699	-0.0068062064
20	0x3d99e58d	0.075144865
21	0xbcd80dd4	-0.026373781
22	0xbc0518d0	-0.008123592
23	0xbd6c2662	-0.057653792
24	0x3c74147d	0.014897463
25	0xbd936fc0	-0.07199049
26	0xbd288c3f	-0.041149374
27	0x3d04411f	0.032288667
28	0x3cb4a2ed	0.022050345
29	0x3d5053b9	0.050861094
30	0x3c0d9248	0.008640833
31	0x3d0143fd	0.03155898

encoder.cnn_model.0.conv.1.running_mean f4 [32]
0	0xbe87a7b1	-0.26495126
1	0x3dcdcf94	0.10049358
2	0xbe99eb5d	-0.3006238
3	0x3e1a88df	0.15091275
4	0x3e6c169b	0.23055498
5	0xbe238a59	-0.15970744
6	0xbdf686c2	-0.12037422
7	0x3d86c5dd	0.06580708
8	0xbe8e172c	-0.27752054
9	0xbe66f89d	-0.22555776
10	0x3e8c793d	0.27436247
11	0x3e9c3170	0.30506468
12	0xbd860cd0	-0.065454125
13	0xbe9b1751	-0.30291227
14	0x3e598aa7	0.21244298
15	0xbdf91cc9	-0.121636935
16	0xbd15993b	-0.036523085
17	0xbe9ef35b	-0.3104504
18	0x3e02ffe3	0.12792926
19	0x3e532750	0.20620465
20	0xbe7720a8	-0.24133551
21	0x3ea35cf6	0.3190686
22	0x3e742597	0.23842464
23	0xbe7a4e84	-0.24444014
24	0xbe02f2cb	-0.1278793
25	0x3d8a7cc9	0.06762082
26	0xbea5a074	-0.3234898
27	0xbdbc2619	-0.09186954
28	0xbe8cfdfd	-0.27537528
29	0xbe0f7e7e	-0.14013097
30	0x3e484071	0.19555832
31	0x3db1632d	0.086614944

encoder.cnn_model.0.conv.1.running_var f4 [32]
0	0x3e83c6ec	0.25737703
1	0x3da6e15d	0.081484534
2	0x3dcc4cba	0.09975572
3	0x3e8fdc21	0.28097633
4	0x3e8455a1	0.2584658
5	0x3efa4800	0.48883057
6	0x3e229bb8	0.15879714
7	0x3f0a5fb5	0.5405229
8	0x3ebed5d4	0.37272513
9	0x3f41c3e7	0.7568955
10	0x3f973439	1.1812812
11	0x3dcf5349	0.10123307
12	0x3e4cfbcc	0.20017928
13	0x3f100ed7	0.56272644
14	0x3fcdf1e3	1.6089443
15	0x3e919444	0.2843343
16	0x3e27ccb9	0.16386689
17	0x3e39f31a	0.18159142
18	0x3ecd3e25	0.40086475
19	0x3ee678d5	0.45014063
20	0x3eeab0de	0.45838064
21	0x3efbd71c	0.49187553
22	0x3efc3232	0.49257046
23	0x3de17912	0.110094205
24	0x3ea5f2d3	0.32411823
25	0x3db1b925	0.08677892
26	0x3e3eecea	0.18645063
27	0x3e28ca53	0.1648343
28	0x3f6163af	0.8804273
29	0x3f1c5011	0.6105967
30	0x3f68757f	0.90804285
31	0x3e8f2f0f	0.2796559

encoder.cnn_model.0.conv.3.weight f4 [32, 32, 3, 3]
0	0x3c32e1ca	0.01091809
1	0xbc96ca57	-0.01840703
2	0xbb2ad7ec	-0.002606864
3	0xbd1c5248	-0.038164407
4	0xbd5982d3	-0.05310328
5	0x3c5ef4e6	0.013608193
6	0x3d26a478	0.040684193
7	0x3bb9a35a	0.005665225
8	0xbc51c096	-0.012802264
9	0xbc572ebd	-0.013133702
10	0x3d77c467	0.06049004
11	0x3d8e90f7	0.069612436
12	0x3aa35150	0.0012460146
13	0x3d883e68	0.06652528
14	0xbd4dfc95	-0.05028971
15	0x3d83a68f	0.06428253
16	0x3cfbfc15	0.03075985
17	0x3a9534ae	0.0011383498
18	0xbdb84e09	-0.08999259
19	0x3bb49309	0.005510692
20	0xbd448d36	-0.04798623
21	0xbc3b1c60	-0.011420339
22	0xbd00f82a	-0.031486668
23	0x3c90bd44	0.017668374
24	0x3d261aad	0.040552784
25	0x3c9498f7	0.018139346
26	0xbc4d6fd6	-0.012538871
27	0x3d3aa622	0.045568593
28	0x3d124fac	0.035720512
29	0x3c91c4c3	0.017794019
30	0xbd418b62	-0.047252066
31	0xbd2d0fb5	-0.042251308
32	0x3cdeeca5	0.02721245
33	0x3de50bf2	0.11183919
34	0x3da82d60	0.082117796
35	0x3abaaffe	0.0014243124
36	0x3d42914a	0.04750184
37	0x3d48d331	0.049029533
38	0xbcc86eda	-0.02446692
39	0x3be16995	0.0068790414
40	0x3d3e5327	0.04646602
41	0xbcf0f775	-0.029414872
42	0x3d3b7b5d	0.045771945
43	0x3cd52902	0.02602053
44	0xbd074a79	-0.033030007
45	0xbcf7bf13	-0.030242478
46	0xbc3a8213	-0.011383551
47	0xbce32297	-0.027726455
48	0xbd806d59	-0.062708564
49	0xbdfe514e	-0.124178514
50	0x3bafc4ef	0.0053640525
51	0x3d0b7de5	0.03405561
52	0xbb69e04c	-0.003568667
53	0xbc96ed86	-0.018423807
54	0xbc600062	-0.013671966
55	0x3d2a8b84	0.04163696
56	0x3cb97aa8	0.022641495
57	0xbd9f28ff	-0.07771491
58	0x3ceb2f27	0.028709007
59	0x3c7b12da	0.015324319
60	0x3d7f8b56	0.06238874
61	0x3cb51e74	0.022109248
62	0x3d6c9d6c	0.057767317
63	0xbab199cc	-0.0013549863
64	0xbd174462	-0.03693045
65	0x3d0f0cb0	0.03492421
66	0x3ce4c4bf	0.027925847
67	0x3d5c8af9	0.053843472
68	0x3d62ef58	0.055404037
69	0x3d3e93d2	0.04652769
70	0xbd195a86	-0.037439846
71	0x3c130d8b	0.008975397
72	0xbae5a7fa	-0.0017521374
73	0x3cfa875d	0.030582124
74	0xbca23440	-0.019800305
75	0xbd21d322	-0.039507993
76	0x3d5355dd	0.051595557
77	0x3c0bd304	0.008534197
78	0xbd14b7ac	-0.036307976
79	0x3a5525ae	0.000813092
80	0xbd43adfe	-0.047773354
81	0x3cec511b	0.028847268
82	0xbd38304c	-0.044967934
83	0xbc065937	-0.008199981
84	0xbd2d1a1f	-0.04226124
85	0xbd64c082	-0.055847652
86	0x3c5d3427	0.013501204
87	0xbcbb5e7e	-0.022872206
88	0xbd485e6f	-0.048918184
89	0xbd9d2431	-0.076729186
90	0xbc622583	-0.013802889
91	0x3d8e9ca5	0.06963471
92	0x3d4eacf0	0.050457895
93	0x3d19233c	0.037387118
94	0x3dc25722	0.094892755
95	0x3caff60f	0.021479635
96	0x3d4dcf5a	0.050246574
97	0xbbd6a09a	-0.006549907
98	0x3d7ec0f1	0.062195722
99	0x3ba723ef	0.005100719
100	0x3abc0569	0.0014344874
101	0x3b7d5484	0.0038655112
102	0x3d9d734c	0.07688007
103	0x3d6496d5	0.055807907
104	0x3cbcab63	0.023030942
105	0x3d9cc8ce	0.07655488
106	0xbd601234	-0.05470486
107	0xbc607dd4	-0.013701875
108	0xbcb1f49c	-0.021723084
109	0xbc477f92	-0.012176411
110	0xbaa652f9	-0.0012689523
111	0xbc2ae4cf	-0.010430529
112	0xbcf0b654	-0.029383816
113	0x3cd1d44b	0.025613924
114	0x3d9ae630	0.07563436
115	0x3d3dcc5f	0.04633748
116	0x3d5aded2	0.053435154
117	0xbd02daa2	-0.031946786
118	0xbd8c751d	-0.06858275
119	0x3d40053d	0.046879996
120	0x3c56f429	0.013119736
121	0xbd263cb7	-0.040585246
122	0x3c53ac11	0.012919442
123	0x3c852a4e	0.016255524
124	0x39fc8e2e	0.00048171118
125	0xbd2e035c	-0.042483672
126	0x3d17a5a9	0.03702322
127	0xbd4e05c9	-0.050298486
128	0xbd207692	-0.039175577
129	0x3da1e9a8	0.079058945
130	0x3dbb43d0	0.091437936
131	0xba51efb0	-0.00080084335
132	0x3d5e2b4b	0.054240506
133	0x3d13f38e	0.036120944
134	0x3cfae644	0.030627377
135	0x3cc82c68	0.024435237
136	0xbd38c5b1	-0.04511041
137	0x3d1ebcd5	0.038754303
138	0xbd3c1d89	-0.045926604
139	0xbd918306	-0.07105069
140	0x3d64890c	0.05579476
141	0x3cccb62b	0.024989208
142	0xbd40496a	-0.046945013
143	0x3c0b588c	0.008504998
144	0xbc34dd01	-0.01103902
145	0x3d81edd4	0.0634419
146	0xbd498c82	-0.049206264
147	0xbd1a1c50	-0.037624657
148	0xbb373b50	-0.0027958937
149	0x3b33a9bc	0.0027414402
150	0xbc83d47c	-0.016092531
151	0x3d2bce68	0.04194489
152	0xba744dbc	-0.00093194447
153	0xbbac2730	-0.005253695
154	0x3d387af0	0.045039117
155	0x3d123a5d	0.03570019
156	0x3cb85be2	0.02250475
157	0xba68bbf6	-0.0008878106
158	0xbc580d59	-0.013186776
159	0xbd964acd	-0.07338486
160	0xbcc25c0d	-0.023725534
161	0x3bd1188f	0.0063811014
162	0xbcf9dd07	-0.030500902
163	0xbd368c84	-0.0445676
164	0x3cc5350d	0.024073148
165	0xbcdc1645	-0.026866088
166	0x3ca6efb7	0.020377977
167	0x3c831832	0.016002748
168	0xbc27e95d	-0.010248509
169	0xbc82800a	-0.015930194
170	0xb8b9dc17	-8.862482e-05
171	0xbcce7f17	-0.025207086
172	0xbb6077a9	-0.003425101
173	0xbb45ae46	-0.003016369
174	0xbd02c9e4	-0.03193082
175	0x3cc88e39	0.02448188
176	0x3d95dde3	0.07317712
177	0xbd2ec913	-0.042672228
178	0x3d281cd1	0.041043106
179	0x3d74cc01	0.059764866
180	0x3d520c9f	0.051281568
181	0x3cb1bcce	0.021696474
182	0xbaca7d61	-0.0015448743
183	0x3d17b1bf	0.037034746
184	0xbd04833c	-0.032351717
185	0x3c1e08f5	0.00964569
186	0x3d0d351c	0.034474477
187	0xbd1d4166	-0.038392447
188	0xbcbf8d5d	-0.023382837
189	0xbd24e8c1	-0.040261034
190	0x3d73f518	0.05955991
191	0x3d58ee0f	0.052961405
192	0xbd1ea7b2	-0.038734145
193	0x3caf76b5	0.021418909
194	0xbd0154aa	-0.031574883
195	0x3d247ce5	0.04015817
196	0x3d8b118e	0.06790458
197	0x3d7413aa	0.059589066
198	0x3bfcace1	0.0077110385
199	0x3c05e1dd	0.008171526
200	0x3c00061c	0.007813957
201	0xbdb61a82	-0.08891775
202	0xbdddd957	-0.1083247
203	0xbd0dbea6	-0.034605645
204	0x3b849072	0.0040455395
205	0xbaf399f2	-0.0018585308
206	0xbd190088	-0.037354022
207	0xbd0a1b90	-0.033717692
208	0x3c8fdf0b	0.01756241
209	0xbd17b226	-0.03703513
210	0x3d224375	0.039615113
211	0x3d5cfcb1	0.053951923
212	0x3c365046	0.011127537
213	0x3d6517f0	0.05593103
214	0x3d3b8ba7	0.04578748
215	0x3c593048	0.01325614
216	0xbc7d444d	-0.015458179
217	0xbb5eb4f7	-0.0033982375
218	0xbc844c88	-0.016149774
219	0x3ad53ff2	0.0016269668
220	0xbbd81a33	-0.00659492
221	0x3ca4d509	0.020121114
222	0x3d7f28a7	0.06229463
223	0x3d111a2c	0.03542535
224	0xbc9d4084	-0.019195803
225	0xbc1145a9	-0.008866706
226	0x3b3217f2	0.0027174917
227	0x3c70e7cb	0.014703701
228	0xbbf7451d	-0.0075460807
229	0x3c7853b0	0.015156671
230	0x3d1986f9	0.037482236
231	0x3d96ec70	0.073693156
232	0x3d70e0f3	0.05880828
233	0x3d3705d6	0.0446833
234	0xbd8207a3	-0.06349113
235	0xbd04cc52	-0.032421418
236	0xbc860c3d	-0.016363258
237	0xba9d0149	-0.0011978532
238	0xbd6263cf	-0.055270966
239	0xbcafd0bb	-0.021461835
240	0xbcc5bc34	-0.024137594
241	0xbce24cbd	-0.027624482
242	0x3d10e60f	0.03537565
243	0x3d023eea	0.03179828
244	0xbd3200a3	-0.04345764
245	0x3d62d325	0.055377144
246	0x3cf159ef	0.029461829
247	0x3d065bf2	0.03280253
248	0x3d4e4c80	0.050365925
249	0x3dde3f72	0.10851945
250	0xbd0fbbc2	-0.03509117
251	0x3c9e1766	0.019298267
252	0x3d6275ce	0.05528813
253	0x3d3a6ce3	0.045514
254	0x3cd9dc46	0.026594292
255	0x3d6234a2	0.055225976

encoder.cnn_model.0.conv.3.bias f4 [32]
0	0x3cfd3090	0.030906945
1	0xbc1d15eb	-0.009587745
2	0x3c5b38d6	0.01338025
3	0x3d4da910	0.05021006
4	0xbcc8c4c7	-0.024507893
5	0x3d1584fe	0.036503784
6	0xbd03879d	-0.032111753
7	0xbd4a5a49	-0.04940251
8	0x3c1903f5	0.009339322
9	0x3ceb646c	0.028734408
10	0x3d140659	0.036138866
11	0xbd21b481	-0.039478783
12	0xbd5e35b7	-0.054250445
13	0x3d3c2618	0.045934767
14	0x3d4fd21e	0.050737493
15	0x3d042939	0.032265875
16	0xbd4a1ea5	-0.04934563
17	0xbd486fe8	-0.048934847
18	0x3d2eae12	0.042646475
19	0xbd4e5ee0	-0.05038345
20	0x3d5eb4fd	0.054371823
21	0x3bcc0196	0.006225775
22	0x3d2f60c1	0.04281688
23	0x3c35731d	0.011074808
24	0xbc3ceb80	-0.011530757
25	0xbc680833	-0.014162111
26	0xbabc36a7	-0.0014359549
27	0xbd6118e1	-0.054955367
28	0xbcb6ec05	-0.02232934
29	0xbcf0c02d	-0.029388512
30	0x3cbbb25d	0.022912199
31	0xbd0f9417	-0.03505334

encoder.cnn_model.0.conv.4.weight f4 [32]
0	0x3f8cff43	1.10154
1	0x3f80d376	1.0064533
2	0x3f804851	1.0022069
3	0x3f73bca5	0.95209724
4	0x3f8ee863	1.1164669
5	0x3f8c6373	1.096785
6	0x3f7477e9	0.9549547
7	0x3f78b0a1	0.97144514
8	0x3f8b94d0	1.0904789
9	0x3f8932ce	1.0718629
10	0x3fa38a3e	1.2776563
11	0x3f7d81c1	0.99026114
12	0x3f90918c	1.1294417
13	0x3f73aaac	0.951823
14	0x3f7ec2e5	0.99516135
15	0x3f818838	1.0119696
16	0x3f8157ee	1.0104959
17	0x3f7fbe48	0.9989972
18	0x3f75b4be	0.95978916
19	0x3f89662c	1.0734305
20	0x3f8b7b3c	1.0896983
21	0x3f75ca84	0.9601214
22	0x3f8358a5	1.0261427
23	0x3f848299	1.0352355
24	0x3f6a2c2e	0.9147366
25	0x3f5cb20c	0.8620918
26	0x3f82ad00	1.0209045
27	0x3f717faf	0.94335455
28	0x3f71f846	0.9451946
29	0x3f7c4258	0.9853873
30	0x3f724e04	0.9465029
31	0x3f8293e3	1.0201381

encoder.cnn_model.0.conv.4.bias f4 [32]
0	0xbcb66a28	-0.022267416
1	0xbd449625	-0.04799475
2	0xbc85c4ec	-0.016329251
3	0xbd4d12d4	-0.050066784
4	0xbce263ec	-0.027635537
5	0x3bcac0ce	0.006187535
6	0xbd1de6e0	-0.038550258
7	0x3cff7d62	0.031187717
8	0xbca2b21e	-0.019860324
9	0xbd6c5220	-0.057695508
10	0xbcf04e62	-0.02933425
11	0xbd634724	-0.055487767
12	0x3c4ead3b	0.012614544
13	0x3d451bc7	0.048122194
14	0xbd563724	-0.05229868
15	0xbdb8f917	-0.09031885
16	0x3cfa0fee	0.030525174
17	0x3c105c73	0.008811104
18	0x3cfa5f2f	0.030562965
19	0x3d707908	0.058709174
20	0xbd6d9670	-0.058004797
21	0xbc57a118	-0.013160966
22	0xbdab1b85	-0.08354858
23	0x3d814568	0.06312066
24	0x3c6f8cf3	0.014621007
25	0xbd530f24	-0.05152811
26	0x3b33ac26	0.002741584
27	0x3c1bc967	0.009508467
28	0xbccf5d3e	-0.025313016
29	0xbcb3fa47	-0.021969927
30	0x3c422cd9	0.011851513
31	0xbc529984	-0.012853984

encoder.cnn_model.0.conv.4.running_mean f4 [32]
0	0xbed0a3fd	-0.40750113
1	0xbeffe6f3	-0.49980888
2	0x3e006c2a	0.12541261
3	0x3ead2c31	0.33822778
4	0xbf0985a0	-0.5371952
5	0xbe8ce2e4	-0.27516854
6	0x3df92f34	0.121672064
7	0x3e79cf44	0.24395472
8	0xbe695d99	-0.22789611
9	0xbec0fdab	-0.37693533
10	0xbeae47a5	-0.34039035
11	0xbf12605e	-0.57178295
12	0xbe8c62ac	-0.2741903
13	0xbe1f243a	-0.15541163
14	0x3edb25fb	0.42802414
15	0x3ed82c2d	0.42221203
16	0xbee37bb7	-0.44430324
17	0xbec5dedc	-0.3864659
18	0x3ec05542	0.37565047
19	0xbda843af	-0.082160346
20	0x3e8f42fd	0.27980796
21	0xbeb1ff74	-0.34765208
22	0xbf065154	-0.52467847
23	0xbe021b77	-0.1270579
24	0xbdb54960	-0.08851886
25	0xbf0f084a	-0.55872023
26	0x3ea8d35c	0.32973754
27	0x3e8da961	0.27668288
28	0x3e3ba893	0.18326025
29	0xbf0c0360	-0.5469265
30	0x3e725afc	0.2366752
31	0x3eabeff9	0.33581522

encoder.cnn_model.0.conv.4.running_var f4 [32]
0	0x3fc0bd93	1.5057853
1	0x3ffb9202	1.9653933
2	0x3f9c3c40	1.2205887
3	0x3fda0a6b	1.7034429
4	0x3fedd19c	1.8579593
5	0x3f4205d1	0.75790125
6	0x3f7c7b39	0.9862552
7	0x40320d41	2.782059
8	0x3f126441	0.57184225
9	0x3f9fcd3d	1.2484509
10	0x3f8c4384	1.0958104
11	0x4020960a	2.5091577
12	0x3f0adb13	0.5424053
13	0x3f5c89fe	0.8614806
14	0x3fc85e0e	1.5653703
15	0x3fb7c1ac	1.4355979
16	0x3fcba9ef	1.5911235
17	0x3f8b1331	1.0865232
18	0x3fed65eb	1.8546728
19	0x3f4d0a66	0.8009399
20	0x3f6b9782	0.9202806
21	0x3fa7f296	1.3120906
22	0x4026ada4	2.6043482
23	0x3f259c08	0.6469121
24	0x3f19240c	0.5982063
25	0x40353d28	2.8318577
26	0x3ffce384	1.9756932
27	0x3fe81f34	1.8134522
28	0x3faa6c3e	1.3314283
29	0x40104373	2.2541168
30	0x3f9bd321	1.2173806
31	0x40264ffc	2.5986319

encoder.cnn_model.2.conv.0.weight f4 [32, 32, 3, 3]
0	0xbaffc5aa	-0.0019513865
1	0x3d4a0d90	0.04932934
2	0x3d8a655d	0.06757615
3	0x3ceeca6c	0.029149257
4	0xbc2a81e3	-0.010406944
5	0x3ca516b3	0.020152425
6	0x3c5a2ac9	0.013315865
7	0xbd467a2e	-0.048456363
8	0xbd35ffb3	-0.044433307
9	0x3d7a8b3e	0.061167948
10	0x3d4b3a24	0.049615994
11	0x3d1f2ffd	0.038864125
12	0xbd52105e	-0.05128514
13	0x3ba72c64	0.0051017273
14	0x3da0297b	0.07820412
15	0xbd3dd9a2	-0.04635013
16	0xbd294075	-0.041321237
17	0xbac674f8	-0.001514106
18	0xbd7a2272	-0.061068006
19	0xbcd815e5	-0.026377628
20	0x3d1adfbe	0.037811033
21	0x3cc8a7a2	0.024493996
22	0x3d191b00	0.037379265
23	0xbd6a4c56	-0.057201706
24	0x3d74bc68	0.05974999
25	0x3c44fdf9	0.012023442
26	0xbb045d01	-0.0020197036
27	0x3b5ec078	0.0033989232
28	0x3d739805	0.05947115
29	0x3d193fed	0.03741448
30	0x3b75bb78	0.0037495773
31	0xbd64572f	-0.055747207
32	0x3c07a213	0.008278388
33	0xbce2439b	-0.027620127
34	0x3da68f49	0.08132798
35	0x3df24ea3	0.11831405
36	0xbbe3c879	-0.0069513884
37	0x3d2e1f95	0.042510588
38	0xbc966057	-0.018356485
39	0x3cdc1c44	0.026868947
40	0x3cab3536	0.020899396
41	0x3d3a5c95	0.04549845
42	0xbcac9299	-0.021065997
43	0x3cc81589	0.024424331
44	0x3d518eb3	0.05116148
45	0xbdafe382	-0.085883155
46	0xbd9718d2	-0.07377781
47	0x3b498226	0.003074774
48	0xbd41067e	-0.047125332
49	0x3d3054d2	0.04304964
50	0x3d75bf49	0.059996877
51	0xbd5b3291	-0.05351502
52	0xbc8bba5e	-0.01705664
53	0xbd89677a	-0.0670919
54	0xbda39ef4	-0.07989302
55	0x3c47bcfc	0.0121910535
56	0xbd252e64	-0.040327445
57	0x3d004966	0.03132
58	0x3da2c069	0.079468556
59	0x3cf67d09	0.030088918
60	0xbd6dba77	-0.058039155
61	0xbd989ceb	-0.07451805
62	0xbd152206	-0.0364094
63	0x3c890db0	0.01673016
64	0x3cb57bbf	0.022153733
65	0x3c82e62a	0.015978891
66	0x3d5c1d49	0.053738866
67	0xbc1a64c0	-0.009423435
68	0xbd05af05	-0.032637615
69	0xbd1cda00	-0.03829384
70	0xbd5d5dcb	-0.054044526
71	0x3d15f04f	0.03660613
72	0x3d1f9e25	0.038969178
73	0xbd2475f7	-0.040151563
74	0x3a217312	0.00061588094
75	0xbd1d454b	-0.03839616
76	0x3c7c554b	0.015401195
77	0xbc9dc1fb	-0.019257536
78	0x3b8398a9	0.0040160012
79	0xbab5b59f	-0.0013863331
80	0x3daa4576	0.0831403
81	0x3cbb1129	0.022835331
82	0xbd39b2ee	-0.045336656
83	0x3d91213a	0.070864156
84	0x3c1bac5d	0.009501544
85	0x3b05ddb9	0.0020426346
86	0x3dae14a4	0.08500031
87	0xbd932504	-0.071847945
88	0xbd1bc0a5	-0.038025517
89	0x3d74975a	0.059714653
90	0xbc2fe21b	-0.01073506
91	0xbd3ecdcb	-0.04658298
92	0x39902a6d	0.0002749743
93	0x3d18854f	0.037236508
94	0xbd538930	-0.051644504
95	0x3c88fdea	0.016722638
96	0x3d4e3b67	0.05034962
97	0x3bd5a28b	0.006519621
98	0xbcf97d4c	-0.030455254
99	0x3d618023	0.05505384
100	0x3d0a9bc3	0.033839952
101	0xbcdbba82	-0.026822332
102	0x3d0e5061	0.034744624
103	0x3c92974b	0.017894408
104	0x3d95f810	0.07322705
105	0xbd0e34c7	-0.0347183
106	0xbc81f66f	-0.015864579
107	0x3c8ff2c0	0.017571807
108	0xbbb6c097	-0.0055771577
109	0x3d0e65bf	0.034765
110	0x3d70a880	0.058754444
111	0x3d5f56e9	0.054526243
112	0x3cbadbce	0.02280989
113	0x3cc57e82	0.024108175
114	0xbd1f3bc4	-0.038875356
115	0xbd2a5b10	-0.04159075
116	0x3cf74343	0.03018344
117	0x3ce63506	0.028101455
118	0xbcb2c15a	-0.021820713
119	0x3b2b2e6f	0.0026120206
120	0x3d2b20a7	0.041779187
121	0xbd3bab59	-0.045817707
122	0xbd079353	-0.033099484
123	0xbbedbf13	-0.007255444
124	0xbcd2bd52	-0.02572504
125	0xbdbe73a0	-0.092993975
126	0xbcc58521	-0.024111332
127	0x3cc88fb6	0.02448259
128	0xbc7a0a9f	-0.015261321
129	0x3c76516a	0.015034059
130	0x3d3f35f5	0.046682317
131	0x3cc34a3e	0.023839112
132	0x3cbd48c2	0.023105983
133	0x3d9f0174	0.07763949
134	0xbb63f09f	-0.0034780873
135	0xbd485902	-0.04891301
136	0xbaae9f18	-0.001332256
137	0x3cd0915b	0.025459936
138	0x3c81ec05	0.015859613
139	0xba3a7b55	-0.0007113715
140	0x3ccc31e5	0.024926135
141	0x3d72145a	0.05910144
142	0x3d0516f5	0.032492597
143	0x3a29a36a	0.0006471189
144	0x3c4dfebe	0.012572942
145	0x3d1d1949	0.038354192
146	0x3d74b16c	0.059739515
147	0xbce3cf14	-0.027808703
148	0x3d945b00	0.072439194
149	0x3d8f42a4	0.069951326
150	0xbd060bb7	-0.032726016
151	0xbbc4ee2e	-0.0060098385
152	0xbb03f23a	-0.0020133392
153	0xbd01334f	-0.031543072
154	0xbcb6bd7d	-0.022307152
155	0xbb7d5110	-0.0038653053
156	0xbce8a7c7	-0.028400315
157	0xbcaa1e04	-0.020766266
158	0x3dc27b35	0.09496156
159	0xbccb7ada	-0.024838854
160	0xbd39341d	-0.045215715
161	0x3d9268a3	0.07148864
162	0xbcb48556	-0.022036236
163	0x3cb03313	0.02150873
164	0xbcf9733a	-0.030450452
165	0x3c333f03	0.010940316
166	0xbd4d4cbf	-0.05012202
167	0x3caf8cb3	0.021429395
168	0xbce8e5cd	-0.02842989
169	0x3dab90e0	0.08377242
170	0xbccc303d	-0.024925346
171	0x3d82a4f4	0.063791186
172	0x3cdba704	0.026813038
173	0xbd8db5ef	-0.06919467
174	0x3cf4be07	0.029875768
175	0xbcb6113f	-0.02222502
176	0x3c86ad1a	0.016439963
177	0x3da45c77	0.08025449
178	0xbcc1de28	-0.023665503
179	0x3d74b3ac	0.05974166
180	0x3d0240fe	0.031800263
181	0x3c5e1741	0.013555349
182	0x3d46098a	0.04834894
183	0xbd0db8f1	-0.034600202
184	0xbd1095c2	-0.03529907
185	0xbd9c1430	-0.07621038
186	0x3db92008	0.090393126
187	0x3e085aee	0.13315937
188	0x3d930c66	0.07180099
189	0xbd05da6c	-0.032679006
190	0xbd31d819	-0.043418977
191	0x3bf1a459	0.007374328
192	0xbd4518c7	-0.048119333
193	0x3d26c3ce	0.040714078
194	0xbb15dbd8	-0.0022866633
195	0xbd9c7600	-0.07639694
196	0xbcc4e7c5	-0.024036298
197	0xbd7aa7d3	-0.061195206
198	0xbd049053	-0.0323642
199	0xbd02aad8	-0.03190121
200	0xbbe98c3b	-0.0071273125
201	0x3cdf95db	0.027293136
202	0xbd15bd73	-0.036557626
203	0x3d39b928	0.045342594
204	0xbbc85bbf	-0.0061144526
205	0x3d818572	0.06324281
206	0x3be330a0	0.006933287
207	0xbb2defcf	-0.0026540642
208	0xbd07c3de	-0.033145778
209	0x3d7017bd	0.05861639
210	0xbd2800d3	-0.04101641
211	0x3d787ade	0.06066405
212	0x3d2b1c05	0.04177477
213	0xbd0973bf	-0.03355765
214	0x3c991b9a	0.01868992
215	0xbd7a2f92	-0.061080523
216	0x3ca95807	0.020671858
217	0xbcc78eae	-0.024360027
218	0x3b82bb09	0.0039895815
219	0x3d9823f7	0.07428735
220	0x3d092f98	0.033492655
221	0xbb82fbc9	-0.0039973003
222	0xba6d2e56	-0.0009047737
223	0xbd481107	-0.048844364
224	0xbda350b0	-0.07974374
225	0x3c6d74d6	0.014493188
226	0xbd62b888	-0.055351764
227	0xbb9f4c8d	-0.0048614205
228	0x3c376cce	0.011195375
229	0x3d646b7c	0.055766568
230	0xbc41dddb	-0.01183268
231	0xbb23c097	-0.0024986619
232	0x3d6abb2d	0.05730741
233	0x3c97ee74	0.01854632
234	0x3ca38dd6	0.019965094
235	0x3da80710	0.08204472
236	0xbbd0398e	-0.0063545173
237	0x3c99e1fb	0.018784514
238	0x3d72b6ac	0.05925624
239	0xbd86761d	-0.06565497
240	0x3cdca16d	0.026932443
241	0x3cc318e7	0.023815585
242	0x3cc46110	0.023972064
243	0xbd92535d	-0.071448065
244	0xbcf7c2cc	-0.030244254
245	0x3d1e4b94	0.038646296
246	0xbd33ca6f	-0.043894228
247	0xbc7bfab9	-0.015379601
248	0xbd281e68	-0.041044623
249	0xbd3a7dfd	-0.045530308
250	0xbb66d255	-0.0035220583
251	0x3c9873f6	0.018609982
252	0x3d390c46	0.04517772
253	0xbc1af358	-0.009457432
254	0x3d500cc1	0.050793413
255	0x3ceba24e	0.028763916

encoder.cnn_model.2.conv.0.bias f4 [32]
0	0xbc81f30c	-0.015862964
1	0x3ca6f070	0.020378321
2	0xbd35c29b	-0.044375043
3	0xbb1bd5f7	-0.0023778656
4	0xbcd5891f	-0.026066361
5	0xbc119b9c	-0.008887198
6	0x3d2d7f4e	0.042357735
7	0x3d2dec1a	0.042461492
8	0x3b95306d	0.004552892
9	0xbb628fa7	-0.0034570487
10	0xbd56a9d0	-0.05240804
11	0xbd429857	-0.047508564
12	0x3d21fca7	0.03954759
13	0x3c52a073	0.012855637
14	0xbc6cff8f	-0.014465227
15	0x3cd3cfc2	0.025855903
16	0x3d0c3502	0.03423024
17	0x3ce41874	0.027843691
18	0x3bc681cd	0.006057954
19	0x3d5eb550	0.05437213
20	0xbb27861a	-0.0025562108
21	0xbd6aa8e0	-0.057289958
22	0x3c9b6be7	0.01897235
23	0x3bbb2772	0.0057114894
24	0x3d6c0914	0.057625845
25	0xbce8e0ec	-0.028427564
26	0xbd126cf5	-0.03574844
27	0x3cf5fddb	0.030028274
28	0xbcb7aa91	-0.0224202
29	0x3d00ef85	0.031478424
30	0x3d021ee4	0.03176774
31	0x3d349774	0.04408975

encoder.cnn_model.2.conv.1.weight f4 [32]
0	0x3f825a13	1.0183738
1	0x3f807ddd	1.003841
2	0x3f889858	1.0671492
3	0x3f911435	1.1334292
4	0x3f757d71	0.95894533
5	0x3f8d1832	1.1023009
6	0x3f907708	1.1286325
7	0x3f902fbb	1.1264566
8	0x3f8d3c51	1.1034032
9	0x3f892029	1.071294
10	0x3f823996	1.0173824
11	0x3f86fb12	1.054537
12	0x3f8da9b3	1.1067413
13	0x3f838d7c	1.0277553
14	0x3f8874f4	1.0660691
15	0x3f932c1e	1.1497838
16	0x3f8350d2	1.0259039
17	0x3f899f65	1.0751768
18	0x3f80e681	1.0070344
19	0x3f7aceea	0.97971976
20	0x3f879474	1.0592179
21	0x3f8bdfd0	1.0927677
22	0x3f867475	1.050429
23	0x3f7b029d	0.9805086
24	0x3f7dd327	0.9915032
25	0x3f8a0c64	1.0785031
26	0x3f8602ff	1.0469664
27	0x3f82b736	1.0212162
28	0x3f64129f	0.89090914
29	0x3f7c0c3b	0.9845616
30	0x3f622bc8	0.88348055
31	0x3f82a24f	1.0205783

encoder.cnn_model.2.conv.1.bias f4 [32]
0	0xbd31677c	-0.04331158
1	0x3bd8da54	0.0066178236
2	0xbe01e28f	-0.12684081
3	0x3e445d09	0.19176115
4	0xbd7ecc45	-0.062206525
5	0xbe6b984b	-0.23007314
6	0x3d9a82ea	0.07544501
7	0xbde7a1b2	-0.11310138
8	0xbd100cdc	-0.035168514
9	0x3e60b178	0.21942699
10	0xbb9c4374	-0.004768783
11	0x3e92e7b8	0.28692412
12	0x3cdaefd8	0.026725695
13	0x3e11f007	0.1425172
14	0xbdba2b70	-0.09090316
15	0x3c1d0c9a	0.009585524
16	0xbdb488a9	-0.08815128
17	0xbc864b3a	-0.016393293
18	0x3d0b818a	0.034059085
19	0xbdf61acf	-0.12016832
20	0xbdfa9434	-0.12235299
21	0x3d389a1c	0.045068845
22	0x3d2e1a1b	0.042505365
23	0xbd75e7c4	-0.060035482
24	0x3cfe415a	0.031037021
25	0x3bd2d626	0.00643422
26	0xbbb0aa33	-0.005391383
27	0x3da6407d	0.08117769
28	0x3db9cbd3	0.090720795
29	0x3d17d6a3	0.037069928
30	0x3de26fc3	0.11056473
31	0xbda8f68c	-0.0825015

encoder.cnn_model.2.conv.1.running_mean f4 [32]
0	0x3dc09587	0.0940352
1	0xbede3428	-0.43399167
2	0xbe9b55e7	-0.30338976
3	0x3e7c9eab	0.24669902
4	0x3f8d00bf	1.1015853
5	0xbe823c42	-0.25436598
6	0xbeb4c57b	-0.35306916
7	0x3d5ad9e9	0.05343047
8	0x3f3139c3	0.6922876
9	0x3e437289	0.1908666
10	0x3f116d0e	0.5680703
11	0x3e5405d6	0.20705351
12	0x3d91e5f9	0.07123942
13	0xbd59ddd2	-0.05319006
14	0x3c0aae1e	0.008464364
15	0x3e1bb5f3	0.15206127
16	0xbdc00651	-0.09376205
17	0xbe389057	-0.18023811
18	0x3f5101ff	0.8164367
19	0x3e230046	0.15918073
20	0xbe8d95c6	-0.2765333
21	0x3e24a180	0.16077232
22	0x3ecef649	0.40422276
23	0x3ee8594a	0.45380622
24	0xbf0b57dc	-0.5443094
25	0xbefa592c	-0.48896158
26	0x3ee52f3c	0.447626
27	0xbce943f1	-0.02847478
28	0x3e746896	0.23868021
29	0xbd2f4f95	-0.042800505
30	0xbed6a50d	-0.419228
31	0x3e5eb5d6	0.21749052

encoder.cnn_model.2.conv.1.running_var f4 [32]
0	0x3ef4a979	0.47785547
1	0x3fd1a4be	1.63784
2	0x3f6076e5	0.8768142
3	0x3f28ccd6	0.65937555
4	0x3f1456fa	0.57945216
5	0x3f46590b	0.7747962
6	0x3f71daa2	0.9447423
7	0x3f46a322	0.7759267
8	0x3ff7badc	1.93539
9	0x3f440a1a	0.76577914
10	0x3fddbcc5	1.7323233
11	0x3f62a699	0.8853546
12	0x3fa58237	1.2930363
13	0x3f8f808f	1.1211108
14	0x3f5de06c	0.86670566
15	0x3fc5a853	1.5441993
16	0x3ee9e28f	0.45680663
17	0x3f93c6c5	1.1545035
18	0x3eccf5d0	0.4003129
19	0x3f85ecd3	1.0462898
20	0x3f5d629d	0.86478597
21	0x3f874712	1.0568564
22	0x3fc19b1c	1.5125461
23	0x3f3470a4	0.70484376
24	0x3f23dc97	0.6400847
25	0x3fa21754	1.2663369
26	0x3fbff118	1.4995451
27	0x3fb06d57	1.3783368
28	0x3f9dbac6	1.2322624
29	0x3fe84206	1.8145149
30	0x3edf1594	0.4357115
31	0x3f1014a2	0.56281483

encoder.cnn_model.2.conv.3.weight f4 [32, 32, 3, 3]
0	0x3dabac6c	0.08382496
1	0x3d852bed	0.06502519
2	0xbca43bc7	-0.020048035
3	0xbca75916	-0.020428222
4	0xbc5f1162	-0.013614984
5	0xbdc5e99c	-0.09663698
6	0x3d1473d9	0.036243293
7	0x3c4f6bc8	0.012659974
8	0xbd7f4028	-0.062317044
9	0xbcd82de8	-0.026389077
10	0xbc80b69d	-0.015712077
11	0xbd352464	-0.044224158
12	0x3b819798	0.003954839
13	0x3c0e0ee9	0.008670547
14	0x3c8cb2f2	0.017175172
15	0xbc0e6456	-0.008690914
16	0x3c307127	0.010769165
17	0x3ba920bb	0.0051613725
18	0x3d27b06c	0.040939733
19	0x3c56d06a	0.013111213
20	0x3d4c19f7	0.04982945
21	0x3c9c59db	0.019085815
22	0x3d0b1219	0.033952806
23	0x3d81a2b7	0.063298635
24	0xbd841d90	-0.06450951
25	0x3d1160ea	0.035492815
26	0xbcc73e38	-0.02432166
27	0x3d4c7831	0.04991931
28	0xbc6522de	-0.013985364
29	0xbd6cbb5e	-0.057795875
30	0x3d9819a9	0.07426769
31	0xbaf393f0	-0.0018583518
32	0x3cc808f6	0.024418335
33	0x3dbe87b8	0.0930323
34	0x3d9990dd	0.074983336
35	0xbd8b2121	-0.06793428
36	0xbd5bdc20	-0.053676724
37	0x3c9d828b	0.019227287
38	0x3c19c1fc	0.009384628
39	0x3cd11ac5	0.02552546
40	0x3d14738b	0.036243003
41	0x3caed544	0.021341927
42	0x3abc6b4e	0.0014375241
43	0xbcb27922	-0.021786276
44	0x3bb7748c	0.0055986103
45	0xbd468e69	-0.048475657
46	0xbd9b8283	-0.075932525
47	0xbc9903c7	-0.018678559
48	0xbc7e0882	-0.015504958
49	0xba0d7d2f	-0.0005397377
50	0xbd1a5c2f	-0.03768557
51	0x3c0a92be	0.008457838
52	0xbdc4f06f	-0.096161716
53	0x3c2a4a8d	0.010393751
54	0x3bedbd0e	0.007255203
55	0x3c8a8dd1	0.016913326
56	0xbcab4f2a	-0.020911772
57	0x3c24cadb	0.01005813
58	0x3d2ee3f4	0.04269786
59	0x3c85291d	0.016254956
60	0x3d836e56	0.06417529
61	0x3d4fa6b2	0.050696082
62	0x3d2f801a	0.042846777
63	0xbc8118f5	-0.01575897
64	0xbca6ea4c	-0.020375393
65	0x3b3d9f13	0.0028933927
66	0xbd47bf81	-0.048766617
67	0xbd2c7bb4	-0.04211016
68	0x3d4a7a38	0.049432963
69	0xbd945b27	-0.072439484
70	0xbc158785	-0.009126549
71	0xbd1bede4	-0.038068667
72	0x3d2b2cf6	0.041790925
73	0x3c82bbb7	0.01595865
74	0xbd7dd87e	-0.06197404
75	0xbd80376a	-0.062605694
76	0xbd34ad76	-0.044110738
77	0x3d6fa246	0.058504365
78	0xbdaf6a1f	-0.08565163
79	0xbd575d78	-0.052579373
80	0x3c8e8cdd	0.017401153
81	0x3a930f02	0.0011219683
82	0xbd3e8f9f	-0.046523686
83	0xbd5f983a	-0.054588534
84	0x3d002ef6	0.031294785
85	0x3d69c20e	0.05706983
86	0xbd30b2cd	-0.043139268
87	0x398a422a	0.00026370707
88	0xbc6807b9	-0.0141619975
89	0xbd056bfd	-0.03257369
90	0x3d6c6ccd	0.057720948
91	0x3d6c4a17	0.057687845
92	0xbd6406ca	-0.055670537
93	0x3ba06106	0.0048943786
94	0x3caa780e	0.0208092
95	0xbd237c39	-0.03991339
96	0xbd580fae	-0.05274933
97	0xbcbdf917	-0.023190064
98	0xbda5cd7b	-0.08095833
99	0x3cd66373	0.026170468
100	0xbce67380	-0.028131247
101	0x3d36a641	0.044592146
102	0xbc7c194f	-0.015386893
103	0xbc919493	-0.017771041
104	0xbd99edbe	-0.07516049
105	0x3d8510ee	0.0649737
106	0x3d3ccd95	0.046094496
107	0xbc08bf52	-0.008346396
108	0xbbf4dd8d	-0.0074727
109	0xbd06a0ef	-0.032868322
110	0xbd282215	-0.04104813
111	0x3d661a58	0.056177467
112	0x3c922602	0.01784039
113	0xbba86452	-0.0051389122
114	0x3d0f8d09	0.03504661
115	0x3c33d6cf	0.010976507
116	0x3d0961e3	0.033540618
117	0xbcada90f	-0.021198777
118	0x3d4eea9c	0.05051671
119	0xb9b04015	-0.0003361708
120	0x3d3b471b	0.04572211
121	0xbc142501	-0.009042026
122	0xbce59af3	-0.028027987
123	0xbd311df1	-0.043241445
124	0x3dc55026	0.09634428
125	0x3d306a2a	0.043069996
126	0xbc910a21	-0.017705025
127	0xbcd701a3	-0.026245898
128	0xbd9d12bf	-0.07669591
129	0xbcbf7853	-0.023372805
130	0xbc9bb677	-0.019007904
131	0x3ba0a9c9	0.0049030525
132	0xbc2a5705	-0.010396724
133	0xbc3baa2f	-0.011454149
134	0x3c811288	0.015755907
135	0xbd203203	-0.039110195
136	0x3c877ed1	0.016539963
137	0xbca52734	-0.020160295
138	0xbcc89826	-0.024486613
139	0x3c79a8ef	0.015238031
140	0x3cc2ddea	0.023787457
141	0x3b5a09fb	0.003327011
142	0xbcb7ca2b	-0.022435268
143	0x3b52a199	0.0032139777
144	0xbd204464	-0.039127722
145	0xbcfe4a13	-0.03104118
146	0xbc912b10	-0.01772073
147	0x3cc66602	0.024218563
148	0xbdf13f4c	-0.11779651
149	0x3c856e50	0.016287953
150	0xbd85d8ec	-0.06535515
151	0xbd709407	-0.05873492
152	0x3d612a26	0.054971837
153	0xbdc1a298	-0.094548404
154	0x3cb53d68	0.022124007
155	0x3cc52da3	0.024069613
156	0xbb56541b	-0.003270394
157	0x3cbf8834	0.023380376
158	0x3cc01930	0.02344951
159	0xbd77e02d	-0.060516525
160	0x3d041ebc	0.032255873
161	0x3ce65c60	0.02812022
162	0x3dac5d27	0.08416205
163	0xbd4a6e67	-0.049421694
164	0x3bea7d2c	0.007156035
165	0xbcdf1bb9	-0.027234899
166	0xbdc86ae6	-0.09786014
167	0xbcba3c49	-0.022733824
168	0x3baad45c	0.0052133035
169	0xbd51dc9e	-0.051235788
170	0x3b2230b1	0.002474826
171	0xbd5022a8	-0.0508143
172	0x3ccaf757	0.024776144
173	0xbba85a6c	-0.0051377323
174	0xbcac586c	-0.021038257
175	0xbd5c7f61	-0.053832415
176	0x3c835698	0.016032502
177	0xbcaf964e	-0.021433976
178	0xbac57c48	-0.0015066946
179	0x3ce9b8af	0.028530447
180	0xbd2e30ae	-0.042526893
181	0x3d7f9ba5	0.062404294
182	0xbd01b828	-0.031669766
183	0x3c2752f1	0.010212646
184	0x3ca1c662	0.019747917
185	0x3b284904	0.0025678286
186	0xbc8d056e	-0.017214503
187	0xbc12be29	-0.0089564705
188	0x3d244022	0.040100224
189	0x3d1ba935	0.038003165
190	0x3c4c29be	0.012461124
191	0xbd283823	-0.04106916
192	0xbc9be4c5	-0.019029984
193	0xbd81fa12	-0.06346525
194	0x3d34f9a3	0.044183385
195	0x3bba0f2f	0.0056780796
196	0x3d0c361c	0.03423129
197	0x3ce04d49	0.027380602
198	0xbc50ecb5	-0.012751748
199	0x3d45b741	0.048270468
200	0x3d5c4ce6	0.053784274
201	0x3cb24d18	0.021765277
202	0xbc98e4f8	-0.018663868
203	0xbc9f3c2d	-0.019437874
204	0x3c58e61e	0.013238458
205	0xbd08740b	-0.033313792
206	0xbdb65e6d	-0.08904729
207	0x3d55b592	0.052175112
208	0x3cff1347	0.031137122
209	0xbd677365	-0.056506533
210	0x3d62a7b7	0.055335727
211	0xbd15b7e6	-0.036552332
212	0xbabc2b18	-0.0014356105
213	0x3d00830c	0.031374976
214	0x3d6b58a6	0.05745759
215	0xbcf8e574	-0.03038285
216	0xbcd838f7	-0.02639435
217	0x3cf9077c	0.030399077
218	0xbcc01a32	-0.02344999
219	0xba77fb02	-0.00094597053
220	0x3c0ccc5b	0.008593644
221	0x3cf828e1	0.03029293
222	0xbd69fe81	-0.05712748
223	0xbd4778af	-0.048699077
224	0xbcf20ff1	-0.029548617
225	0xbc514f3f	-0.012775241
226	0x3d772e4c	0.060346887
227	0x3ad3f583	0.0016171191
228	0x3ce9836e	0.028505053
229	0x3d293dc4	0.04131867
230	0x3c3defb6	0.011592796
231	0x3d89cbb6	0.06728308
232	0x3d235d35	0.03988381
233	0x3bf302ed	0.0074161203
234	0x3b6ae745	0.0035843414
235	0xbd835bec	-0.06414017
236	0xbd6ea649	-0.05826405
237	0xbd84e0c7	-0.064881854
238	0xbd8114b2	-0.063027754
239	0xba951d68	-0.0011376562
240	0xbd626793	-0.055274557
241	0xbd8ecdf9	-0.0697288
242	0xbda099b2	-0.07841815
243	0xb920e358	-0.00015343481
244	0xbd8018c9	-0.062547274
245	0x3b50bbe1	0.0031850266
246	0x3ce653fe	0.028116222
247	0x3d1568c1	0.036476854
248	0xbcece67f	-0.028918503
249	0xbd48db24	-0.049037114
250	0xbd089017	-0.03334054
251	0x3cebe9f6	0.028798085
252	0xbc9aaf9d	-0.018882567
253	0x3c225b5f	0.00990948
254	0x3bc8a9e5	0.0061237686
255	0x3d9d3dae	0.0767778

encoder.cnn_model.2.conv.3.bias f4 [32]
0	0xbc670875	-0.014101137
1	0x3d69d377	0.057086434
2	0xbcc6286d	-0.024189198
3	0xbd07bd30	-0.033139408
4	0xbd6607d0	-0.056159794
5	0x3d262885	0.040565986
6	0xbd578b8a	-0.05262331
7	0xbcf7c834	-0.030246831
8	0x3d3451ae	0.04402321
9	0xbbb0b64a	-0.0053928243
10	0xbd2b184f	-0.04177123
11	0xbc207641	-0.009793819
12	0xbc849992	-0.01618651
13	0x3d13f103	0.03611852
14	0x3cb6ee73	0.022330498
15	0xbd2ef839	-0.042717192
16	0xbd1bd26d	-0.038042475
17	0x3c12b6f2	0.00895475
18	0x3d6d2bf7	0.057903256
19	0xbc275c9f	-0.010214954
20	0xbd2de784	-0.04245712
21	0x3c85515f	0.016274152
22	0x3cdc8c81	0.026922466
23	0x3d55c68f	0.052191313
24	0xbd356994	-0.04429014
25	0x3d040d5a	0.032239296
26	0xbcce430b	-0.025178453
27	0x3d388143	0.04504515
28	0xbd147429	-0.03624359
29	0x3cbee65d	0.023303205
30	0xbd2e1af9	-0.042506192
31	0x3ca21e85	0.019789943

encoder.cnn_model.2.conv.4.weight f4 [32]
0	0x3f74eb0c	0.95671153
1	0x3f7be874	0.9840157
2	0x3f6959aa	0.9115244
3	0x3f7a550d	0.9778603
4	0x3f7c3f64	0.98534226
5	0x3f72a36f	0.9478063
6	0x3f85ec01	1.0462648
7	0x3f819cbb	1.0125955
8	0x3f727e54	0.9472401
9	0x3f786b23	0.9703848
10	0x3f7c0ebc	0.9845998
11	0x3f789f42	0.9711801
12	0x3f6dbce1	0.9286633
13	0x3f966e1d	1.1752354
14	0x3f60e0c0	0.8784294
15	0x3f72afa7	0.94799274
16	0x3f74014b	0.9531447
17	0x3f712147	0.941914
18	0x3f5a8d24	0.85371614
19	0x3f85fba4	1.046742
20	0x3f7f0bca	0.99627364
21	0x3f6ac64c	0.91708827
22	0x3f6a22ab	0.9145915
23	0x3f746cfc	0.95478797
24	0x3f887148	1.0659571
25	0x3f743a89	0.9540182
26	0x3f69fb8f	0.9139947
27	0x3f63c886	0.8897785
28	0x3f810991	1.0081044
29	0x3f7d6d1e	0.98994625
30	0x3f88d972	1.0691359
31	0x3f7e4862	0.993292

encoder.cnn_model.2.conv.4.bias f4 [32]
0	0x3d82b7c4	0.06382707
1	0xbdaeb27f	-0.08530139
2	0xbe28715e	-0.16449496
3	0x3b9f491f	0.0048610116
4	0x3bf5ac77	0.007497366
5	0x3d871400	0.065956116
6	0xbd8b5e36	-0.06805079
7	0xbd1a5061	-0.03767431
8	0xbe828d3a	-0.25498372
9	0xbd072e6a	-0.03300325
10	0xbdac00df	-0.08398604
11	0xbbcd901a	-0.0062732818
12	0xbcb4b768	-0.022060111
13	0x3de03458	0.10947484
14	0x3afe8687	0.0019418754
15	0x3c6d6b78	0.014490955
16	0xbd322d64	-0.04350032
17	0xbb8079a6	-0.0039207516
18	0xbd6fca11	-0.058542315
19	0xbc18e461	-0.0093317935
20	0x3e026dc2	0.12737182
21	0xbd2e81ce	-0.04260426
22	0xbcbd9b48	-0.023145333
23	0xbdc8d880	-0.09806919
24	0xbc3e21e0	-0.011604756
25	0x3cff3af4	0.03115604
26	0x3cad717d	0.02117228
27	0xbdbf6eb0	-0.09347284
28	0x3d520d85	0.051282424
29	0xbd85ac22	-0.06526972
30	0x3e1444f0	0.14479423
31	0xb93f96a4	-0.00018271297

encoder.cnn_model.2.conv.4.running_mean f4 [32]
0	0xbce035bb	-0.02736937
1	0x3e0563e4	0.13026386
2	0xbd9ce019	-0.07659931
3	0xbd899da9	-0.067195244
4	0xbda46f8e	-0.0802909
5	0x3e2e9226	0.17047939
6	0x3cb9c391	0.022676261
7	0xbdf17510	-0.11789906
8	0x3dda2082	0.106507316
9	0x3d5a2ef8	0.05326745
10	0xbd449302	-0.04799176
11	0x3d89bdc8	0.06725651
12	0xbdc20e87	-0.09475427
13	0x3e371606	0.17879495
14	0x3d8ce363	0.06879308
15	0xbda14a2b	-0.078754745
16	0x3c7a28bc	0.015268501
17	0xbca3495d	-0.019932443
18	0x3e3373b2	0.17524603
19	0xbd736b6e	-0.059428625
20	0xbd116954	-0.03550084
21	0xbd1bb95c	-0.03801857
22	0x3e254281	0.1613865
23	0x3e422dee	0.18962833
24	0xbdc16c0b	-0.09444436
25	0xbc93ae98	-0.018027589
26	0x3cc9e906	0.024647247
27	0x3e0650a3	0.13116698
28	0xbd6c23a8	-0.057651192
29	0x3cad88ae	0.021183338
30	0x3d88b2d6	0.06674735
31	0x3cda805d	0.026672537

encoder.cnn_model.2.conv.4.running_var f4 [32]
0	0x40050730	2.0785637
1	0x3faa9f57	1.3329877
2	0x3fec906c	1.8481574
3	0x401f8cf4	2.492978
4	0x3ffb4a6f	1.963209
5	0x3f9465d2	1.1593573
6	0x3f6405c0	0.89071274
7	0x3fb2ce7a	1.3969262
8	0x3f95eaa2	1.1712229
9	0x3fcc3038	1.5952215
10	0x3f87f106	1.062043
11	0x401e9101	2.4776003
12	0x3f498e7f	0.78733057
13	0x3f677e79	0.90427357
14	0x3f8932df	1.071865
15	0x3f86541d	1.0494419
16	0x40884ed4	4.2596226
17	0x3fb0fc11	1.3826925
18	0x3fe57b02	1.7928164
19	0x40901916	4.5030622
20	0x3f9ca799	1.2238647
21	0x3f9838ee	1.1892374
22	0x3f41c451	0.7569018
23	0x3f9f3470	1.2437878
24	0x400b2574	2.174161
25	0x3f4e50ad	0.8059185
26	0x3fa17314	1.2613244
27	0x3f9d1b48	1.227395
28	0x40093c07	2.1442888
29	0x3fb2daa6	1.3972976
30	0x3fa97e3c	1.3241649
31	0x40077932	2.1167722
