Data/Dim8_mnist/pneumonia_AE_CNN_0123_t.pth (torch, 800526 bytes, 77 tensors)

encoder.cnn_model.0.conv.0.weight f4 [32, 1, 3, 3]
00000000: de43 a73e 3f7b 913e 834f f4bd 4b72 8c3d
00000010: 7e02 4dbe 5255 4dbe 0878 98be 97af 3c3e
00000020: 3f90 b0bc a3a0 77bc e514 bbbc c9e1 febc
00000030: b514 393e 338a a3bb 4ab8 903e b312 b5bc
00000040: 9be9 a73e 5648 a83e 9113 263e c880 49be
00000050: d8da 883b 9531 943e 46c3 75be 4614 5c3d
00000060: 9951 a33e 3bdf 593e 3df3 a33e 21c6 073d
00000070: f18c 513e 5fb5 77be 6261 77be 182c 843c
00000080: 63df 9cbe 0002 c7bd ed55 11bc 2f60 84be
00000090: ecb7 96be bfa3 413e 0867 babe 9e36 163e
000000a0: d168 9e3d f56a 6ebd 473f 98be 0e3d 25bc
000000b0: 99a3 183d dd89 71be 47e5 8cbd 72d6 843e
000000c0: e8e0 8c3e b519 9f3e dad4 89bc 3026 9e3e
000000d0: e295 813c 7fba 29be 8231 a9bd 16f4 693e
000000e0: 6795 96be 8e91 41be fbe4 463d 3a6b 313d
000000f0: 641f a5bc 3808 5c3e 96b6 ce3d 0ab2 123e
00000100: 5ac9 5e3e 5d37 a73e 623e 2d3e bae2 913e
00000110: cf9a c53d baf0 36be 7d1c 6a3e 21c6 34be
00000120: c555 683e cdd9 113e 2a8e 79bd 97b3 0b3e
00000130: 3de2 e13d 1bcc 2d3e f5a7 77bd 4064 7d3e
00000140: ca39 5abe 5e22 5e3d 7160 4fbe c126 15be
00000150: 8134 5c3e db15 71be 6987 1d3e 3127 99be
00000160: 0bb0 05be c301 833e e17c 83bb 18de 6ebe
00000170: 8401 79be 5f22 09be d60b 69be cc3a 71be
00000180: 7758 dc3d 2b92 303d dafa 8c3e bfac 103e
00000190: 8a08 173e 389a 90be 96c0 203e 020d 2c3e
000001a0: 0f03 15be 3ae8 593e 3784 1f3e 5582 4ebe
000001b0: 93b9 17be fdfd bc3d b5ff 283e 6906 35bd
000001c0: 5357 55bd f266 9bbe 4cc9 75be e13d 89be
000001d0: a0d3 c33d f289 eebb 6b6c 8abe d4ac a13e
000001e0: f1cd 8f3e d245 46be 925b 0e3e 9f54 a43e
000001f0: 43fa 85be a25f f4bd 0cba 993e c4a2 49be
00000200: a1f9 5ebe 5d59 0f3e 8445 ecbb 6a72 4ebd
00000210: 93a7 e93d 176c 933d c42a 2d3e dc36 253e
00000220: 471b 343e 3322 2ebe 3c0a 6bbe de1a 843d
00000230: c4a1 033e 860e 9bbe a252 e03c 7cc1 ebbd
00000240: 478e 41be e011 4e3d 809c d6bd 37cf 743e
00000250: 04c4 1c3e 1a3f 953e 6aa4 953e 9419 6abe
00000260: 7462 a73e 76ff 76be 56e3 993d f603 b0be
00000270: 9d2f bd3d ad4f 86be 552c 853d bdf8 4a3e
00000280: 0d1e b33c 2c63 61bd d846 6c3e 7d84 5bbe
00000290: c4aa 0c3e 00db ba3e 3ee0 5f3d 75b9 683e
000002a0: 825c e13c fea4 8f3e 9297 96be 803b e8bd
000002b0: 7550 14be b6af 293d 1b4d 583e bc9f dabc
000002c0: 5614 763d 0a58 9a3d 6551 0d3e 834f 7f3e
000002d0: 87d0 68be 172d 8ebe f7e6 103e ff88 e1bc
000002e0: 575b 4cbe 2574 d83d 2c9d c6bd 9204 89be
000002f0: 330c 00bd 57dc 1cbc a3ff 23be 1d2d 293e
00000300: 08ec 183e 2aad 1a3e 8fe3 38be 441a 9dbe
00000310: 263b a73e 428e 70bc 470c 6bbe 990d 1a3e
00000320: 8906 2dbd 7f7d 9a3e 01c4 04be 88f5 8dbe
00000330: fe07 5fbd 42b2 6a3e bcd2 793e 8220 8ebe
00000340: a20e d43d 1881 5c3e 85dc eb3d 4ce9 573e
00000350: a04e 923e c84e a9be 19a2 11be 5525 68be
00000360: 0bcc b83d 8963 03bc 330a bfbe d6c3 93be
00000370: 9396 2bbe 4641 0e3e e89a 7e3e 89aa 24be
00000380: 0b4f 833d 2252 a3bc 0ee8 683e 8146 883d
00000390: 155a aa3e 2f6b 333e c808 a4be 3310 503e
000003a0: c0a8 a8be eff6 5f3e 9a7b 59b6 18e4 31bd
000003b0: 0225 c23d fd85 88be 6e6c 99bd cb72 66be
000003c0: ba0a e13b a5ff 323d daf1 2e3d e5c2 a2be
000003d0: 25ee 283e 2303 483c fec2 44be 7309 16be
000003e0: f6e9 7abe 5343 51be bf5e 74bd bd99 943e
000003f0: 8a85 14bd 7ffa 00bd 0ada 873e 0f01 2e3e
0.32668966 0.28414342 -0.11929228 0.06857737 -0.20020482 -0.20052078 -0.29779077 0.18426357
-0.021553157 -0.015113982 -0.022837112 -0.031113522 0.18074305 -0.00499084 0.282656 -0.022103643
0.32795414 0.32867688 0.16218401 -0.19678032 0.004176479 0.28944078 -0.24000272 0.05373027
0.31898192 0.21276562 0.32021514 0.033147935 0.20463921 -0.24190281 -0.24158242 0.016134307
-0.3063918 -0.09717178 -0.008870584 -0.25854632 -0.29437196 0.1891012 -0.36406732 0.14669272
0.07734836 -0.05820747 -0.29735777 -0.010085357 0.037265394 -0.23587747 -0.06879669 0.2594486
0.2751534 0.310743 -0.016825128 0.3088851 0.01581854 -0.16575049 -0.08261396 0.22847018
-0.2941086 -0.18903181 0.048558217 0.04331515 -0.02015657 0.2148751 0.10093419 0.14325729
0.21756497 0.32659426 0.16918328 0.2849329 0.09648668 -0.17865267 0.2286243 -0.17653705
0.22688968 0.1424324 -0.060926594 0.13642727 0.1102948 0.16972391 -0.06046291 0.24745274
-0.21311107 0.054231994 -0.20251633 -0.14565565 0.21504404 -0.23543493 0.15383686 -0.29912713
-0.13055436 0.25587282 -0.0040126895 -0.2332691 -0.24316984 -0.13392018 -0.22758421 -0.23557585
0.10759061 0.043108147 0.27535135 0.14128397 0.14749351 -0.2824266 0.15698466 0.16801837
-0.14551948 0.21279994 0.1557778 -0.20166905 -0.14816885 0.09228132 0.16503794 -0.044195566
-0.052085232 -0.3035198 -0.2400257 -0.26805022 0.09561849 -0.007279628 -0.2703584 0.3157717
0.28086808 -0.19362572 0.13902119 0.3209581 -0.26167497 -0.11932303 0.30024755 -0.19690996
-0.21774913 0.13998933 -0.0072104353 -0.050402083 0.11408915 0.07198351 0.16910845 0.16134208
0.1758853 -0.17005233 -0.22953123 0.06450437 0.12854677 -0.30284518 0.027383152 -0.115115136
-0.18901931 0.050310016 -0.10479069 0.23907171 0.15309149 0.29149705 0.29227 -0.2286132
0.326923 -0.24120888 0.07514064 -0.34378022 0.09237597 -0.26232663 0.06502596 0.19821449
0.021864915 -0.05502622 0.230739 -0.21437259 0.13737017 0.3649521 0.054657213 0.22726996
0.027509931 0.28055567 -0.29412514 -0.11339474 -0.14483817 0.041427337 0.21123163 -0.026687495
0.060077988 0.07536323 0.13800581 0.24932675 -0.22735797 -0.27768776 0.14150606 -0.027531145
-0.19956718 0.10569028 -0.09697947 -0.267613 -0.031261634 -0.0095740175 -0.16015486 0.16521116
0.14933789 0.1510512 -0.18055557 -0.30684102 0.32662314 -0.014682354 -0.22953902 0.1504425
-0.04224256 0.3017387 -0.12965395 -0.27726388 -0.05445098 0.22919562 0.24396795 -0.27759176
0.103543535 0.2153362 0.1151667 0.2108509 0.2857561 -0.33067918 -0.14221992 -0.22670491
0.09023293 -0.0080193365 -0.3731247 -0.28860348 -0.16756658 0.13892087 0.2486378 -0.16080679
0.064115606 -0.019936625 0.22744772 0.066540726 0.33271852 0.17521356 -0.3203795 0.2031868
-0.32941246 0.21871541 -3.2407465e-06 -0.043430418 0.09479715 -0.26664725 -0.074913844 -0.22504728
0.006867734 0.043700833 0.042711116 -0.31789318 0.16497095 0.012207779 -0.19215009 -0.14652042
-0.24503312 -0.20435838 -0.05966067 0.29023543 -0.036260165 -0.03148889 0.26533538 0.16992591

encoder.cnn_model.0.conv.0.bias f4 [32]
00000000: 8acd 4f3d c7a4 a2be 9309 d2bc 138f 36be
00000010: 0450 0abe f1d8 e7bd 6c04 523e 3ccf 2e3d
00000020: fef0 253e 3584 55be fe63 90be 68f7 15be
00000030: 971a e5bd 8168 24be d8ca 52be 685e 4dbe
00000040: 0b0a ac3c 14cf 18be 9154 8abe f0ab 753e
00000050: a4b0 6c3a 0ee0 0abe 9408 193e 67ee 923e
00000060: 702a e4bd 7fd7 603e 10ab fbbd 818b 81be
00000070: 91a0 e8bd ca8e 0b3e a3a4 e73b 1c14 2c3e
0.050733127 -0.3176634 -0.025639331 -0.17828016 -0.13507086 -0.11320675 0.205095 0.042678103
0.16205212 -0.20851214 -0.28201288 -0.14645159 -0.11186712 -0.1605549 -0.20585191 -0.20055544
0.021000883 -0.14922744 -0.27017644 0.2399137 0.0009029007 -0.13562033 0.14944679 0.28697512
-0.11140907 0.21957205 -0.12288487 -0.25301746 -0.113587506 0.13628688 0.007069187 0.16804546

encoder.cnn_model.0.conv.1.weight f4 [32]
00000000: ee30 7b3f 09f6 613f 8b1a 7d3f 678c 6a3f
00000010: 4aed 8c3f 5d6c 753f 56a7 783f 14c3 603f
00000020: 139e 5f3f 0e85 7f3f 84ce 503f fe3a 893f
00000030: b4da 6e3f 02e6 793f 00f5 763f df83 733f
00000040: fa3f 6e3f 3063 723f e8cb 683f b7ef 723f
00000050: f807 803f fc4b 653f 8388 783f 1df0 833f
00000060: f507 733f 32da 753f d7c7 703f 1418 6d3f
00000070: 3bdc 733f 12d0 8f3f 1b8b 773f 1ff1 813f
0.98121536 0.88266045 0.98868626 0.91620487 1.1009915 0.95868474 0.97130334 0.87797666
0.8735058 0.998124 0.8156512 1.0721128 0.93302464 0.9761659 0.9646759 0.95123094
0.9306637 0.946826 0.90936136 0.94897026 1.0002432 0.8956907 0.970833 1.0307652
0.94934016 0.96036065 0.9405493 0.92614865 0.9525792 1.1235373 0.96696633 1.0151709

encoder.cnn_model.0.conv.1.bias f4 [32]
00000000: 12a9 d6bb bf12 76bd ae8e 17bb 138a 583d
00000010: 8261 aebc 9a22 7c3d 8981 a33d 8b1e 99bd
00000020: 257c 333d 17ba f1bd 62b1 da3c 6cfe 0d3d
00000030: 0c4a 0a3d 47d8 8d3d 9415 d3bb 0291 87ba
00000040: 8d02 a4bd 80f0 4e3c 095a 5fbd e17f 30bc
00000050: 73df 4bbd c191 c23d 469a 9b3d d1d8 1e3d
00000060: cc72 f5bc c1f2 8cbd f992 84bc 0500 213e
00000070: 384d 8bbd c782 903d 1dc9 78bd 651d e73c
-0.0065509165 -0.06007647 -0.0023125815 0.052866053 -0.02128673 0.061556436 0.07983691 -0.07476529
0.043819565 -0.11803072 0.02669591 0.034666464 0.033762023 0.06926017 -0.0064417813 -0.0010342898
-0.08008299 0.012630582 -0.054529224 -0.010772676 -0.049773645 0.095004566 0.07597785 0.03878099
-0.029961966 -0.06882239 -0.016183363 0.15722664 -0.06801838 0.07056194 -0.06073867 0.028212259

encoder.cnn_model.0.conv.1.running_mean f4 [32]
00000000: fcba 573d 2f53 94be d4d1 3c3c c9f6 54be
00000010: fb1c 27be a7d0 cbbd 8008 4e3e 9082 873d
00000020: 7a7c 333e 29dc 5bbe 4e74 95be 380d 12be
00000030: cd9f 04be 7af7 14be 7766 45be 64fa 5abe
00000040: 2519 303d b642 26be ba31 80be 36d7 823e
00000050: 7266 a3bc 98d9 0cbe 7a7e 1e3e 4b0a 8c3e
00000060: 85ef f3bd fe67 723e 2f9f 04be 0e78 8abe
00000070: a586 a7bd e35e 053e bafe bb3b be93 103e
0.052668557 -0.28969714 0.011524636 -0.20797266 -0.16319649 -0.09951907 0.2012043 0.066167
0.17527953 -0.21470703 -0.29190296 -0.14262855 -0.12951584 -0.1454753 -0.19277368 -0.21384579
0.04299273 -0.16236386 -0.25037938 0.25554818 -0.01994631 -0.1375488 0.15477934 0.27351603
-0.11910919 0.23672482 -0.12951349 -0.2704472 -0.08179978 0.13024478 0.005737153 0.14118859

encoder.cnn_model.0.conv.1.running_var f4 [32]
00000000: 576c 343e fede 5c3f 5744 293f c16a 1f3f
00000010: b22d 593e 9c47 003f 04b9 923d a153 8a3f
00000020: cc2e e03e aaf8 403e 10ad 093f e727 b13e
00000030: 57e7 de3e ecd0 e73d 1d50 383e 4945 f93d
00000040: c110 163f 1395 6c3e ddeb 123f 1d63 813e
00000050: 5654 233f 8d90 333d 67fb c13d 9986 663e
00000060: b9f1 713e f7a5 a73e 601b 293e d3cd f63e
00000070: e13f 203f 4820 9b3d 6bc5 763d d81b 013f
0.17619453 0.8627776 0.66119903 0.6227227 0.21208838 0.5010927 0.07164195 1.0806772
0.43785703 0.18844858 0.537797 0.34600756 0.43535873 0.113191456 0.17999311 0.12171418
0.58619314 0.23103742 0.5739115 0.2527093 0.6380056 0.043839026 0.09471779 0.22512282
0.23627366 0.3274381 0.16514349 0.48203906 0.6259747 0.075745165 0.060246866 0.5043311

encoder.cnn_model.0.conv.3.weight f4 [32, 32, 3, 3]
00000000: ae57 bc3b f00b cfbc dcd8 2ebc e0c6 93bd
00000010: 19ba d93b 8c84 b9bc c1f3 01bd 1f64 bf3c
00000020: 96d6 29bd 9246 3bba 08ab 4f3d 10a4 0c3c
00000030: ef60 0e3c 5227 e03c 7673 763d 3f86 03bd
00000040: 63e2 09bc a6e3 dbbc 611b c9bc 501f b1bc
00000050: e02f 11bc 0d61 49bd 50c3 6f3d d149 bf3c
00000060: 9acb bbbd 40de ecbc 0593 6fbc 2b77 5c3d
00000070: ad52 ee3c f487 dcbc 463e 30bd 1482 4e3d
00000080: ab2c 9dbc ec6b 83bc 2a7b 8c3c 874b 41bd
00000090: 35f8 523c 7cc7 4dbd aded 51bd 1aeb 093d
000000a0: b87c ef3c 5111 be3c be88 8b3c f329 503c
000000b0: 05bd 1ebd 7dca c0bd cd29 7d3d 9beb 24bd
000000c0: 67f8 1dbd fc68 633d 1c98 7a3c 0623 f0bc
000000d0: b951 0bbd 38e4 debc 3850 413d 78dc 853b
000000e0: fcfb 683d 4f7c bf3d 28f9 b33d 675a 353d
000000f0: e18d 5dbd cbe2 723d a3fc 6ebd 3315 ecbc
00000100: e54e 21bd d99d 8dbd db77 863c 6d61 07bd
00000110: 1996 373d 0e7c c6bc d338 7e3d 05ff 943d
00000120: 306f 0bbe 2ab8 5cbd 33f8 993c de43 96bd
00000130: 5b52 dc3b ccda 2d3a 4f8c 75bd 169f 713c
00000140: 23fd 7c3c cae8 513c 5928 4ebd 122b f9bc
00000150: 699c d13c e8f3 023d a14a f33c 27d2 11bd
00000160: 1dcf 27bd 10a7 ce3d 415e 3c3d 1670 743d
00000170: 8d68 8f3d 9f74 8e3c 5954 6f3c ab85 ddbc
00000180: 0ded 4a3a 957b 8abd b6a7 ba3c 7b04 b8bd
00000190: cf36 8bbc 3a48 67bc 42c6 e4bd a078 483d
000001a0: c440 0abd ea4a 8abc 9c6b 8a3c ee1e 3a3d
000001b0: 6000 c73d 0e24 77bd dfda 8abb f1ff 113d
000001c0: 45d8 1c3d cb7c 1b3d 434f 3e3d b27c 163d
000001d0: 7dc1 16bd 9b5f 82bd 3957 cfbd 264d 6b3d
000001e0: 76ea 63bd 2d30 e03c 80bc b93d 1ace 6fbd
000001f0: cea3 d1bb 34ef 65bb 85cf afbd e3c1 28bc
00000200: d93c 09bc 4a2a bfbb a7c9 a23c ddc4 4f3d
00000210: a294 acbd 9cb7 243d 0b6d e93c 3f32 b23d
00000220: f14f 8c3b 0385 0f3d d18f f93c d185 23bd
00000230: 115b 89bd c964 3e3d b19f 513d 2967 023d
00000240: 71bb 5abb e3b9 e3bc c7fc 4b3d d01a a93c
00000250: 9d49 b5bc 99e6 8f3d 6f28 073d 8251 563d
00000260: 4acd 3b3d 7cbd 973c 7f5e 933d 9112 963d
00000270: de02 8e3d 1f6b 993c 76c5 1b3c 6c9b 58bd
00000280: d57b 24bd ad16 b4bc 40a8 8bbd 8489 d33c
00000290: d74b 2dbd a224 4ebd f067 16bd 60c8 4cbd
000002a0: 407b c93c 030a 45bd d7d5 5abc bfcf b03b
000002b0: 296c 45bd 5010 743d db0b a2bc 7f9f f3bc
000002c0: b048 5f3d 2980 76bd 0580 35bc 64e2 c73d
000002d0: 67e3 e13c c6bd 31bc 1f69 203c d837 953c
000002e0: 2ef9 8dbb a657 8f3d 396b eabc f93b 8cbd
000002f0: bfbc 1b3d d253 603d 2915 27bd 58a1 71bd
00000300: 3749 1a3d 891f 4ebd 46a1 d33b 2850 d5bc
00000310: e353 61bd 2325 6d3d 98a6 ce3c 5f41 bd3d
00000320: 3485 f03c 4235 4b3d 43df d83c a57e 753b
00000330: a055 8dbc cb1c 8d3d 9b13 9b3d 0d31 a63c
00000340: 3c14 12bd b544 ebbd f5e9 8abc f6bb 82bd
00000350: c32e d3bc f4ff fe3d 6d4f b63c 087f 623c
00000360: 1def 703d aae8 b73c 5486 cf3d 98db aabc
00000370: 5e3e 323c 7531 50bc 1b5c 203c 0c1e 7cbd
00000380: f915 28bd a302 34bd 6c0e 07bd ece9 4b3c
00000390: c95b 5ebd 08ae 33bd 9f2c 15bd cda2 a3b9
000003a0: df1b 963d 6190 d13c 0045 d73d 740c 783d
000003b0: 72c1 86bc 537d 6b3d 1dbf e53c 91cf 5dbd
000003c0: 4137 323d 0956 83bd f609 45bc 3020 2d3e
000003d0: cfde 833d aff2 9d3c 08a3 e93d 0e39 1f3d
000003e0: 606e 42bd 2500 033d 944d 8a3b dc75 45bc
000003f0: 0110 4c3d d3c9 c6bc 4189 703c bee9 76bb
0.005747757 -0.025274247 -0.0106718205 -0.07215667 0.006644499 -0.022646211 -0.031726602 0.023363171
-0.04146441 -0.00071439997 0.050700217 0.008584037 0.008690103 0.0273625 0.060168706 -0.03211045
-0.008415791 -0.02684195 -0.024549188 -0.021621376 -0.008861512 -0.04916482 0.058535874 0.023350628
-0.09169693 -0.02891457 -0.0146224545 0.053824585 0.029092157 -0.026920296 -0.04302814 0.05041702
-0.019186338 -0.016042672 0.017148573 -0.04719117 0.01287656 -0.05023907 -0.051252056 0.033671476
0.029234275 0.023201616 0.017032977 0.012705314 -0.03875448 -0.094136216 0.061807442 -0.040263753
-0.038566973 0.055520043 0.015295055 -0.029313575 -0.034013484 -0.027208433 0.047195643 0.00408512
0.056880936 0.09349882 0.08787757 0.044275668 -0.054090384 0.059298318 -0.058346402 -0.028818702
-0.03938188 -0.06914873 0.016414573 -0.033051897 0.04482088 -0.024229076 0.06206591 0.072752036
-0.13616633 -0.05388657 0.018795108 -0.073371634 0.0067236847 0.00066320295 -0.05994826 0.014747402
0.015441212 0.012811849 -0.050331447 -0.030416045 0.025587277 0.03197089 0.029698672 -0.035600808
-0.040969003 0.100904584 0.045988325 0.059677206 0.07002363 0.017389594 0.014607512 -0.027041277
0.0007741012 -0.06761853 0.022785049 -0.089852296 -0.016993908 -0.014116341 -0.11170627 0.048943162
-0.03375317 -0.016881425 0.016897015 0.045439653 0.097168684 -0.06033712 -0.0042375172 0.035644475
0.03829219 0.03796081 0.04646231 0.036740012 -0.03680562 -0.063658915 -0.10124058 0.05744662
-0.05564352 0.027366722 0.09069157 -0.058546163 -0.006397701 -0.0035085203 -0.08584503 -0.010300132
-0.008376324 -0.0058338987 0.019871546 0.050724853 -0.08426787 0.040214166 0.028494379 0.0870099
0.0042819907 0.03503896 0.030464085 -0.03992254 -0.06706823 0.046482835 0.051177684 0.031836662
-0.0033375884 -0.027798599 0.049801614 0.020642668 -0.022129828 0.07026405 0.032997545 0.052323826
0.045850076 0.01852297 0.07195758 0.0732776 0.069341406 0.018727837 0.009507528 -0.052882597
-0.040157158 -0.021983469 -0.068192005 0.025822408 -0.042308655 -0.050327905 -0.036720216 -0.04999578
0.024594903 -0.04810525 -0.013356647 0.005395859 -0.048198853 0.05958587 -0.019781044 -0.02973914
0.05451268 -0.060180817 -0.0110778855 0.097599775 0.027574254 -0.010848468 0.009790688 0.018215105
-0.004332683 0.069991395 -0.02861558 -0.068473764 0.0380218 0.054767437 -0.040791664 -0.05899176
0.03766748 -0.050323043 0.0064584343 -0.026039198 -0.05501164 0.057896744 0.025225922 0.09240984
0.029360391 0.049611337 0.026473647 0.003745952 -0.017252743 0.068902574 0.07572099 0.020287061
-0.03566383 -0.11487714 -0.016957263 -0.06383507 -0.025779134 0.12451163 0.02225467 0.013824232
0.058821786 0.02244981 0.10133043 -0.020856664 0.010879127 -0.012707104 0.009787585 -0.061552092
-0.04103658 -0.043947827 -0.03297274 0.012445908 -0.054286752 -0.04386714 -0.036419507 -0.0003121108
0.07329535 0.02558154 0.105112076 0.06055875 -0.016449664 0.057492565 0.028045231 -0.05415303
0.043509725 -0.06412894 -0.012026301 0.1690681 0.06438982 0.01928076 0.11408049 0.03887277
-0.047468543 0.03198256 0.004220674 -0.012052026 0.04981995 -0.02426616 0.014681161 -0.0037675942

encoder.cnn_model.0.conv.3.bias f4 [32]
00000000: 63f3 a7bc 142b e63b 4562 bb3a 4801 ee3c
00000010: b8e5 63bd 05ad 6c3b ac86 2fbc 62c1 123d
00000020: ffd1 1e3c 2c76 57bb d5bf db3b 9d83 5fbd
00000030: 903a c4bc 0e14 0b3d 2209 36bd 4d28 163d
00000040: e9e6 edbc 2ec2 12bd 66f0 073d d79b 393d
00000050: 41c9 28bd b3f5 c8bb 20a1 ef3c 987e 9dbc
00000060: 82f9 10bd 61c7 2f3d 7456 b5bc ad98 be3c
00000070: 2e5f dfba a27e ee3b 086f 53bd d5ee f2bc
-0.020501798 0.0070241783 0.0014296254 0.029053345 -0.055639 0.003611387 -0.010713261 0.035828955
0.009693622 -0.0032876832 0.006706218 -0.054568876 -0.023953706 0.033954673 -0.044442303 0.036659528
-0.02904077 -0.035829715 0.033188246 0.045314636 -0.041207556 -0.0061328053 0.029251635 -0.019225404
-0.0353942 0.042914752 -0.02213595 0.02326616 -0.0017041916 0.0072782794 -0.05161956 -0.0296549

encoder.cnn_model.0.conv.4.weight f4 [32]
00000000: 7ceb 833f b9c4 683f f968 823f 6fa6 813f
00000010: c84b 613f cb85 4c3f 846e 803f 970a 843f
00000020: 9bc6 5e3f 82f7 7d3f 8dc7 753f b265 803f
00000030: 6e60 793f d5d0 843f 5d28 863f 9ff3 753f
00000040: 6313 823f 5ce2 553f 4c25 913f d15f 813f
00000050: c5f1 5c3f a5ce 833f aec9 863f 8acb 883f
00000060: 54b8 7e3f 4b81 8d3f a8af 883f 08a1 823f
00000070: 81d2 843f ccac 6e3f 2bf7 833f b7d0 903f
1.0306239 0.90925175 1.0188285 1.0128917 0.8800626 0.7989165 1.0033727 1.0315732
0.870218 0.9920579 0.96007615 1.0031035 0.97412765 1.037623 1.0481068 0.9607486
1.0162166 0.8354852 1.1339507 1.0107366 0.8630641 1.0297438 1.0530298 1.0687115
0.9950001 1.1055082 1.0678606 1.0205393 1.0376741 0.9323242 1.0309805 1.1313695

encoder.cnn_model.0.conv.4.bias f4 [32]
00000000: 1e64 d13d 665d 5e3d 9707 a83d a773 04bd
00000010: f8fe a4bd 588f cb3b 5199 a93d 10db 13bd
00000020: 1018 a7bd ac6a 46bd bab2 cdbc ebd0 b93d
00000030: a625 823c bd1f b8bd e664 2ebd 21f7 573d
00000040: 3125 0fbd 9e74 23bd d070 b3bc 517c d8bc
00000050: c35c 63bd f846 243d a3b3 4cbd 8b10 37ba
00000060: 809b 87bd 63b2 16ba 813e b53d 8350 7fbc
00000070: 0469 bbbd 6b73 6c3d 7440 60bd 3c22 823c
0.10224174 0.05428829 0.08204573 -0.032336857 -0.08056444 0.0062121563 0.08281196 -0.036097586
-0.081588864 -0.048441574 -0.025109638 0.09073051 0.015887093 -0.089904286 -0.042576693 0.052725915
-0.034947578 -0.039906137 -0.02190438 -0.026426466 -0.055508386 0.040106744 -0.049976002 -0.0006983361
-0.06621456 -0.00057486276 0.08849812 -0.01558316 -0.091508895 0.05772726 -0.054748967 0.015885465

encoder.cnn_model.0.conv.4.running_mean f4 [32]
00000000: fcb9 743e bcf1 f4be 89c6 41be 8882 9fbe
00000010: 6dfe 4ebf cc77 9fbe cf2a f83e 7972 d43e
00000020: b3b7 26bf 8e94 28bf 2212 14bf 2d0d 9ebe
00000030: 6412 3fbe b875 103e 5276 913e 9295 dcbe
00000040: 3f4c d63e 54c8 21bf ece1 193f 9f0b e73e
00000050: dcb0 80be 0452 243f 337f 8a3e f0fa 1cbe
00000060: 9cd7 b23e fecc aebe d4c7 4abe 5811 8ebe
00000070: 2b68 bf3e e021 f0be 3eb3 373e b10b a8be
0.23899072 -0.4784068 -0.18923391 -0.31154275 -0.8085697 -0.31146085 0.4847016 0.41493586
-0.6512405 -0.65851676 -0.5784017 -0.30869427 -0.18659359 0.14107406 0.28410584 -0.43082863
0.41855046 -0.631963 0.60110354 0.45126054 -0.25134933 0.64187646 0.2705017 -0.153301
0.34930122 -0.34140772 -0.19802791 -0.27747607 0.3738416 -0.46900845 0.17939469 -0.3282142

encoder.cnn_model.0.conv.4.running_var f4 [32]
00000000: ed75 b93f cf35 0240 229f 2e3f 0e56 933f
00000010: fe47 7f40 e8d9 a33f d2eb 1a40 bc56 fb3f
00000020: 4e7e 4340 576b 2d40 1f57 2740 cd59 b33f
00000030: d5a0 863f a6ed a03f 9060 c23f 81c3 c93f
00000040: e8b6 2040 b7c4 4340 7b88 c03f 6d72 d13f
00000050: 4f09 533f 3d71 3a40 b3e8 ec3f 2a15 be3f
00000060: 6d62 3a40 cd1e 593f f5bf f73e 923b fd3e
00000070: f7db 1640 7f12 fc3f d83d cc3f ef73 353f
1.4489113 2.0345342 0.6821157 1.1510637 3.988769 1.2800875 2.4206433 1.9635844
3.054584 2.7096765 2.6146924 1.401178 1.0517832 1.2572525 1.5185719 1.5762788
2.5111637 3.0588815 1.504165 1.6363045 0.8243608 2.9131615 1.8508514 1.4850209
2.9122574 0.84812623 0.4838864 0.4945951 2.3571756 1.9693145 1.5956373 0.70880026

encoder.cnn_model.2.conv.0.weight f4 [32, 32, 3, 3]
00000000: 2d7d 403d b07a 03bd 2e99 98bd a002 bb3d
00000010: 1ccd 08bd 7916 90bd 8d9f 8fbd bdfd 59bd
00000020: 19cb bdbd 18f9 acbd f142 c53b 36fa 8fbc
00000030: 4cb1 b5bd fb3a 943a 705f da3c d660 da3c
00000040: 9d68 353d 1c82 20bd 693d 733d 9a07 e73c
00000050: 2b84 c73c ab71 9fbd 7b58 eabc 5138 8bbd
00000060: 32b3 b63c 4637 ac3d 9623 633c 7bae 703c
00000070: 71b9 273d ab10 8fbd ee2f 2ebd 8c76 22bc
00000080: 4c82 a13a a7a1 4fbd 4f59 313d fe3f acbc
00000090: 660c dabc 66c7 6e3d b84c f1bc 93b8 a6bd
000000a0: 4305 01bd 66ce 71bc 6f17 48bd 4365 793d
000000b0: d859 cc3c 9c3f 15bc 9fd4 14bd 6ec3 163d
000000c0: 12d3 8d3b 4f23 8d3b 30da f23c d766 adbc
000000d0: 449c 47bd ae33 81bc 9b19 103d 69c2 31bc
000000e0: 9c02 b7bc 22ba b539 26c2 ddbc a0ca 2b3c
000000f0: 3d6c 6fbc e71f 3739 9282 ac3c b7d0 4f3d
00000100: 8494 703d 7510 013d 441a 183d eee5 7f3c
00000110: 72b1 9bbd 5847 90bd 3211 1bbd ef5e 69bd
00000120: 70ae 83bd ca1e 89bd be0f 62bd 86be 1a3c
00000130: 612a 22bd 05f8 5e3b fd06 fbba 5df2 3d3d
00000140: a2e1 36bd b87d 57bd 95fe e3bc d118 6dbc
00000150: d3a3 44bc c439 e1bc 0483 72bc ff2d 9cbd
00000160: 8e73 73bc 0015 9ebd e935 0fbd b2f9 46bc
00000170: a74f 76bd 7835 67bd 0456 e3bc 439e 94bd
00000180: d302 fa3c a416 193d bd4a a7bd f1fb c8bb
00000190: c41c 9c3d c7e4 703d 97ad 26bd aca4 e0bc
000001a0: e027 833d 3cce f0bc e405 14bd 7bf7 353d
000001b0: 2350 6fbc 2c38 8a3d 82da 76bc 0374 a8bc
000001c0: 8956 493d 9a97 ea3c 6ec1 3e3c 9738 35bd
000001d0: 690a d33c 7016 95bd f940 4fbd 5acb e6bc
000001e0: cd9e 31bd 562e 10bd 82df c2bb cb3b b83d
000001f0: c4b3 903d 4af3 4ebd 1bdf ba3d 574d 853d
00000200: ea4c 3cbd 441a 1c3d 02e1 213d 543d 6e3d
00000210: 6a84 ccbd 2717 2dbd 30bf cfbd 2390 e5bb
00000220: a555 15bc 3bca 44bd 4bb3 d5bc 6382 843c
00000230: 903e 6d3c a961 f53b 86b2 b13c dfc0 1abd
00000240: 3fbe 5dba 10db 3d3d 20e0 3fbd 16a0 793d
00000250: 3336 34bd dc1d e8bd 854c 1fbd 2cce 37bc
00000260: 7d50 623c e0dd bfbd aeed 1bbd e580 a63b
00000270: 13ae a53c dd0d 063d 3768 2ebc 230f 5abd
00000280: 6567 4dbd cdf5 56bd 18d2 78bd acfa 27bd
00000290: 33a9 f63c 807f 4f3d 453f 083d 4ccd 3d3d
000002a0: 0280 25bc e859 0d3d e7e4 533c 82f9 1abc
000002b0: 3b92 963d 2bdd a2bc 5de5 883c 5ff4 4cbd
000002c0: 011a aabc c98a 8dbd ab18 abbd 4907 ac3c
000002d0: 0602 423d a759 343d 4f74 cebc 83ec 3ebd
000002e0: f236 553d ca19 07bd 1460 80bc bd4a 113d
000002f0: 346e 663c edb5 b03c 95bf b73d 4038 5ebc
00000300: a892 13bd a740 a4b9 dce0 6c3c 1c4a 99bc
00000310: 2f47 babc 5014 21bd 6aac b23d 2c18 e03c
00000320: e5c1 db3b 26f8 e23c be24 8c3d f380 91bc
00000330: 822e 84bd 2a14 3f3d e0e2 ebbc 5c58 ec3c
00000340: f429 6e3c 8faa ad3b 74eb e4bc 8c5f e13c
00000350: 51aa 653d 3328 af3c a97c 1e3d 1203 0f3d
00000360: 19da a73d 38dc 26bd e6be 3dbc 3ddb 623d
00000370: 9740 1ebc 2dcc a5bc 5a14 48bc 859d ae3b
00000380: 69a0 073d 85f3 143c adb0 babc 2a9d 03bd
00000390: 58f2 58bd 07e1 123d 975d ca3b 0564 8ebd
000003a0: 794f 56bc 7465 79bc 9754 47bd 96c1 01bd
000003b0: 8f47 86bd 2e9c 49bd 5171 273d 0f8a fabc
000003c0: 5ebc 9bbd 7cfe 86bd db92 13bc 67c1 99bb
000003d0: cbf3 fcbb a396 41bc 72ca 4ebd f6df 2b3d
000003e0: c61d 6ebd 73dc 603c a5cf 233d 07de c2bd
000003f0: 98e5 663c 3960 86bd 5018 90bc 1319 ac3d
0.046994377 -0.032099426 -0.07451092 0.0913136 -0.033398733 -0.07035536 -0.07012854 -0.0532205
-0.092672534 -0.08445948 0.006019943 -0.017575365 -0.08871707 0.0011309081 0.026656836 0.026657503
0.04428922 -0.039186582 0.059384737 0.028201867 0.024355015 -0.07785352 -0.028606644 -0.06797851
0.022302244 0.0840898 0.013863465 0.014690037 0.040948335 -0.06985601 -0.042526178 -0.009915959
0.0012322157 -0.050691273 0.043298062 -0.021026608 -0.02661724 0.05829563 -0.029455528 -0.081406735
-0.03149916 -0.014758682 -0.048850473 0.060887586 0.024945185 -0.009109404 -0.036335584 0.03680747
0.00432814 0.0043071876 0.029645056 -0.021167202 -0.04873301 -0.015771713 0.03518067 -0.010849574
-0.022340111 0.0003466169 -0.027070116 0.010485321 -0.014613208 0.00017464125 0.021058355 0.050736155
0.058735386 0.031509835 0.037134424 0.015618784 -0.076022044 -0.07044858 -0.037858196 -0.0569753
-0.06429756 -0.06695326 -0.055190794 0.009444838 -0.039591197 0.0034022343 -0.0019151863 0.046373714
-0.044648774 -0.05261013 -0.027831355 -0.014471249 -0.012001949 -0.027493365 -0.014801744 -0.076259606
-0.014859093 -0.07718849 -0.034963522 -0.012144493 -0.060134556 -0.056447476 -0.027750976 -0.072567485
0.030518925 0.037375107 -0.08168552 -0.0061335494 0.07622674 0.05881193 -0.040692892 -0.027422272
0.0640409 -0.029395215 -0.03613843 0.04442547 -0.014606508 0.06748995 -0.015066745 -0.020563131
0.049154792 0.028636742 0.011642797 -0.04424342 0.0257618 -0.0727967 -0.050599072 -0.028173137
-0.043364335 -0.03520044 -0.0059470544 0.089957796 0.070655376 -0.050524987 0.09124585 0.06508892
-0.04597179 0.038110986 0.039521225 0.058163956 -0.099861935 -0.042258408 -0.10143888 -0.007005708
-0.0091146575 -0.048044425 -0.02608647 0.016175454 0.014480248 0.0074884486 0.021691572 -0.037781592
-0.000845883 0.046351492 -0.0468446 0.060943685 -0.043997 -0.1133382 -0.038891334 -0.011218589
0.013813135 -0.09368491 -0.038068466 0.0050812834 0.020224607 0.032728065 -0.010644964 -0.05323709
-0.050147433 -0.052480508 -0.060747236 -0.041010544 0.030109977 0.050658703 0.033263464 0.046338364
-0.01010132 0.03450957 0.012932993 -0.009458901 0.0735211 -0.019880852 0.016710931 -0.050037738
-0.020764353 -0.06911237 -0.083543144 0.020999568 0.04736521 0.04403081 -0.025201945 -0.046612274
0.052054353 -0.03298358 -0.015670814 0.035471667 0.01406436 0.021571124 0.08972088 -0.013563216
-0.036028534 -0.00031328687 0.0144579075 -0.018712096 -0.022739021 -0.039326012 0.087242916 0.027355276
0.0067064636 0.027706217 0.068429455 -0.017761683 -0.06454183 0.04665009 -0.028794706 0.028850727
0.01453637 0.005299873 -0.027944304 0.02751138 0.05607063 0.021381473 0.038693104 0.034915037
0.08195896 -0.04073736 -0.011581158 0.055384863 -0.009658954 -0.02023896 -0.012211883 0.0053288364
0.033111963 0.009091263 -0.022789324 -0.032132305 -0.052965492 0.035859134 0.0061757076 -0.06952671
-0.013080471 -0.015221942 -0.048664656 -0.03167876 -0.065566175 -0.04922121 0.04087955 -0.03058341
-0.076042876 -0.06591508 -0.009007181 -0.004692245 -0.007719492 -0.0118157 -0.050486036 0.041961633
-0.058133863 0.013724434 0.039992947 -0.095150046 0.014092825 -0.06561322 -0.017589718 0.0840322

encoder.cnn_model.2.conv.0.bias f4 [32]
00000000: 7399 dd3b 1a1c aebb 5bb9 37bd ab80 313d
00000010: 5223 6ebc 1903 333d 4f1d 573d 0c5b f4bc
00000020: d9f6 debc 08e0 993c 5bfc c9bc 6c6f 793b
00000030: 53ca 59bc 5dc7 4d3d 3845 393d dfcf 0e3d
00000040: 604c d4bb 8325 603d cd9b 613c 1028 553d
00000050: e255 183d e428 dc3c c7ed 37bc b77a 8bbc
00000060: 193e 54bd 604e 33bd 170c 47bd 2488 34bd
00000070: 1216 3abd 8a4d 52bd 7871 c0bb cacb 533d
0.0067626773 -0.0053134086 -0.044854503 0.043335598 -0.014534788 0.043704126 0.052518185 -0.02982857
-0.027217316 0.018783584 -0.024656465 0.0038060797 -0.013292867 0.050238956 0.045232028 0.03486621
-0.006478831 0.054723274 0.013770056 0.05204016 0.03719128 0.026874967 -0.011226124 -0.017026288
-0.051817033 -0.043775916 -0.048595514 -0.044075146 -0.045431204 -0.05134348 -0.0058729015 0.05170802

encoder.cnn_model.2.conv.1.weight f4 [32]
00000000: 3d1a 883f 4db3 823f 0dc8 8c3f 15f4 953f
00000010: 1add 8b3f cec3 863f 8b78 933f 39c7 883f
00000020: b247 833f 57ae 883f 6287 913f 274e 723f
00000030: 64f7 873f a296 8a3f cebb 723f 2135 7e3f
00000040: 3184 753f 34d0 833f 0311 7c3f 3e51 913f
00000050: 35ab 7e3f 5f0c 8f3f f34a 923f 6e3b 763f
00000060: 2a60 7e3f ca22 813f 8566 8d3f 63ca 943f
00000070: 2a7d 7c3f da20 8c3f 36a1 973f 9a7f 963f
1.0633007 1.0210968 1.0998551 1.1715113 1.092685 1.0528505 1.1521162 1.0685798
1.0256255 1.0678204 1.136944 0.946505 1.0622373 1.082722 0.9481782 0.9929982
0.95904833 1.0297914 0.9846346 1.1352918 0.9947999 1.117565 1.1429123 0.9618443
0.99365485 1.0088742 1.1046911 1.1624264 0.98628485 1.0947526 1.1846073 1.1757691

encoder.cnn_model.2.conv.1.bias f4 [32]
00000000: ff10 afbd 123c 03be 1907 133d 541b 45be
00000010: 2f80 bf3d 1f9b 593d 8e73 8ebc 41ca f0bc
00000020: dcdd cdba 202b e2bd 1751 433d a78a 1abb
00000030: 1447 7b3c 079d 093e 4c49 52bb 5a4a fe3d
00000040: 52af b9bb bc27 aabc 6b6c 023e a051 42bc
00000050: 9e39 b33c cb9b 51be d340 123e 19dd 0f3c
00000060: ff04 4a3d aba3 5c3d 1f13 5f3a 80db 9dbc
00000070: 685c 163b 910c e43c e35c a53c 8e6d 1fbc
-0.085481636 -0.12815884 0.03589544 -0.19248706 0.09350621 0.05312645 -0.017389085 -0.029393317
-0.0015706378 -0.11043382 0.047684755 -0.0023581178 0.015336771 0.13438807 -0.0032087145 0.12416525
-0.0056666518 -0.0207709 0.1273667 -0.011860281 0.02187806 -0.20469587 0.14282541 0.008780741
0.04932117 0.053867023 0.0008509624 -0.019269705 0.0022943262 0.027838023 0.020185893 -0.00973071

encoder.cnn_model.2.conv.1.running_mean f4 [32]
00000000: 3657 4abe c3f1 bb3e a565 0ebf 7f3c ec3d
00000010: c551 acbe c746 69bf db32 8f3e f5ce 0b3e
00000020: 0757 3bbe b7cc 023f e560 a1bc 8ead 263e
00000030: 3cc5 16bf d51a e2be 1688 7d3f 735c 61bf
00000040: 1fcc cebe a99d 963e 45f9 1d3e ff81 a8bd
00000050: 4c1c da3e 8a57 49be fca1 25bf 6854 04be
00000060: e378 dcbe 7636 9e3c 9e3b 43be 8f87 963c
00000070: 6df5 cfbe dca9 323f 33f3 093f ba5c 9ebe
-0.19759831 0.36707887 -0.5562385 0.11534976 -0.33656135 -0.9112362 0.27968487 0.13653167
-0.18294917 0.5109362 -0.019699523 0.16277143 -0.58894706 -0.44161096 0.99035776 -0.8803169
-0.40390107 0.2941716 0.1542712 -0.0822792 0.42599714 -0.196623 -0.64700294 -0.12922823
-0.4306098 0.019313078 -0.19065711 0.018375186 -0.40616933 0.69790435 0.5388672 -0.3093012

encoder.cnn_model.2.conv.1.running_var f4 [32]
00000000: 2c62 723f a395 473f 281c 603f f209 233f
00000010: 638a 5c3f 3ed2 603f 9d83 a03f 196a a83f
00000020: 0fb2 1040 ac15 913f 9352 9f3f 5db5 6e3f
00000030: 7868 3d3f 9b60 a73f 0e53 9f3f e947 0e3f
00000040: 151d f33f 4230 ad3f ca5f 6b3f b2f9 e03f
00000050: 4d8e 0740 f4a1 953f 4cc3 353f 74b2 c03f
00000060: a062 b63f 0a51 fa3e 015d e53f ef65 4d3f
00000070: 932a a33f e533 6e3f ec4d dc3f 38f4 a83f
0.9468105 0.779627 0.87542963 0.6368705 0.8614866 0.87820804 1.2540165 1.3157378
2.2608678 1.1334739 1.2447075 0.9324549 0.7398753 1.3076357 1.2447221 0.55578476
1.899325 1.3530352 0.9194304 1.7576201 2.1180604 1.1690049 0.71001124 1.505446
1.4248848 0.48889953 1.7919008 0.80233663 1.2747368 0.93047935 1.721128 1.319953

encoder.cnn_model.2.conv.3.weight f4 [32, 32, 3, 3]
00000000: 1de9 d63b 2008 57bd 8487 0fba f755 5f3b
00000010: eedc c9bd ea2f 15bd 5a16 39bc 0581 44bd
00000020: 50c3 5c3c 8b95 b03c d494 493d c8f0 f33b
00000030: 6835 2c3d 8816 3bbd a71b 1ebd ddab d83c
00000040: 13cd 73bd 5aee 5cbd ffbd 6c3d d4ab 22bd
00000050: 328f 923d fc44 8a3d ea31 00bd bb68 2a3d
00000060: 581e 7f3d 858f 71bb 8582 82bb fa89 163d
00000070: 455a 04bd 2864 9fbc 0e49 8abd d64f 2ebe
00000080: 8dd8 f2bc ee08 89bd 8f27 9ebd 788d 503b
00000090: 24af 8b3d d2a3 d43c f872 28bc 5a2f a03a
000000a0: bb56 0abc 9f7d 38bd d7df 693d d7a0 2fbd
000000b0: 0fc9 383c cc81 96bd f97d 0bbc cd71 9c3b
000000c0: 3e35 e4bc dd07 61bd 94a3 4bbd f61f c4bc
000000d0: 106c 17bd 7004 743d 2b57 83bc a3dd 36bd
000000e0: 8c86 8d3c 3e24 1e3d 1cf2 10bd f955 05bd
000000f0: 632f 32bd 557f f83a 09d4 323d a80b d7bc
00000100: 714c cbbd 225e 61bc f3ed a5bc 264d 4bbd
00000110: 8ec4 16bb 3c5b 3f3d 0744 89bb 463d b63c
00000120: 62d7 01bd e3fa c5bc ea37 183d b4e5 8b3c
00000130: 4bb6 133d ea53 ae3c bf22 fabc bbc1 703b
00000140: fbe5 33bd 3d56 0c3c d18c a23d 5d6a 193d
00000150: 6add 71bd fda4 923d 780d d5bc bc47 16bd
00000160: 2b7b 8b3c 9738 6b3c f614 c83c 4f5d 18bd
00000170: baae 93bd 2da8 bbba 605c 0e3c f819 993d
00000180: a27f 05bd 2edf 88bd 0f0f efbb a3b2 c73b
00000190: cd4e c43d 90b3 463b 3b92 9d3c 133f c83d
000001a0: 01ba 103d 6ee6 0d3d 8585 f3bc 90ee fabc
000001b0: c52c fabc df89 e1bc e222 abbd e284 eebb
000001c0: 9c71 d53d 5776 c23d 890d a9bd 61d5 cf3c
000001d0: f063 bebc a663 d73c f736 1c3d b845 0abd
000001e0: 7223 983c c1ba 373c f067 4cbd 56ab 30bd
000001f0: e24d 4fbd 5e08 aabd 5599 233d c083 213d
00000200: 7b37 3c3c 2054 9239 2e31 98bd 7668 a3bc
00000210: 0514 5cbc 3d4f d4bc 4f04 1d3d ffec a6bd
00000220: 3f28 19bd af53 6f3d 8036 b1bd 53e6 033c
00000230: 0a90 963c ef3a 62bd eef3 883b 1480 24bc
00000240: 219e 5f3d 83c3 03bd a9d0 223d 8407 7a3d
00000250: 4ed6 54bc 09c2 6f3d 4ca6 5ebc 1129 3c3d
00000260: b28e 1c3d bac2 7cbc a04c f9bc 2ec4 5bbd
00000270: 3dcb bcbd c68b f6bc ef92 87bd 2a14 983c
00000280: 4c0f 443d c6bc 86bd 5358 973d 779c 833d
00000290: 019c 8c3a 3023 94bc 14f3 9f3d 3631 44bb
000002a0: e325 823b 020c cd3c 7560 ecbc 0949 d33c
000002b0: 938d 40bb e267 2bbd 7a38 1abd 9cae c53b
000002c0: 46bd 3bbd 8745 2ebd 6195 1bbc ef59 c7bc
000002d0: 3811 b5bc 1642 173d 08f1 8f3d dc51 bbbd
000002e0: a88c debd 3e0b 8ebd e219 0fbd 66e6 85bd
000002f0: 82c8 0f3a 87c5 c6bc 739c a3bd 0e6c f0bc
00000300: c8f7 aebc 5077 26be 6eb8 06bc 4b78 a43d
00000310: ad21 1abd 1c95 eabd ca85 f13c e5b4 a93d
00000320: a636 d73c bef1 d1bc 80d7 e53d 328d ba3c
00000330: 519f 9cbc e811 a6bc 62c0 2ebd 1fdc 85bd
00000340: 2329 a4bc 409b 273d c996 c5bd 0b5c 30bd
00000350: 7379 583c c274 1fbd f312 0b3c 6fed 68bd
00000360: ecd5 3d3d bb49 db3c ffa8 e3bb 6314 24bd
00000370: 9723 e1bc 9a6f 0c3c 2e32 91bc 86bd 27bb
00000380: cf46 3abd 563d 11bd 7b78 183c d3da 803d
00000390: 5922 14bd 554e 3cbd 2ac2 073d eca8 dabd
000003a0: 257b b53c 9b5a e23c 1653 253d c899 1e3d
000003b0: 1b55 87bb a0ff c3bc bb98 723d 976a b43c
000003c0: a2e4 94bd eb69 833d 650a 283d ba23 663d
000003d0: f4c8 603d d3f4 59bd a186 cb3c ff3e 943d
000003e0: b4f2 78bc 2157 033c 1999 063e 0c7a 22bd
000003f0: 3454 873d 76e8 ff39 5bb5 4dbd df3f 663d
0.006558551 -0.052497983 -0.00054752105 0.0034078339 -0.09856592 -0.036422648 -0.011296833 -0.047974605
0.0134743005 0.021555683 0.0492142 0.007444475 0.04204312 -0.045675784 -0.03860059 0.026449138
-0.059521746 -0.053938247 0.057798382 -0.03971465 0.071562186 0.06751439 -0.0312976 0.041603785
0.062284797 -0.0036859226 -0.0039828443 0.03675268 -0.03231265 -0.019456938 -0.06752215 -0.17022642
-0.029644275 -0.06691156 -0.07722389 0.0031822603 0.06820515 0.025957022 -0.010281317 0.0012221143
-0.00844353 -0.045041677 0.057098236 -0.042878 0.011278405 -0.073489755 -0.008513921 0.0047743083
-0.02785742 -0.05493914 -0.049716547 -0.023941021 -0.03696829 0.059574544 -0.016032776 -0.044644963
0.017276071 0.038608782 -0.035387143 -0.032552693 -0.043502223 0.0018958846 0.043659244 -0.026250675
-0.099266894 -0.013755353 -0.020255065 -0.04963412 -0.002300534 0.046717867 -0.0041890177 0.022246014
-0.031699546 -0.024167484 0.0371627 0.017077304 0.03606252 0.021280248 -0.030534146 0.0036736566
-0.0439205 0.008565483 0.07937015 0.03745495 -0.059049048 0.07160375 -0.026007399 -0.036689505
0.017026505 0.014356754 0.024424057 -0.03719836 -0.07211061 -0.0014317088 0.008689016 0.07475656
-0.032592423 -0.06683193 -0.0072954963 0.006094293 0.095853426 0.003031943 0.019234767 0.097776555
0.035333637 0.034643583 -0.029726753 -0.030631334 -0.030538926 -0.027531562 -0.08356263 -0.0072790245
0.1042206 0.09495228 -0.08254535 0.025370302 -0.023241013 0.026292633 0.038138356 -0.033757895
0.01857159 0.011213959 -0.04990381 -0.04313215 -0.050611384 -0.08302377 0.03994115 0.039432287
0.011487837 0.00027909968 -0.07431255 -0.019947272 -0.013432507 -0.02591669 0.038334187 -0.08150672
-0.037391897 0.058429416 -0.08652973 0.008050519 0.01837923 -0.055231985 0.0041794693 -0.010040302
0.054594163 -0.032168876 0.039749775 0.061042324 -0.012990547 0.058534656 -0.013589453 0.0459376
0.038222022 -0.015427286 -0.030432045 -0.05365389 -0.09218452 -0.030095946 -0.06619822 0.018564302
0.04786615 -0.065789744 0.073898934 0.06426328 0.0010727645 -0.018083185 0.07810035 -0.0029936559
0.0039718016 0.02503014 -0.028854588 0.025791662 -0.002938126 -0.041847117 -0.037651516 0.006032778
-0.045834802 -0.042546775 -0.009496064 -0.024334876 -0.022102937 0.03692826 0.07028395 -0.09146473
-0.10866672 -0.06935738 -0.034936793 -0.06538086 0.0005484895 -0.02426411 -0.07988825 -0.0293484
-0.021358386 -0.16256452 -0.008222682 0.080307566 -0.037629772 -0.114542216 0.02948274 0.08286456
0.026271176 -0.025627967 0.11222744 0.022772405 -0.019118937 -0.02027221 -0.04266394 -0.065361254
-0.020039147 0.040919542 -0.096479006 -0.04305653 0.0132125495 -0.03892971 0.008488405 -0.05686706
0.04634659 0.026768556 -0.006947636 -0.040058505 -0.02748279 0.00857153 -0.017724123 -0.0025595143
-0.045477685 -0.035458885 0.0093060685 0.062917374 -0.03616557 -0.04597314 0.033144154 -0.106767505
0.022153446 0.027631095 0.04036244 0.038720876 -0.0041300184 -0.023925602 0.059227686 0.022023482
-0.07270171 0.064166866 0.041025538 0.056186415 0.054879144 -0.053212 0.02484447 0.07238578
-0.015194584 0.008016379 0.1314434 -0.039667174 0.06607857 0.00048810587 -0.050221782 0.056213256

encoder.cnn_model.2.conv.3.bias f4 [32]
00000000: c946 153d 02a6 653d f69b 10bd 5a01 623d
00000010: 9538 143c f96e 49bd 0c56 d23c 8433 813c
00000020: 1a02 e23c 6d1e dd3c b7ee e8bc 3d4c 163d
00000030: aa0c 9f3c 0bf9 313d e51d 59bd f22b cebc
00000040: 098b e8bc b2b4 603b 2f43 38bc fd91 a0bc
00000050: eca1 48bb c793 89bc b9b2 433d a132 80bc
00000060: b793 393d bcc8 ecbb f64a 283d f2b4 14ba
00000070: de18 1fb9 0859 293d dc36 90bc f9c3 3dbc
0.03644446 0.05606652 -0.035304986 0.05517707 0.009046693 -0.049178097 0.025675796 0.015771635
0.027588893 0.026992047 -0.02843414 0.0366938 0.019415218 0.043450397 -0.053007025 -0.02516744
-0.02838661 0.003428739 -0.011246487 -0.019600863 -0.003061409 -0.016794099 0.047777865 -0.015649142
0.045306887 -0.007226078 0.041087113 -0.0005672715 -0.00015172685 0.041344672 -0.017604284 -0.011582368

encoder.cnn_model.2.conv.4.weight f4 [32]
00000000: 0db8 943f 3d0e 663f 7d2f 953f 5182 823f
00000010: d921 7e3f a750 943f 1e5a 6b3f e1eb 863f
00000020: 42c6 7b3f 4757 623f c40a 7c3f d1ab 643f
00000030: 9bb9 803f 3663 783f 8f56 893f cb5b 783f
00000040: b5c5 623f e0d1 5a3f 2a89 753f c963 7e3f
00000050: 67c8 7f3f 7b16 843f d1be 7f3f 8e50 803f
00000060: 8db0 7d3f 92d3 823f 4a10 7c3f bd90 6d3f
00000070: 82a4 643f 0fd7 7f3f f98d 7a3f 689c 883f
1.1618668 0.89865476 1.1655117 1.019602 0.992704 1.1587113 0.9193438 1.0540735
0.9834939 0.88414425 0.9845393 0.8932467 1.0056642 0.97026384 1.072954 0.97015065
0.88582927 0.85476494 0.9591242 0.9937101 0.99915165 1.031936 0.9990054 1.0024583
0.9909752 1.0220816 0.98462355 0.9279898 0.8931352 0.9993753 0.97872883 1.0672731

encoder.cnn_model.2.conv.4.bias f4 [32]
00000000: cd8d 2f3e 17e6 e2bd f63f e33d 7db1 223d
00000010: 46f5 a6bd a341 143e e2c4 3ebe a377 00be
00000020: b4dd 6a3d 8077 15be 2ef5 043d 1208 af3d
00000030: 1229 67bd 593a 943d 91aa 593d 424d 063e
00000040: 0adb 83bd 6c40 11be 3246 dd3d 5e22 35bd
00000050: 3636 103d 9738 b2bd 7cc9 e93d 5aa9 973c
00000060: 8932 00bc 8cce ecbd 5119 c43c 21e2 50bd
00000070: 2aab 503d 7f69 b03d 182d 063e 9c47 aa3d
0.17143936 -0.110790424 0.11096184 0.039720047 -0.08152251 0.14478163 -0.18629792 -0.12545638
0.05734034 -0.14596367 0.032460384 0.08546461 -0.056435652 0.072376914 0.05314118 0.13115409
-0.06438263 -0.14184731 0.10804404 -0.04422223 0.03520795 -0.087022 0.11415383 0.01851337
-0.0078245485 -0.11562833 0.023937853 -0.050996903 0.050944485 0.08613872 0.1310314 0.0831444

encoder.cnn_model.2.conv.4.running_mean f4 [32]
00000000: 151f a03c dc24 e33d a022 b23d f87a 813d
00000010: f4c1 113e 0bed ce3c f0b1 1d3e 4ead f63d
00000020: 020c ae3c bed3 d43d 076f e5bd a165 873e
00000030: 01a4 18bd 23c1 8abc a932 6a3d b6f7 17be
00000040: 3e58 5e3d c076 f33d 5dc5 4e3c 6448 18bb
00000050: 403e bcbd ae37 443d 64ae 693d 3c4d 93bd
00000060: db29 2f3e df6a 9a3d 5923 eb3d 4223 23bd
00000070: 9f68 c43d 5f15 df3d d3c0 a7bd 3e71 90bd
0.019546071 0.11091015 0.086980104 0.063222826 0.14234143 0.025259515 0.15399909 0.12044774
0.02124596 0.10391949 -0.112028174 0.26444724 -0.03726578 -0.016937798 0.05717722 -0.14840588
0.054283373 0.11887884 0.012620297 -0.0023236508 -0.09191561 0.047904663 0.057051077 -0.07192466
0.1710581 0.07539915 0.114813514 -0.039828546 0.095902674 0.10892748 -0.08191075 -0.07052849

encoder.cnn_model.2.conv.4.running_var f4 [32]
00000000: ce7a 4040 7493 f93f 6df6 c53f 0e2a 5640
00000010: 0910 c73f 4318 e33f fdb9 da3f 5765 e43f
00000020: 39da 8e40 1cfc 1d40 3a9f 1040 1357 5b3f
00000030: 0dfc 3840 7551 1940 1a27 c33f a1e3 0b40
00000040: 32e0 c13f a718 ab3f c3ed b83f 7286 6640
00000050: 1146 8640 d3ef 3840 e13c a93f 158a 3c40
00000060: f802 1840 4b26 4640 e846 e53f 66b0 0e40
00000070: 0315 1740 c0a5 0940 279f e03f 8ff4 8540
3.0074954 1.9498124 1.5465828 3.3463168 1.5551769 1.7741779 1.7088009 1.7843426
4.4641385 2.4685125 2.2597184 0.8567974 2.890384 2.3955967 1.5246308 2.1857684
1.5146544 1.3366898 1.4447559 3.601956 4.196053 2.8896377 1.3221704 2.9459279
2.3751812 3.0960872 1.7912264 2.2295165 2.3606575 2.1507416 1.754857 4.1861033

encoder.cnn_model.4.weight f4 [64, 32, 4, 4]
00000000: 062b 8c3c 41b4 5c3c 8153 843d 5846 9c3d
00000010: 2c7c 043d a1ca 3fbd d8e0 e23b 536e b1bc
00000020: 4cfc 85ba 434f 8bbd e627 cb3a 1dd7 cd3c
00000030: d3ad 36bd 8d86 1fbd a019 983c 90a6 843d
00000040: b4a1 02bd e77b 0c3d 0d23 013d 3fee 013d
00000050: 66d0 b83d 8ea6 9a3d 9a3b a63d b89e 073d
00000060: 55b5 9bbc afb0 673b 1da7 6a3d f9d6 28bc
00000070: f0eb 44bd dad3 6fbc e5e8 833d 0fb6 fe3c
00000080: 78e2 0a3d 615b 823d 240b 903d 1c6f 1ebc
00000090: 502e 89bc defb 0abc 9d04 4b3d f0f5 2dbd
000000a0: 5878 e2bc cd7d 67bd aa74 4d3d ee66 3f3c
000000b0: f0ba c2bc 33e4 b4bc afe7 813d ece4 35b9
000000c0: 8a95 603c e222 e03c 104c 443d 4cff 68bc
000000d0: 53ce ccbc 19f4 9bbc 1858 0dbd fec5 1a3d
000000e0: 9e88 42bd ab87 e7bd 60a5 7e3c e904 4a3d
000000f0: b938 0c3d 0dfc 85bd efd1 8abd 0a22 86bd
00000100: 8c33 06bd fb3f 30bd e5b4 f6bd 4a99 0ebd
00000110: e7e6 34bd f55a 45bb 3d6d 893c 8a0c e3bc
00000120: beb0 56bc c570 0b3d c551 c1bd 01d1 5c3b
00000130: 833c 203d 2fc1 783d 6765 c5bd 8d21 b5bc
00000140: c87c ecbc 080e 93bc aae0 103d 3114 93bb
00000150: 86da 293d e7c3 f4bc 2ed5 3a3d 24a7 4c3d
00000160: c976 fabc 987c cdbc 6b2c ce3c be4a 573d
00000170: e585 31ba 1aec 07bd c6eb d33b 54f3 a83c
00000180: b2dd d8bc 2611 28bd 412f 323d 8f00 45bd
00000190: 802b b03c 9426 32bd fed3 a13d 2703 3a3d
000001a0: 9f25 3bbb f2f7 123d 1676 5f3d f2a5 c63b
000001b0: b58e 333d 4bb3 143e 7385 2b3d 9b7f c83c
000001c0: ef3c 8ebb dc9f 8b3a 0c8f 5e3d ffcd 98bd
000001d0: dbcc 0c3d d2ff d6ba f16d 043d 08d8 f4bb
000001e0: 51b7 ecbc 61b5 003c 6a94 cd3c 5c6e 35bd
000001f0: 386a 4f3d e53a 393d ec17 af3c 0f75 96bd
00000200: 3053 0f3d 3bd8 ffbc a3cc 123d c54f b23c
00000210: 0da6 9bbc f775 ea3c c59b a03b 6266 373d
00000220: 0738 7fbd 6c79 b7bd 4dcd 5a3d fcdd 633d
00000230: fdd1 93bd 48f9 b9bd 84ec 52bd 6b94 66bd
00000240: 1204 51bb cc00 36bd d814 ccbc b0f9 93bc
00000250: fa20 cf3c 4d16 07bb a897 da3b 998d 3b3c
00000260: aeac 28bb ef3c a5bc ecb2 61bc aee2 2abd
00000270: f87b 913d 5c94 6a3d b9dc 833d 8cdd d7bc
00000280: e125 033d c107 3f3d bb22 c5bc 7cfa e93b
00000290: 342f b7bc f5f0 debc 9837 db3c c99d 8f3d
000002a0: 69b0 debb 1d5d 2e3a 2d6b 28bd e883 363d
000002b0: ea76 4e3d 67dc 96bd f43d a1bd 0833 cb3c
000002c0: f72b 0ebd 655a 153d 9765 973c b255 bfbc
000002d0: 6938 98bc 3b49 293d 1058 43bd 6251 77bd
000002e0: ae3d a83c e58f ce39 45d5 4abc e13e 9e3c
000002f0: cc59 333b 0351 d13b 6073 94bb cd30 d63b
00000300: 6b91 89bc 11f4 f63c fca5 003c 8d35 903d
00000310: 4f0e 3ebd 6319 e5bb fc4b e53d 90de 183d
00000320: a104 273d 3347 61bc b24c 4c3d ff93 463c
00000330: 5d17 89bd 9cad 283d 8ad4 643d d53b c63c
00000340: 01b7 e3bc 142b 48bd 86b6 de3c 50bc 2a3c
00000350: 197e bdbc 1652 563c 8019 b13c e530 25bd
00000360: 12ac 1fbc 0deb 303b 00a7 273d 629d a63c
00000370: c836 06bc 7bb1 d5bc 6224 2b3d e85b 98bc
00000380: fcae ffbc d646 f3bc ce01 0abd 7d5f 0bbd
00000390: d2e6 d5bc 2d83 36bd 04e0 993c 0e76 cdbc
000003a0: e9db 073c d347 fcbc c421 113d 2959 28bd
000003b0: dcd0 ea3c c4de e13d efbd 1a3d 6b8a 883c
000003c0: 3e42 a5bc 526d 283c ff80 603d 9d55 8f3d
000003d0: e4d8 373c 5d26 87bd 1aa4 5b3d 8d2b c13c
000003e0: 6637 9ebc 349a 02bd f7ae b03b e44e 273d
000003f0: b974 44bd c64a a2bd 310e af3d 4e50 bf3d
0.017110359 0.01347071 0.064612396 0.076306045 0.032344982 -0.0468241 0.006923776 -0.021659052
-0.0010222285 -0.06802227 0.0015499562 0.025126988 -0.044599365 -0.038946677 0.018566906 0.06477082
-0.031892493 0.03429785 0.031527568 0.03172135 0.09024124 0.07551299 0.08116837 0.03311035
-0.019007364 0.0035353114 0.057288278 -0.01030516 -0.04807657 -0.014637912 0.064409055 0.031092672
0.033907384 0.063650854 0.07033375 -0.009670045 -0.016745716 -0.008482901 0.049564946 -0.042470872
-0.027645275 -0.056516457 0.050160088 0.011682255 -0.02377078 -0.02208147 0.06343018 -0.00017346785
0.013707528 0.027360383 0.0479241 -0.014221024 -0.025000727 -0.019037293 -0.03450784 0.037786476
-0.04749357 -0.113051735 0.015542358 0.04932109 0.034233782 -0.065422155 -0.06778323 -0.06549461
-0.032764003 -0.043029767 -0.12046222 -0.034814157 -0.044165518 -0.003011403 0.016775722 -0.02771594
-0.013103662 0.034043092 -0.094394244 0.0033693912 0.03912021 0.06073111 -0.096384816 -0.022110725
-0.028868094 -0.017951027 0.035370506 -0.004488491 0.041468166 -0.02987857 0.04561346 0.049964085
-0.03057422 -0.025083825 0.025167665 0.052561514 -0.0006771966 -0.03318415 0.0064673154 0.02062384
-0.0264729 -0.04103198 0.043502096 -0.048096236 0.021505117 -0.043493822 0.079017624 0.045413163
-0.002855636 0.03588099 0.054555975 0.0060622627 0.043837268 0.1452152 0.041875314 0.02447491
-0.00434076 0.00106525 0.05433564 -0.07461166 0.034375053 -0.0016403145 0.03233141 -0.007472042
-0.028896006 0.007855744 0.025095183 -0.0442947 0.050638407 0.04522218 0.021373712 -0.07346546
0.034991443 -0.031231036 0.035839688 0.021766553 -0.019000078 0.028620703 0.0049013817 0.044775374
-0.06230929 -0.08958706 0.053418446 0.055631623 -0.072177865 -0.0908075 -0.05149509 -0.056293886
-0.0031893295 -0.044434354 -0.024912283 -0.018063396 0.02528428 -0.0020612658 0.006670911 0.011447334
-0.002573769 -0.020170657 -0.013775568 -0.041720085 0.07103723 0.057270393 0.06438584 -0.026350759
0.032018546 0.046638254 -0.024064412 0.007140456 -0.022361375 -0.027214507 0.026759908 0.07012517
-0.006795932 0.0006651448 -0.041117836 0.04455939 0.050406374 -0.07366257 -0.07873145 0.024804607
-0.034709897 0.03646316 0.018481059 -0.023356292 -0.018581586 0.041329604 -0.047691405 -0.060380347
0.020537224 0.00039398592 -0.012379949 0.019317092 0.0027366756 0.006387831 -0.0045303553 0.006536579
-0.016792974 0.030145677 0.007852074 0.07041464 -0.046400364 -0.0069915517 0.111961335 0.037321627
0.0407759 -0.013749885 0.04987783 0.012120246 -0.06693909 0.04118119 0.055866756 0.024198452
-0.027797224 -0.048869208 0.027186643 0.010420874 -0.023131417 0.013081094 0.021618605 -0.040329833
-0.009745615 0.002699557 0.040930748 0.020338718 -0.008191772 -0.026085606 0.041782744 -0.018598512
-0.031211369 -0.029696863 -0.033693127 -0.03402661 -0.02611104 -0.044558693 0.018783577 -0.025080707
0.008292177 -0.030795967 0.035432592 -0.041100655 0.028664045 0.11028817 0.03777879 0.016667565
-0.020173188 0.01027997 0.05481052 0.06998751 0.011221144 -0.06599114 0.053623296 0.023580337
-0.019313525 -0.03188534 0.005391951 0.04084672 -0.047962878 -0.07924418 0.08547629 0.09341489

encoder.cnn_model.4.bias f4 [64]
00000000: b2ff 103d 31a9 0bbd 1272 23bd 4293 c9bb
00000010: 1486 d73c 4c57 173d b5eb 453c ecbb 203d
00000020: f268 16bd c633 9a3c 7e89 13bd b656 4dbc
00000030: f79d c1bc d6ab 70bb 29ed 1c3d 0a15 0fbd
00000040: 5a97 94bc 4952 dcbc 2f8f acbc 1682 043d
00000050: 9526 ad3c ebc8 59bc 2377 19bd 728e c33c
00000060: 2b94 83bc 3d86 25bd 5c01 4ebc 9a93 0dbd
00000070: 5575 283d ca0c 543c 05e0 2a3d 13d6 b6bc
00000080: ca88 c13a 8a32 22bc cc0f f63c e407 f2bc
00000090: e942 9b3c 017d 443c 9b42 7bbc 41a3 b5bc
000000a0: 7ce9 fabc 8ef4 2cbc f6c4 e73c 3a05 463b
000000b0: 04aa 89bc 81dd 8e3b 56d9 1bbd 8bd1 d53b
000000c0: 4a94 b0b9 eae5 043c c5b3 b4bc c2f0 be3c
000000d0: cbfe febb ace2 e03c 8328 923c 471a a13c
000000e0: b9c0 11bc a304 7e3c ccda f3bc 6b09 8a3c
000000f0: dcf3 99bc dda8 23bd 17b5 d43c dd98 f33c
0.0354001 -0.0340969 -0.039903708 -0.0061515877 0.02630905 0.036948487 0.012080123 0.039241716
-0.036721177 0.018823516 -0.036019795 -0.0125328805 -0.023634894 -0.0036723516 0.03831211 -0.034932174
-0.018138576 -0.026894705 -0.021064369 0.032350622 0.021136561 -0.0132925315 -0.037467133 0.023871634
-0.016061863 -0.040411223 -0.012573566 -0.034564592 0.04112752 0.012942502 0.041717548 -0.022318875
0.0014765498 -0.009899745 0.03003683 -0.029544778 0.018952804 0.011992694 -0.015335704 -0.022172572
-0.030628912 -0.010556353 0.02829216 0.0030215518 -0.016804703 0.0043599014 -0.038049065 0.0065252236
-0.0003367982 0.008111456 -0.022058377 0.023308162 -0.0077818385 0.027451836 0.017841583 0.01966585
-0.008896046 0.015504035 -0.029767416 0.016850194 -0.018793039 -0.039955962 0.025965257 0.029735977

encoder.cnn_model.5.weight f4 [64]
00000000: 9ac7 693f 7b87 663f 5065 7f3f 6202 6f3f
00000010: 3381 643f 239b 3b3f 9ae3 6c3f eb6e 773f
00000020: 68e1 6f3f 1f3d 543f 592d 673f 7273 643f
00000030: 1264 6a3f 4b9c 6e3f 4b47 743f c7b2 5f3f
00000040: 3b74 743f 59ce 673f afca 583f 0df4 5f3f
00000050: 2881 763f 9449 5e3f a925 5e3f 80a3 6a3f
00000060: 41df 623f 7a8f 6a3f 280d 7d3f 89e5 683f
00000070: 6099 4a3f 5df8 6a3f c5b6 713f 87cb 5c3f
00000080: 75ae 6f3f 6a91 753f 7d63 733f bf85 6f3f
00000090: ca5e 6a3f c314 543f ae4d 7a3f a43f 733f
000000a0: 04c7 643f bcef 663f 7638 5e3f 0928 703f
000000b0: 72a0 5f3f 7091 803f 9084 5b3f f13f 603f
000000c0: 8ffc 623f 31f5 6c3f a253 803f a0d1 643f
000000d0: c9aa 733f 088f 5e3f 5fdc 6f3f e66a 503f
000000e0: ed39 5f3f c0c2 5d3f d8ea 553f fe47 563f
000000f0: 9cdc 6b3f 074d 573f feef 733f 101c 703f
0.9132019 0.90050477 0.99763966 0.9336301 0.8925964 0.73283595 0.9253479 0.9665362
0.9370332 0.82905763 0.9030357 0.89238656 0.91558945 0.93207234 0.95421284 0.8738217
0.95489854 0.90549237 0.8468427 0.87481767 0.96290827 0.8683102 0.86776215 0.9165573
0.8862191 0.9162518 0.988482 0.9097524 0.7914028 0.9178522 0.9441951 0.8624806
0.93625575 0.9592501 0.9507368 0.93563455 0.91550887 0.8284418 0.9777478 0.9501898
0.89366174 0.90209556 0.868049 0.9381109 0.87354195 1.0044384 0.8574915 0.87597567
0.88666624 0.9256163 1.0025523 0.8938236 0.9518247 0.86937 0.93695635 0.81413114
0.8719776 0.8662529 0.8356147 0.837036 0.921335 0.8410191 0.95288074 0.9379282
