Data/Dim8_mnist/pneumonia_AE_CNN_01_t.pth (torch, 800278 bytes, 77 tensors)

encoder.cnn_model.0.conv.0.weight f4 [32, 1, 3, 3]
0	0xbe3dedea	-0.18547788
1	0xbe31a829	-0.17349304
2	0xbe12e39c	-0.14344639
3	0xbe906797	-0.28204033
4	0x3d8180fa	0.063234285
5	0xbe25c2db	-0.16187613
6	0xbce698ca	-0.028149027
7	0x3cb3d52c	0.021952234
8	0x3e52d52e	0.20589134
9	0x3e08bbeb	0.13352935
10	0x3e9a08e7	0.30084917
11	0x3e332801	0.17495729
12	0x3da67ca1	0.0812924
13	0xbe59e9cd	-0.21280594
14	0xbc935138	-0.017983064
15	0xbd1e4a9b	-0.038645368
16	0xbe5119f4	-0.20420057
17	0x3d2b612a	0.04184071
18	0xbe258ef2	-0.1616781
19	0x3e4b09c3	0.19827943
20	0xbe9c4e90	-0.30528688
21	0x3e149e39	0.14513482
22	0xbe83cffa	-0.2574461
23	0x3ddb2de7	0.107021146
24	0xbe59ba9f	-0.21262597
25	0x3d458e17	0.04823121
26	0x3e7cc8fb	0.24686043
27	0x3e8e8135	0.27832952
28	0xbe3be408	-0.18348706
29	0xbe962e42	-0.29332167
30	0xbd103b46	-0.035212778
31	0x3e6ba7ff	0.23013304
32	0x3e1f8b60	0.15580511
33	0xbe8f72c3	-0.28017244
34	0xbe02f268	-0.12787783
35	0x3e68ec13	0.22746305
36	0x3e489797	0.19589077
37	0x3dcabdc4	0.09899476
38	0xbe262a4c	-0.16227072
39	0xbe3098c9	-0.17245783
40	0x3e48f800	0.19625854
41	0x3ead8f7e	0.33898538
42	0x3e82c83d	0.25543395
43	0x3df19170	0.11795318
44	0x3e81bfaa	0.2534154
45	0x3cf78a37	0.030217273
46	0x3e894af9	0.26815012
47	0x3df90915	0.121599354
48	0x3e7c2022	0.24621633
49	0xbe77b79f	-0.2419114
50	0x3e993356	0.2992198
51	0xbe755342	-0.23957542
52	0xbdf1edf9	-0.11812968
53	0xbe8c8b8d	-0.2745022
54	0xbd11259c	-0.035436258
55	0xbe5d5ae3	-0.21616702
56	0xbd9e7af3	-0.077382945
57	0x3e8faf71	0.2806354
58	0xbe9c3ca1	-0.30515006
59	0xbe46694b	-0.19376104
60	0xbe08dc2b	-0.13365237
61	0x3e1349a4	0.1438356
62	0x3e59c454	0.212663
63	0xbea374b2	-0.3192497
64	0xbe552eba	-0.20818606
65	0x3de88642	0.11353733
66	0xbc98c23c	-0.018647306
67	0xbdb7a746	-0.08967452
68	0xbc8f32cb	-0.017480275
69	0xbe59bcb7	-0.21263395
70	0x3d8f3b7e	0.06993769
71	0xbea5ee82	-0.3240853
72	0x3dcd72fb	0.100316964
73	0xbe9079a2	-0.28217798
74	0x3d792190	0.060823023
75	0x3e5c7726	0.21529827
76	0x3e8c8d8b	0.2745174
77	0x3e843ce7	0.25827715
78	0x3e11eeea	0.14251295
79	0xbdae066d	-0.08497319
80	0x3dfcb2fe	0.123388276
81	0xbe2126af	-0.15737413
82	0xbdba1ff9	-0.090881296
83	0xbc69339c	-0.014233496
84	0xbe85a6ba	-0.26103765
85	0x3e8181a3	0.25294217
86	0x3e7980db	0.2436556
87	0xbea2a5a3	-0.31766996
88	0xbdfc108f	-0.12307846
89	0xbe7653cf	-0.24055408
90	0x3e8a0c43	0.2696248
91	0xbe23f8a4	-0.16012818
92	0x3e88fdfc	0.26756275
93	0x3cdbac34	0.026815511
94	0xbe8712b3	-0.26381454
95	0x3da17e0e	0.07885371
96	0xbdee96aa	-0.11649831
97	0x3e8652da	0.26235086
98	0x3e50f00c	0.2040407
99	0x3d457b62	0.04821337
100	0xbe931166	-0.2872421
101	0xbe2334a3	-0.15938048
102	0x3e185cfe	0.14879224
103	0xbe87cb2a	-0.2652219
104	0x3ce73511	0.028223546
105	0x3e8ad609	0.2711642
106	0x3ea7fc6b	0.32809767
107	0xbddd68d1	-0.10811008
108	0xbe014d66	-0.12627181
109	0x3e2d06ad	0.16897078
110	0x3e2580d8	0.16162431
111	0x3d1b198b	0.037866157
112	0x3e7514bf	0.23933695
113	0xbdcfe854	-0.10151735
114	0x3c89c50d	0.016817594
115	0xbd7d9fc3	-0.06191994
116	0x3e816b39	0.25277117
117	0xbcca0414	-0.024660148
118	0x3d767901	0.060173992
119	0x3d1f8e8f	0.038954314
120	0xbe801256	-0.2501399
121	0xbdb1975a	-0.08671446
122	0x3df1d64f	0.11808454
123	0xbe8537ff	-0.26019284
124	0xbe81ec9a	-0.25375825
125	0x3e810e2b	0.25206122
126	0xbe5cdd69	-0.21568836
127	0x3e5326e5	0.20620306
128	0x3d67ce61	0.056593303
129	0xbea8d9d0	-0.32978678
130	0x3d0bfae1	0.034174804
131	0x3d909db0	0.070613265
132	0x3e442f31	0.19158627
133	0x3d41ba8e	0.047297053
134	0x3e6b4ecf	0.22979282
135	0xbe5e0564	-0.21681744
136	0x3e8d8d9f	0.2764711
137	0xbdd4ae6a	-0.10384829
138	0xbd9e1403	-0.07718661
139	0xbe2f70f8	-0.17132938
140	0xbea6e90c	-0.32599676
141	0xbe108fef	-0.14117406
142	0x3e257032	0.1615608
143	0x3e4da7bd	0.20083518
144	0x3e119e9e	0.14220664
145	0x3d4b0ab7	0.049570765
146	0xbd4a50b3	-0.049393367
147	0x3df5bdd5	0.11999098
148	0x3d1944b6	0.037419043
149	0x3c8d8a99	0.017278003
150	0xbde07eb4	-0.10961667
151	0xbe9032f2	-0.28163868
152	0x3eaaae48	0.3333609
153	0x3e442e01	0.19158174
154	0xbeabaa63	-0.33528432
155	0xbe8d626b	-0.2761415
156	0xbbca4e5a	-0.006173891
157	0xbc2ec94d	-0.010668111
158	0xbdf60561	-0.12012745
159	0x3e62320b	0.22089402
160	0x3e7f074f	0.24905132
161	0xbd209481	-0.039204124
162	0x3e0ed7b9	0.13949479
163	0xbe86b172	-0.26307255
164	0xbd2841b4	-0.041078284
165	0xbde73447	-0.11289268
166	0x3e48a70b	0.19594972
167	0x3ea62346	0.32448786
168	0x3e73ff03	0.23827748
169	0x3e930de5	0.28721538
170	0x3dc0165d	0.093792655
171	0xbe2ecacf	-0.17069553
172	0xbd41100e	-0.04713445
173	0x3d125810	0.035728514
174	0xbe46b3d1	-0.19404532
175	0x3e889135	0.26673284
176	0xbd5a3710	-0.053275168
177	0xbe1f0e35	-0.15532763
178	0xbd726f32	-0.059188075
179	0xbeb308da	-0.3496769
180	0x3eb0302e	0.34411758
181	0xbe837ffd	-0.25683585
182	0xbe6746bb	-0.22585575
183	0x3e69eabe	0.22843453
184	0x3e52386e	0.20529339
185	0x3e3a49ab	0.18192165
186	0x3db7d8ca	0.08976896
187	0x3c443261	0.011974902
188	0xbe8bbf99	-0.27294615
189	0xbe608d3e	-0.2192888
190	0x3dd14015	0.10217301
191	0x3db17b1a	0.08666058
192	0x3e7c4f39	0.24639596
193	0x3e424fa7	0.18975697
194	0xbdb90577	-0.090342455
195	0xbe271797	-0.16317593
196	0x3e0b3a86	0.13596544
197	0xbdef5681	-0.11686421
198	0xbe7ac297	-0.24488293
199	0xbe069ea1	-0.1314645
200	0x3e677be1	0.2260585
201	0xbcb32bf0	-0.021871537
202	0xbd840f6a	-0.064482525
203	0x3e12cb0f	0.14335273
204	0x3e9df358	0.3084972
205	0xbe536748	-0.20644867
206	0xbe47e1f6	-0.19519791
207	0x3cab56e3	0.020915454
208	0x3de899d8	0.11357468
209	0x3c44121c	0.011967208
210	0x3dc14978	0.09437841
211	0x3df257a9	0.11833126
212	0xbe59f57d	-0.21285053
213	0x3e120d05	0.14262779
214	0xbea8f331	-0.3299804
215	0xbe5b8295	-0.21436532
216	0x3e033297	0.12812267
217	0xbe60d5e4	-0.21956593
218	0xbe322877	-0.17398249
219	0xbe958f30	-0.29210806
220	0x3e949679	0.29021052
221	0x3dc3f2d5	0.09567801
222	0x3e5b06be	0.2138929
223	0x3d6ea2e8	0.05826083
224	0x3e9b5c4a	0.30343848
225	0xbe3f49f7	-0.18680559
226	0x3e90c658	0.28276324
227	0xbe5d13bf	-0.21589564
228	0x3e57afeb	0.21063201
229	0x3d8367a5	0.06416253
230	0x3e2412a0	0.1602273
231	0x3dc085a9	0.09400494
232	0x3daf474f	0.08558523
233	0xbdefe79b	-0.11714097
234	0xbe94506b	-0.28967604
235	0xbe26162c	-0.16219395
236	0x3e06b50e	0.13155004
237	0xbdf984ca	-0.12183531
238	0x3e150997	0.1455444
239	0xbe09ee06	-0.13469705
240	0x3ddccc0f	0.107811086
241	0x3e32efd0	0.17474294
242	0xbdca9a74	-0.09892741
243	0xbe9f4b96	-0.31112355
244	0x3cbb27f0	0.022846192
245	0xbe02b983	-0.1276608
246	0x3d5fe0f1	0.05465788
247	0x3dda76c9	0.10667188
248	0x3c9bb5dd	0.019007618
249	0x3da73d82	0.081660286
250	0xbb3821f6	-0.0028096414
251	0xbe2ebf2c	-0.17065114
252	0x3e6cbdf5	0.23119338
253	0xbe93ad8a	-0.28843337
254	0xbdb66ce2	-0.089074865
255	0x3e8f3517	0.27970192

encoder.cnn_model.0.conv.0.bias f4 [32]
0	0x3e4a4435	0.19752581
1	0x3db836f2	0.08994855
2	0x3e4c13da	0.19929448
3	0xbd1dd8c0	-0.038536787
4	0x3e90d0d8	0.28284335
5	0x3e3d7802	0.1850281
6	0x3e1e8245	0.15479381
7	0x3e8083ff	0.25100705
8	0x3e44209b	0.19153063
9	0x3e9e8058	0.30957294
10	0xbe1e8cb6	-0.15483364
11	0xbd5a438d	-0.053287078
12	0xbe829655	-0.2550532
13	0x3d92a3af	0.071601264
14	0xbdb6d66e	-0.08927618
15	0x3e8ffc62	0.2812224
16	0xbe8b030d	-0.27150765
17	0x3e3b0e4d	0.18267174
18	0x3d9de720	0.07710099
19	0xbe93e1ad	-0.28883114
20	0x3d207954	0.039178208
21	0x3e20948a	0.15681663
22	0xbe0e5f48	-0.13903534
23	0x3e1dfbc0	0.15428066
24	0x3dd32993	0.10310664
25	0x3d93be7f	0.072140686
26	0x3e06ad7c	0.13152117
27	0xbe51c838	-0.20486534
28	0x3e9b0712	0.30278832
29	0xbd40fae7	-0.04711428
30	0xbdab8252	-0.08374466
31	0xbc2d6cf5	-0.010585059

encoder.cnn_model.0.conv.1.weight f4 [32]
0	0x3f76e1ed	0.96438485
1	0x3f796648	0.97421694
2	0x3f746a74	0.95474935
3	0x3f70129f	0.93778414
4	0x3f6ca1ad	0.924342
5	0x3f7d1d8f	0.9887323
6	0x3f77871f	0.96690553
7	0x3f768aa4	0.963053
8	0x3f84890b	1.0354322
9	0x3f7e8cca	0.9943358
10	0x3f764d2a	0.96211493
11	0x3f74f91b	0.95692605
12	0x3f77b637	0.9676241
13	0x3f80add9	1.0053054
14	0x3f7fdc97	0.9994597
15	0x3f7989dd	0.9747599
16	0x3f6b3a78	0.9188609
17	0x3f74a640	0.9556618
18	0x3f73f211	0.9529124
19	0x3f91047d	1.1329495
20	0x3f78af10	0.97142124
21	0x3f802c69	1.0013553
22	0x3f6f6e1c	0.9352739
23	0x3f7cedf1	0.9880057
24	0x3f7dfb8c	0.99211955
25	0x3f7c5d25	0.9857963
26	0x3f770ece	0.96506965
27	0x3f82e9c2	1.0227587
28	0x3f7fa43e	0.9985999
29	0x3f81550b	1.0104078
30	0x3f6ffb9c	0.937433
31	0x3f7286c0	0.9473686

encoder.cnn_model.0.conv.1.bias f4 [32]
0	0x3d34f709	0.044180904
1	0x3b89199f	0.0041839625
2	0xbc431529	-0.0119069
3	0xbc82d53a	-0.015970815
4	0xbc9cb991	-0.019131454
5	0x3d3d902e	0.04628008
6	0xbbc02f9c	-0.0058650505
7	0xbc8c2110	-0.01710561
8	0xbb86fee0	-0.004119739
9	0x3dd7b7c5	0.10533098
10	0xbd2720a9	-0.04080263
11	0x3c45ca0a	0.012072096
12	0xbd040cce	-0.032238774
13	0xbc8fe81a	-0.01756673
14	0x3a2c8a8d	0.0006581925
15	0xbca55b75	-0.020185212
16	0xbd1dc48e	-0.038517527
17	0xbc81e539	-0.015856372
18	0x3caa96f2	0.02082393
19	0x3d7c3420	0.061573148
20	0xbbef2eab	-0.0072992644
21	0x3d0ea045	0.034820814
22	0xbb5afce7	-0.0033414902
23	0xbc1c31f5	-0.009533395
24	0xbb88bbed	-0.004172793
25	0x3cdbd697	0.026835723
26	0xbc350b28	-0.011050023
27	0x3d4df514	0.050282553
28	0x3c5b3c2c	0.013381045
29	0x3d2d6ce4	0.042340174
30	0xbc971437	-0.018442256
31	0x3c5f3218	0.013622783

encoder.cnn_model.0.conv.1.running_mean f4 [32]
0	0x3e51829e	0.20459983
1	0x3dc03a4d	0.0938612
2	0x3e4c8745	0.19973476
3	0xbd2ec98c	-0.04267268
4	0x3e8acb7d	0.27108374
5	0x3e3a6a2a	0.18204561
6	0x3e27c312	0.16383007
7	0x3e835790	0.25652742
8	0x3e39e748	0.18154633
9	0x3e9c7ad5	0.30562463
10	0xbe19c8b3	-0.15017967
11	0xbd46eecf	-0.04856759
12	0xbe86a739	-0.26299456
13	0x3da1f08a	0.07907207
14	0xbdb91404	-0.09037021
15	0x3e92635a	0.28591424
16	0xbe8af5ff	-0.27140805
17	0x3e3e97ae	0.18612549
18	0x3d8a51bc	0.06753871
19	0xbe953590	-0.29142427
20	0x3cfa6c9d	0.030569369
21	0x3e14d0d4	0.14532787
22	0xbe090ebb	-0.13384525
23	0x3e1f723f	0.15570925
24	0x3dcbe5e8	0.099559605
25	0x3d72f45d	0.059315074
26	0x3e060059	0.1308607
27	0xbe5658d4	-0.20932323
28	0x3e95639c	0.29177558
29	0xbd17d02f	-0.037063774
30	0xbd97a41e	-0.0740435
31	0xbca1766a	-0.019709785

encoder.cnn_model.0.conv.1.running_var f4 [32]
0	0x3ed70c58	0.42001605
1	0x3e00b883	0.12570386
2	0x3db7083f	0.0893712
3	0x3d9b8cbc	0.07595202
4	0x3f5cc893	0.8624355
5	0x3e1369d5	0.1439584
6	0x3e2d4f2b	0.16924731
7	0x3f230de7	0.6369309
8	0x3ee7f472	0.45303684
9	0x3ecd1c72	0.40060765
10	0x3e5efcf8	0.21776187
11	0x3e309d61	0.17247535
12	0x3e8e971c	0.27849662
13	0x3ea7e188	0.32789254
14	0x3e5fe61c	0.21865124
15	0x3e1624b4	0.14662439
16	0x3d907dc2	0.070552364
17	0x3e554914	0.20828658
18	0x3f1962e5	0.59916526
19	0x3e9f7d5a	0.31150323
20	0x3e8b2f6e	0.27184623
21	0x3d975482	0.073891655
22	0x3daa069a	0.083020404
23	0x3e5e5cea	0.21715131
24	0x3e5fc6f9	0.21853246
25	0x3e2f8a8a	0.17142692
26	0x3dd53ea3	0.10412338
27	0x3d9a8ece	0.07546769
28	0x3f6c999a	0.9242188
29	0x3f32246b	0.6958682
30	0x3ee32e8f	0.4437146
31	0x3e404732	0.18777159

encoder.cnn_model.0.conv.3.weight f4 [32, 32, 3, 3]
0	0xbd7991ff	-0.06093025
1	0xbd070592	-0.032964297
2	0x3cba940a	0.022775669
3	0xbd00f1c0	-0.03148055
4	0xbceda649	-0.029009955
5	0x3d147eea	0.036253847
6	0xbc94a65c	-0.018145733
7	0x3d4e5108	0.050370246
8	0xbbdb5f9d	-0.0066947476
9	0x3d4c6b78	0.049907178
10	0x3ce0adab	0.027426561
11	0x3d295cbd	0.041348208
12	0x3b9598c0	0.0045653284
13	0xbcc9a18e	-0.024613168
14	0xbc61c266	-0.013779258
15	0xbc0bf170	-0.00854145
16	0x3d8ceaf7	0.068807535
17	0xbb8796fa	-0.004137871
18	0x3ce66cab	0.028127989
19	0xbd000c13	-0.031261515
20	0xbcf38712	-0.029727492
21	0x3d244ee1	0.040114287
22	0xbce9fb06	-0.02856208
23	0xbcb6804e	-0.022277977
24	0x3cab7255	0.020928541
25	0x3d035509	0.032063518
26	0x3c9ffe08	0.019530311
27	0x3ce3ed9d	0.027823264
28	0xbd919f73	-0.07110491
29	0x3d10d374	0.035357907
30	0xbbee996d	-0.0072814734
31	0x3d15c40f	0.03656393
32	0xbcbfa824	-0.023395605
33	0xbb815d2b	-0.003947874
34	0x3d2a25dd	0.041540015
35	0x3d5bfcc6	0.05370786
36	0xbd2e26e6	-0.042517565
37	0xbab68f83	-0.0013928268
38	0xbcaa4299	-0.02078371
39	0xbcc56ca5	-0.024099657
40	0x3c39a325	0.011330401
41	0xbc94738c	-0.018121503
42	0x3a987897	0.0011632618
43	0x3cb2d920	0.021832049
44	0x3d56b7ce	0.052421384
45	0xbbcb912a	-0.0062123733
46	0xbbe3cb83	-0.0069517507
47	0x3cef0f89	0.029182212
48	0x3d4e69ab	0.05039374
49	0xbc310613	-0.010804671
50	0xbc01a577	-0.007912985
51	0x3d8d8edd	0.06912015
52	0x3c8ad4c1	0.016947152
53	0x3d4c6f7d	0.04991101
54	0x3d293e9a	0.041319467
55	0x3d855b21	0.06511522
56	0x3c660d62	0.014041277
57	0xbada08d4	-0.0016634711
58	0x3d923a34	0.071400076
59	0x3cde9652	0.027171288
60	0x3d177312	0.036974974
61	0xbc710e8f	-0.014712944
62	0xbcf54dae	-0.029944267
63	0xbd17167b	-0.036886673
64	0xbc952077	-0.018203957
65	0x3c1712cf	0.009220793
66	0xbd488467	-0.048954394
67	0x3c3ed134	0.011646558
68	0x3d0cbac8	0.034357816
69	0xbd22e0a7	-0.039765026
70	0xbd41deb0	-0.047331512
71	0x3cb0c66f	0.021578996
72	0xbd0c2b1f	-0.03422081
73	0x3d6b04c1	0.05737758
74	0x3d4fb870	0.050713003
75	0xbbccf82d	-0.006255171
76	0xbcd5ee83	-0.026114708
77	0xbc0e9b20	-0.008703977
78	0xbd80abd3	-0.06282773
79	0x3d63daf2	0.055628724
80	0xbc0664bb	-0.008202727
81	0xbc7639b0	-0.015028402
82	0x3cda3f58	0.026641533
83	0xbd1bae98	-0.038008302
84	0xbd34f7b8	-0.044181556
85	0x3d7cafec	0.06169121
86	0x3d9f9061	0.0779121
87	0x3c6fc25a	0.014633739
88	0xbd31c129	-0.043397103
89	0x3d9161c3	0.07098725
90	0xbbc9e77c	-0.0061616283
91	0x3d2cbe5e	0.042173736
92	0xbc4556b0	-0.012044594
93	0xbd3c11d3	-0.045915436
94	0xbd5374a3	-0.051624905
95	0x3d55524e	0.052080445
96	0xbd06547e	-0.03279542
97	0x3d3dfe68	0.0463852
98	0xbd4b06aa	-0.049566902
99	0xbd39e674	-0.045385793
100	0x3d96e044	0.07366994
101	0xbc553f98	-0.01301565
102	0x3cc6f2e0	0.024285734
103	0x3d07ee1b	0.03318606
104	0x3cce99f4	0.025219895
105	0x3cc2ce38	0.023779973
106	0x3c1b1568	0.009465553
107	0x3bba247c	0.005680619
108	0xbbc21ba9	-0.0059237075
109	0x3c60c838	0.013719611
110	0x3d2768bc	0.040871367
111	0xbd5829e7	-0.052774336
112	0xbdb0ada7	-0.086268716
113	0x3d4fdd91	0.05074841
114	0xbdc924fd	-0.09821508
115	0xbd698ec6	-0.057020925
116	0xbcec0e2d	-0.028815353
117	0xbd3de5d5	-0.046361763
118	0x3c2cc1ff	0.010544299
119	0x3d815d2c	0.06316599
120	0xbd9b03f2	-0.07569112
121	0xbd150632	-0.03638286
122	0x3d897400	0.06711578
123	0xbcfbcb35	-0.030736545
124	0xbce1652a	-0.02751406
125	0x3d8a70fc	0.06759831
126	0xbd5ab1c5	-0.05339219
127	0xbbd57d83	-0.0065152063
128	0x3c9a792c	0.018856607
129	0xbdb68fe2	-0.08914162
130	0xbd6ec087	-0.058289077
131	0x3d036139	0.03207514
132	0xbdb8a943	-0.09016659
133	0x3cbfb126	0.0233999
134	0xbbe6a153	-0.0070382743
135	0xbd7a19e9	-0.061059866
136	0xbd97e349	-0.07416398
137	0xbcde0a03	-0.027104383
138	0xbd050cfc	-0.032483086
139	0xbd4cbd48	-0.0499852
140	0x3c6e514c	0.01454575
141	0x3cbbc22b	0.022919735
142	0x3c9ff104	0.019524105
143	0xbd06e5b1	-0.032933895
144	0xbc50de63	-0.012748334
145	0xbd41d90a	-0.047326125
146	0x3b8cd296	0.0042975647
147	0xbaac145b	-0.0013128625
148	0x3d49ee62	0.049299605
149	0xbd0dae96	-0.034590326
150	0xbc382db2	-0.011241363
151	0x3c3fc134	0.011703778
152	0x3d527dba	0.051389433
153	0x3d59b56c	0.053151533
154	0x3b1bc85a	0.0023770542
155	0xbd4263f1	-0.047458593
156	0x3d09c601	0.033636097
157	0x3ca551be	0.02018058
158	0x3d12391d	0.035699
159	0x3c79db03	0.01524997
160	0xbc1d2b5a	-0.009592855
161	0xbd9e9061	-0.07742382
162	0x3cb3e420	0.021959364
163	0xbd640f20	-0.055678487
164	0xbd0f3de9	-0.03497115
165	0xbd4e6d76	-0.05039736
166	0x3c10c8e7	0.008836961
167	0x3b8b6580	0.004254043
168	0xbd76d7d1	-0.060264412
169	0xbc02818c	-0.007965457
170	0xbd06c47b	-0.032902222
171	0xbc7d0822	-0.015443834
172	0x3c035334	0.008015443
173	0x3d38137e	0.044940464
174	0xbd8a629a	-0.06757088
175	0x3c3f452f	0.0116742095
176	0xbbd25b33	-0.006419563
177	0x3d808ece	0.06277238
178	0x3b59cf3c	0.0033235094
179	0xb9bce3f4	-0.00036027993
180	0x3b21a645	0.0024665755
181	0xbb161b8a	-0.0022904598
182	0xb82bb660	-4.0939427e-05
183	0x3d9549df	0.072894804
184	0x3d2cb3ec	0.042163774
185	0xbd7d6b4e	-0.06186991
186	0xbca462f7	-0.020066721
187	0x3ca5bf4b	0.020232817
188	0x3c368029	0.011138954
189	0xbc837ce0	-0.016050756
190	0x3c5d671d	0.013513354
191	0xbc5eebb7	-0.0136060035
192	0xbcf32c4c	-0.029684208
193	0xbc723492	-0.014783042
194	0x3c86ff37	0.016479118
195	0xbcdd1c87	-0.026991142
196	0xbd96d297	-0.073643856
197	0xbba41cb0	-0.0050083026
198	0x3bed74ec	0.007246604
199	0x3d309b6d	0.043116976
200	0x3b882e77	0.0041559297
201	0xbd22791d	-0.039666284
202	0x3af69504	0.0018812721
203	0x3d5450fb	0.05183504
204	0x3bdfa40f	0.006824977
205	0x3d5742bd	0.05255388
206	0xbcc1bfe3	-0.023651069
207	0x3d25052c	0.040288135
208	0x3d116cee	0.035504274
209	0x3cea56a5	0.028605768
210	0x3d079706	0.03310301
211	0x3cf6e8ea	0.030140359
212	0xbd6f7a11	-0.05846602
213	0x3c91dacc	0.017804526
214	0x3b6e854a	0.0036395364
215	0x3b8ccd69	0.0042969477
216	0xbb8e9aeb	-0.0043519638
217	0x3d1023c2	0.03519035
218	0x3bb8cccf	0.0056396495
219	0xbcc7359a	-0.024317551
220	0xbca45900	-0.02006197
221	0x3ca2ad9d	0.019858176
222	0xbd7619ef	-0.060083326
223	0xbcc844b7	-0.024446828
224	0xbd620afa	-0.05518625
225	0xbc4be32c	-0.012444299
226	0xbdb9129e	-0.09036754
227	0xbd4dcd8b	-0.05024485
228	0xbc902040	-0.017593503
229	0xbd14a342	-0.036288507
230	0xbdd462f1	-0.10370434
231	0xbb5a898f	-0.0033346151
232	0xbd588b69	-0.052867327
233	0xbdcd2674	-0.100171
234	0xbd662e35	-0.05619641
235	0x3ce46c76	0.02788375
236	0x3ca20c73	0.019781327
237	0xbcba76f0	-0.022761792
238	0xbd5bac6a	-0.053631224
239	0x3b12e1f4	0.002241251
240	0xbd1988db	-0.03748403
241	0xbd42c070	-0.047546804
242	0xbd15591c	-0.036461934
243	0xbd303a41	-0.043024305
244	0xbd2768c1	-0.040871385
245	0x3d0cc817	0.034370508
246	0x3d2ccf64	0.04218997
247	0xbd0de6c0	-0.03464389
248	0xbd0beda4	-0.03416218
249	0xbd1eb3f2	-0.038745828
250	0xbd6cda56	-0.05782541
251	0xbd0ecb52	-0.03486187
252	0xbcc624f0	-0.024187535
253	0x3d5f1113	0.054459643
254	0xbd2c13f8	-0.04201123
255	0x3d23f0a5	0.04002442

encoder.cnn_model.0.conv.3.bias f4 [32]
0	0xbc46f86e	-0.012144191
1	0xbce60b1f	-0.028081475
2	0x3d429bf3	0.047512006
3	0x3d526397	0.051364508
4	0xbcb3e062	-0.02195758
5	0xbb2e3f5c	-0.0026588058
6	0xbca8fab8	-0.020627365
7	0x3ce76057	0.02824418
8	0x3d0381d0	0.03210622
9	0xbd12e6b4	-0.035864547
10	0x3d067baf	0.032832798
11	0x3d0f86a7	0.035040524
12	0xbd5ae6fb	-0.053442936
13	0xbd2a3882	-0.041557796
14	0x3d2781dd	0.04089533
15	0xbcce7e95	-0.025206843
16	0xbd3c5ace	-0.045985036
17	0xbd53c3a7	-0.05170026
18	0xbc25e2af	-0.010124846
19	0x3cf16afc	0.02946996
20	0x3c44abe1	0.01200387
21	0xbcea773a	-0.028621305
22	0x3cf7d8e1	0.030254783
23	0x3d661fc4	0.056182638
24	0x3d363f2d	0.044493843
25	0x3c994e87	0.018714203
26	0x3d5c260c	0.05374722
27	0xb9b4bc45	-0.00034472547
28	0x3d65ea81	0.056131843
29	0xbccb9159	-0.02484958
30	0x3d2d79b4	0.042352393
31	0x3cc94894	0.02457074

encoder.cnn_model.0.conv.4.weight f4 [32]
0	0x3f81b23b	1.0132517
1	0x3f6a2cb2	0.9147445
2	0x3f7f7524	0.9978812
3	0x3f8dc367	1.1075257
4	0x3f74d1b6	0.95632493
5	0x3f877fd5	1.0585886
6	0x3f84912c	1.0356803
7	0x3f6f9d6b	0.93599576
8	0x3f812693	1.0089897
9	0x3f88649a	1.0655701
10	0x3f7e955c	0.99446654
11	0x3f82ca30	1.0217953
12	0x3f7e2bd0	0.992856
13	0x3f70b1fd	0.9402159
14	0x3f6193ee	0.8811635
15	0x3f691239	0.9104343
16	0x3f85face	1.0467165
17	0x3f87ed6b	1.0619329
18	0x3f804cbd	1.0023419
19	0x3f7a3fc1	0.9775353
20	0x3f79da51	0.9759875
21	0x3f86d2c7	1.0533074
22	0x3f835192	1.0259268
23	0x3f779065	0.96704704
24	0x3f8059ee	1.0027444
25	0x3f7cd28a	0.9875876
26	0x3f7b56e5	0.98179466
27	0x3f6970f8	0.91188
28	0x3f8b17ce	1.086664
29	0x3f77cffb	0.9680173
30	0x3f826f7e	1.0190275
31	0x3f796284	0.9741595

encoder.cnn_model.0.conv.4.bias f4 [32]
0	0xbc43891a	-0.011934543
1	0xbc0035d1	-0.007825331
2	0x3d8c3089	0.06845195
3	0xbd6b0d3e	-0.057385676
4	0x3cfeeb6e	0.031118121
5	0xbc8642dd	-0.016389305
6	0xbbfee326	-0.007778543
7	0xbc0aac15	-0.008463879
8	0xbc2c6c4c	-0.010523867
9	0xbc4b7513	-0.012418049
10	0xbc337b03	-0.010954621
11	0xbd756c0a	-0.059917487
12	0x3d13f1f9	0.036119435
13	0x3c16b649	0.009198734
14	0xbc4de905	-0.012567763
15	0x3c139615	0.00900795
16	0xbd66557c	-0.056233868
17	0xbc64cd64	-0.013964985
18	0x3aff3ef2	0.0019473715
19	0xbcedd91f	-0.029034195
20	0x3d8fc016	0.07019059
21	0xbd12ba9a	-0.03582249
22	0x3cd32310	0.025773555
23	0x3c57e6b0	0.013177559
24	0x3d51b065	0.051193614
25	0xbcfbe672	-0.030749533
26	0xbc2a49aa	-0.010393539
27	0xbcfa672a	-0.03056677
28	0x3c21dc9c	0.0098792575
29	0xbbb32a55	-0.005467693
30	0x3bd60fe2	0.006532655
31	0x3b5c8a4c	0.0033651767

encoder.cnn_model.0.conv.4.running_mean f4 [32]
0	0x3e7294d8	0.23689592
1	0xbefef908	-0.4979937
2	0xbe083d7c	-0.13304704
3	0x3ecd1b45	0.40059868
4	0xbe30aaec	-0.17252702
5	0xbee33c55	-0.44381967
6	0x3e60bd8f	0.21947311
7	0x3e55fa16	0.20896181
8	0xbe40c6d3	-0.18825845
9	0xbe7ae85b	-0.24502699
10	0xbe93e66a	-0.2888673
11	0x3ec620ce	0.38696903
12	0xbe98b28d	-0.29823723
13	0xbf111baf	-0.56682867
14	0xbe889fe2	-0.2668448
15	0xbeb04225	-0.34425464
16	0xbea8ba7a	-0.3295477
17	0x3dbf5f7a	0.093443826
18	0x3e40e4cb	0.18837278
19	0xbe935f4a	-0.28783637
20	0x3ee46195	0.446057
21	0xbe9df9c5	-0.30854622
22	0x3ea661ed	0.32496586
23	0x3ea8f74c	0.33001173
24	0x3ec58769	0.38579872
25	0xbe552b54	-0.2081731
26	0xbe828e38	-0.2549913
27	0xbec1d617	-0.3785865
28	0x3eb13f20	0.34618473
29	0x3d21f320	0.039538503
30	0x3e5207ca	0.20510784
31	0xbe6afd36	-0.22948155

encoder.cnn_model.0.conv.4.running_var f4 [32]
0	0x3f552287	0.8325581
1	0x3fb24637	1.3927678
2	0x3eaa9cc9	0.33322743
3	0x3f4d365a	0.8016106
4	0x3f6230dd	0.8835581
5	0x3fbb5f61	1.4638482
6	0x3f69e6c4	0.91367745
7	0x3ede9511	0.43473104
8	0x3ee92529	0.45536163
9	0x3ed25663	0.41081533
10	0x3f39ccb3	0.7257797
11	0x3f52fc42	0.82416165
12	0x3f0213e9	0.5081163
13	0x3fef1cd2	1.868067
14	0x3f526a07	0.82193035
15	0x3f915903	1.1355289
16	0x3f2408ea	0.640761
17	0x3f230e72	0.63693917
18	0x3f3dd99c	0.7416017
19	0x3f48e467	0.78473514
20	0x3fd2c6fc	1.6466975
21	0x3f1c22b5	0.6099046
22	0x3f656df6	0.8962091
23	0x3f674ee2	0.9035474
24	0x3fa53ba3	1.2908825
25	0x3ea014dc	0.31265914
26	0x3f34ff08	0.70701647
27	0x3f96e338	1.1788092
28	0x3f6b58e3	0.91932505
29	0x3f0183ca	0.5059172
30	0x3f0a27ec	0.53967166
31	0x3f2f7751	0.6854144

encoder.cnn_model.2.conv.0.weight f4 [32, 32, 3, 3]
0	0x3c750b5f	0.014956324
1	0xbd937ab9	-0.07201142
2	0xbb9dda97	-0.0048173177
3	0x3ce4ebaf	0.027944414
4	0x3d12dde8	0.035856158
5	0xbb4b9682	-0.0031065051
6	0x3c238bcc	0.009982061
7	0x3d15a2ba	0.03653214
8	0xbd174aad	-0.03693645
9	0xbcf8a880	-0.030353785
10	0x3d3de701	0.04636288
11	0xbd762f37	-0.06010362
12	0x3d46b4d8	0.04851231
13	0x3ce41d0a	0.027845878
14	0xbc52d09e	-0.012867121
15	0xbd33d2cd	-0.043902207
16	0xbccac523	-0.024752205
17	0x3bff1a28	0.0077851005
18	0x3b84c5b3	0.004051888
19	0xbc96c08f	-0.018402366
20	0x3d01a93a	0.031655528
21	0xbbdac2a8	-0.006676037
22	0xbc6a0b8b	-0.014284979
23	0x3ce8b7fc	0.028408043
24	0x3d0172a4	0.03160347
25	0xbce9e6ba	-0.028552402
26	0xbd7c1e96	-0.061552607
27	0xbd48ae08	-0.048994094
28	0xbd5486c4	-0.051886335
29	0xbbcc4c7e	-0.0062347045
30	0xbda04beb	-0.0782698
31	0xbd566f74	-0.052352384
32	0x3d39ce6a	0.045362867
33	0xbd790e41	-0.06080461
34	0x3ca9f5c0	0.020747066
35	0xbcf11938	-0.02943097
36	0x3d19f9bd	0.037591685
37	0x3c4325e2	0.011910887
38	0xbc97c2b1	-0.018525453
39	0x3d028404	0.03186418
40	0xbd00dfe5	-0.031463522
41	0x3d1bf60b	0.03807644
42	0x3d167e7f	0.03674173
43	0xbcd81742	-0.026378278
44	0xbd373303	-0.044726383
45	0x3d7e8f47	0.06214836
46	0x3b865d00	0.004100442
47	0x3d23e49f	0.040012952
48	0x3d9b924f	0.075962655
49	0x3b3c568f	0.0028738116
50	0xbd465a5c	-0.048426017
51	0xbbf15806	-0.0073652295
52	0x3d2fd6dc	0.042929515
53	0x3c72203d	0.014778194
54	0xbdb0133a	-0.08597417
55	0x3c8bc8cf	0.017063526
56	0xbd59e4d8	-0.053196758
57	0xbd58568c	-0.052816913
58	0xbc2308cc	-0.009950828
59	0xbd8bff30	-0.068357825
60	0x3c256043	0.010093751
61	0x3d151ae0	0.036402583
62	0xbd854190	-0.06506646
63	0xbcde4029	-0.027130203
64	0xbd016101	-0.03158665
65	0xbd715ec5	-0.05892827
66	0x3cdeeae8	0.027211621
67	0xbd3c98d0	-0.04604417
68	0xbc5f3bb3	-0.013625073
69	0x3bfc0a14	0.007691631
70	0xbd871e46	-0.06597571
71	0x3b13d68f	0.0022558307
72	0x3c825aee	0.0159125
73	0x3ccfa922	0.025349203
74	0x3d154a8e	0.036448054
75	0xbca5ee37	-0.020255191
76	0xbd3c63d4	-0.04599364
77	0x3c858f7c	0.01630377
78	0x3c43174b	0.011907409
79	0x3b730815	0.0037083675
80	0x3cdbf47a	0.026849974
81	0x3cb7cae9	0.022435622
82	0x3d49cc0f	0.04926687
83	0xbd4d3304	-0.05009748
84	0x3dd5ff5a	0.10449095
85	0x3d23e509	0.040013347
86	0xbd0af4ca	-0.033924855
87	0x3d0611a3	0.032731663
88	0xbca51370	-0.02015087
89	0x3d62bbe8	0.055354983
90	0x3d817f3e	0.06323098
91	0x3d8be939	0.06831593
92	0x3c155fd1	0.009117083
93	0x3cc5d7ab	0.02415069
94	0xbcff6a2c	-0.031178556
95	0x3d15c982	0.036569126
96	0x3ca1845e	0.019716438
97	0xbd18e70d	-0.037329722
98	0xba9a2dba	-0.0011762895
99	0xbdf4071e	-0.1191542
100	0xbd1e272f	-0.038611587
101	0xbb3eea81	-0.0029131474
102	0x3cae7b03	0.021298891
103	0x3b7e32d8	0.003878763
104	0xbd1eb78c	-0.038749263
105	0x3c41663b	0.011804159
106	0x3d1caed7	0.038252678
107	0xbceac727	-0.028659416
108	0x3bd8a35c	0.006611271
109	0xbcc749f0	-0.024327248
110	0xbd3c36f5	-0.04595085
111	0xba907ea1	-0.0011024066
112	0x3ce0caa6	0.02744038
113	0xbcdb332a	-0.026757795
114	0x3d2177e1	0.039420966
115	0x3d803b8d	0.062613584
116	0xbcab8413	-0.020937001
117	0x3d91d3b5	0.07120458
118	0x3cfcb03b	0.030845752
119	0x3accd098	0.0015626131
120	0x3d48dc36	0.049038135
121	0x3b342fc8	0.00274943
122	0x398f8e5e	0.00027381157
123	0xbcd1855f	-0.025576292
124	0xbd2ce8c3	-0.042214166
125	0xbd29cb8a	-0.041453876
126	0xbd24d070	-0.040237844
127	0xbc806d24	-0.015677042
128	0x3c9f7d37	0.019468887
129	0xbc52a470	-0.012856588
130	0x3cbefeee	0.02331492
131	0xbceab964	-0.028652854
132	0xbd0b864b	-0.03406362
133	0x3cf36be7	0.029714538
134	0x3c5be30e	0.013420833
135	0x3cf53a25	0.029934952
136	0x3d307512	0.043080397
137	0xbd4435ac	-0.047902748
138	0x3c3e96fb	0.011632676
139	0xbc8d8f20	-0.017280161
140	0xbb3e2de0	-0.0029019043
141	0x3d7bff20	0.061522603
142	0x3d366969	0.04453412
143	0xbd0ffdd4	-0.03515418
144	0x3dc04f28	0.09390098
145	0x3d43fa3e	0.04784607
146	0x3d0434ca	0.032276906
147	0xbbee65ae	-0.0072753048
148	0x3bfa5dca	0.007640575
149	0xbce4bbc1	-0.02792156
150	0xbd07151b	-0.032979112
151	0x3c943400	0.018091202
152	0x3d425236	0.047441684
153	0xbcdc6a56	-0.026906174
154	0xbcd9d322	-0.026589934
155	0x3cd5f94b	0.026119849
156	0xbc05da92	-0.008169787
157	0xbd157270	-0.03648609
158	0xbc66c27c	-0.014084455
159	0xbd7da490	-0.061924517
160	0xbd0a7649	-0.03380421
161	0xbd11dd9c	-0.035611734
162	0x3b0b4e79	0.002125649
163	0xbd4ab7b8	-0.049491614
164	0xbc720217	-0.014771006
165	0x3d5d40d9	0.05401692
166	0x3ca37bbe	0.019956466
167	0x3d1fb74f	0.038993176
168	0xbc049446	-0.008091992
169	0xbc3cdee7	-0.011527753
170	0x3cf403dc	0.029786997
171	0x3d26c328	0.04071346
172	0x3d81ea2c	0.06343493
173	0x3c2d7ef6	0.010589352
174	0x3db08b99	0.08620376
175	0x3d40ce8c	0.04707198
176	0x3ab063f6	0.0013457525
177	0x3d3bc10d	0.045838404
178	0x3beb4c89	0.0071807546
179	0x3d168ea4	0.036757126
180	0xbcdc9169	-0.026924806
181	0xbd7f132b	-0.06227414
182	0x3c9ab8c3	0.01888693
183	0x3d27f437	0.041004386
184	0xbd75eca3	-0.060040127
185	0xbd90ba18	-0.070667446
186	0x3d35f60c	0.0444241
187	0xba320877	-0.00067914225
188	0xbd84613b	-0.06463858
189	0x3dc00949	0.09376771
190	0xbd1efd18	-0.038815588
191	0xbcf8a8bf	-0.030353902
192	0xbcfcd08e	-0.030861165
193	0x3cfc6699	0.030810641
194	0x3c8d6888	0.017261758
195	0x3ca81d33	0.020521736
196	0xbc25fb25	-0.010130678
197	0x3d105fa9	0.03524748
198	0xbd10e1e9	-0.035371695
199	0xbafd9b68	-0.0019348683
200	0x3c164578	0.009171836
201	0xbdab3834	-0.08360329
202	0xbb5a4bf2	-0.0033309427
203	0xbc9221ac	-0.017838322
204	0xbcb51900	-0.022106647
205	0xbc993780	-0.018703222
206	0x3d8770d4	0.06613317
207	0xb93a725b	-0.00017780943
208	0xbc9a8804	-0.018863685
209	0x3d14ef53	0.03636105
210	0xbd25a3f5	-0.040439565
211	0xbd8951b7	-0.06705039
212	0xbd047535	-0.03233834
213	0xbd42f1c2	-0.04759384
214	0x3c424462	0.011857124
215	0x395b200d	0.00020897407
216	0x3d5afa26	0.053461216
217	0x3c2156c8	0.00984735
218	0xbd9b2ec6	-0.07577281
219	0xbcc0b305	-0.023522863
220	0x3c575b19	0.013144278
221	0xbcc99911	-0.02460912
222	0x3c809d2e	0.01569995
223	0xbb9c5038	-0.004770305
224	0xbd49519e	-0.0491501
225	0x3c9ad38e	0.018899705
226	0x3d84ab79	0.06478018
227	0xbd262118	-0.040558904
228	0x3d62de74	0.05538793
229	0x3a7b7535	0.00095923553
230	0x3d4831f8	0.04887578
231	0x3a97db9a	0.0011585832
232	0xbd6e2c5e	-0.05814778
233	0x3b962be7	0.0045828703
234	0x3ac1c23f	0.0014782621
235	0x3ba26604	0.004956009
236	0x3cec3845	0.028835425
237	0xbd475ba4	-0.04867138
238	0xbc053720	-0.008130819
239	0x3ca8c142	0.020599965
240	0xbda23652	-0.07920517
241	0xbd2c0f00	-0.042006493
242	0xbcff449d	-0.031160647
243	0x3c655582	0.013997437
244	0xbbdf5591	-0.00681562
245	0x3c315dba	0.010825569
246	0xbb534a49	-0.0032240322
247	0xbd050987	-0.03247979
248	0x3c49d346	0.012318438
249	0x3cab4c40	0.020910382
250	0x3ca40017	0.020019574
251	0xbceb5007	-0.028724683
252	0xbccaed43	-0.024771338
253	0x3d41bd96	0.047299944
254	0xbd0f60f7	-0.035004582
255	0xbd372c3a	-0.044719912

encoder.cnn_model.2.conv.0.bias f4 [32]
0	0x3ca9bb75	0.02071927
1	0x3d605e69	0.054777537
2	0x3d2728de	0.04081046
3	0xbd262ad1	-0.040568177
4	0x3d523066	0.051315688
5	0xbd15c9d3	-0.036569428
6	0xbcb083cc	-0.02154722
7	0x3d167d87	0.036740806
8	0x3b84d46b	0.0040536425
9	0xbccfe27f	-0.025376556
10	0xbd394a83	-0.045237076
11	0xbd1cc7f3	-0.038276624
12	0x3d09d77a	0.03365276
13	0x3d0f1477	0.034931626
14	0xbc9f2cb7	-0.019430501
15	0xbb9a41ff	-0.0047075744
16	0xbd225fe2	-0.039642222
17	0xb91e0ea9	-0.00015073516
18	0xbd48b88b	-0.04900412
19	0xbd502ba2	-0.05082286
20	0x3c60a94f	0.013712241
21	0x3d650a7f	0.055918213
22	0xbb24f86c	-0.0025172485
23	0xbce5281b	-0.027973225
24	0x3cae81cb	0.021302124
25	0xbd19d3cb	-0.037555497
26	0x3ccfe3ce	0.02537718
27	0x3c7048c8	0.01466579
28	0xbd53ddcf	-0.051725205
29	0x3d3c0c4b	0.04591016
30	0xbc5134d6	-0.012768945
31	0xbd3f8485	-0.04675724

encoder.cnn_model.2.conv.1.weight f4 [32]
0	0x3f84bd8c	1.0370345
1	0x3f834f82	1.0258639
2	0x3f8293ed	1.0201393
3	0x3f82f920	1.0232277
4	0x3f81e4dc	1.0147967
5	0x3f7ac5cf	0.9795808
6	0x3f81b515	1.0133387
7	0x3f79b2d7	0.9753851
8	0x3f8104a8	1.0079546
9	0x3f816a0b	1.0110487
10	0x3f7cdaef	0.98771566
11	0x3f6959dc	0.9115274
12	0x3f85bc26	1.0448043
13	0x3f84244a	1.0323575
14	0x3f85bb3b	1.0447763
15	0x3f830c06	1.0238044
16	0x3f7f3d1b	0.99702615
17	0x3f866f2b	1.0502676
18	0x3f8334b4	1.0250459
19	0x3f8c41c7	1.0957574
20	0x3f80a353	1.0049843
21	0x3f8314b1	1.024069
22	0x3f873d6d	1.0565621
23	0x3f8779ba	1.0584023
24	0x3f787d56	0.9706625
25	0x3f7234e4	0.94611955
26	0x3f84b738	1.0368414
27	0x3f70f62b	0.9412562
28	0x3f82fb12	1.023287
29	0x3f776146	0.966328
30	0x3f86ec46	1.0540855
31	0x3f82b268	1.0210695

encoder.cnn_model.2.conv.1.bias f4 [32]
0	0x3db329ee	0.08748232
1	0xbcbfb788	-0.023402944
2	0xbdaa4a63	-0.083149694
3	0x3b8c1431	0.004274868
4	0xbd084a0d	-0.033273745
5	0x3d239114	0.03993328
6	0xbd304f6e	-0.0430445
7	0xbd397f9b	-0.04528771
8	0xbc46c1cf	-0.0121311685
9	0x3d761cb0	0.060085952
10	0xbb80076f	-0.003907136
11	0x3cb313d4	0.02186004
12	0xbd42157e	-0.047383778
13	0xbe031942	-0.12802604
14	0x3d94171a	0.07230969
15	0xbd01dc21	-0.031704072
16	0xbd32a6f7	-0.04361626
17	0xbdade795	-0.084914364
18	0xbc9d1cb3	-0.019178724
19	0xbd5c3df8	-0.053770036
20	0xbc57b357	-0.013165317
21	0x3d5aa56d	0.05338042
22	0xbd55acb1	-0.052166644
23	0xbc4beba3	-0.012446317
24	0x3d69601e	0.05697643
25	0x3c74d228	0.014942683
26	0x3cd5365b	0.026026895
27	0xbd97ee03	-0.07418444
28	0xbc4e5f12	-0.012595909
29	0xbd8e87c4	-0.06959489
30	0xbd1b59eb	-0.03792755
31	0x3ce030ac	0.027366959

encoder.cnn_model.2.conv.1.running_mean f4 [32]
0	0xbed4c282	-0.41554648
1	0x3e2bfaf3	0.16794948
2	0x3d1e1638	0.03859541
3	0x3f088de8	0.5334153
4	0x3eacf338	0.3377931
5	0xbee6610c	-0.44995916
6	0xbefda3e2	-0.49539095
7	0xbe254660	-0.16140127
8	0xbda2172f	-0.07914578
9	0xbd6eda70	-0.058313787
10	0x3e73fb66	0.2382637
11	0x3ef71bc4	0.4826337
12	0xbf098779	-0.5372234
13	0xbe85a111	-0.26099446
14	0xbe86876e	-0.262752
15	0x3eabfb62	0.33590227
16	0xbd82023f	-0.06348085
17	0xbe604582	-0.21901515
18	0xbf00ec98	-0.50361013
19	0x3de7a3c2	0.11310531
20	0xbd999366	-0.07498817
21	0x3eaa7761	0.33294204
22	0xbecc2441	-0.3987141
23	0xbf253232	-0.64529717
24	0x3ede1e1a	0.4338234
25	0xbee819af	-0.45332095
26	0xbe278b6a	-0.16361776
27	0xbdb75e66	-0.08953552
28	0xbeb5d888	-0.35516763
29	0x3e1da612	0.15395382
30	0xbd135cb0	-0.035977066
31	0xbec58dbf	-0.38584706

encoder.cnn_model.2.conv.1.running_var f4 [32]
0	0x3f9545df	1.1661948
1	0x3faaa780	1.3332367
2	0x3f0fe606	0.5621036
3	0x3f0bf9fd	0.54678327
4	0x3f296945	0.66176254
5	0x3f9f7aee	1.245939
6	0x3f024d0b	0.5089881
7	0x3f849749	1.0358669
8	0x3f898127	1.0742539
9	0x3f8b97c7	1.0905694
10	0x3f33f674	0.7029793
11	0x3ebf45b9	0.37357882
12	0x3eef31fb	0.4671782
13	0x3f2ddfa8	0.679194
14	0x3f50cb54	0.81560254
15	0x3f24467a	0.6417004
16	0x3f909fd5	1.1298777
17	0x3f2347cf	0.63781446
18	0x3f6a878a	0.91613066
19	0x3f0ee665	0.55820304
20	0x3f0f6652	0.56015503
21	0x3f02bd1d	0.51069814
22	0x3f49a677	0.7876963
23	0x3f43bcae	0.7645978
24	0x3f057ff7	0.52148384
25	0x3fa80035	1.3125063
26	0x3ea8947d	0.32925788
27	0x3ebbd733	0.3668762
28	0x3f582f6d	0.84447366
29	0x3f90116a	1.1255314
30	0x3f6e5b75	0.931083
31	0x3f4cb9fc	0.7997129

encoder.cnn_model.2.conv.3.weight f4 [32, 32, 3, 3]
0	0x3d5be9db	0.05368982
1	0x3d07013f	0.032960173
2	0x3d21e9ee	0.039529733
3	0x3d5bdff7	0.053680386
4	0xbd2b020b	-0.041749995
5	0xbc91edee	-0.017813649
6	0x3c6634af	0.014050647
7	0xbc064f91	-0.008197681
8	0x3d1626a3	0.03665794
9	0x3d337799	0.04381523
10	0x3d13a9b7	0.036050525
11	0x3d4e8c29	0.050426636
12	0x3d9bcbec	0.076072544
13	0xbd304fb1	-0.04304475
14	0xbcca58b1	-0.024700494
15	0x3d850425	0.06494931
16	0xbd356e70	-0.044294775
17	0xbd8a78bb	-0.06761309
18	0xbc358a51	-0.0110803405
19	0x3d00a607	0.031408336
20	0xbd40ac66	-0.047039412
21	0xbc58ebfa	-0.013239855
22	0xbcaa84f4	-0.02081535
23	0xbd15a19e	-0.036531083
24	0x3d8f3dd8	0.06994218
25	0xbd392643	-0.045202505
26	0xbd94f9e1	-0.07274223
27	0xbc2bacd0	-0.010478213
28	0x3d99e639	0.075146146
29	0x3d85c1e3	0.065311216
30	0x3d91e9e4	0.07124689
31	0x3d67307f	0.056442734
32	0x3c059668	0.008153535
33	0x3d87ef46	0.06637435
34	0x3cada020	0.021194518
35	0xbd754de2	-0.059888728
36	0x3ca1d993	0.019757068
37	0xbd48efbe	-0.04905676
38	0xbd2e69e5	-0.042581458
39	0xbc5d6d0d	-0.013514769
40	0xbd67b86c	-0.056572363
41	0x3cd62123	0.026138848
42	0x3b2232ca	0.002474951
43	0xbd037b53	-0.032100033
44	0xbd81b135	-0.06332628
45	0xbd77549c	-0.060383424
46	0xbd1312cb	-0.035906594
47	0xbd563395	-0.052295286
48	0xbd350cd0	-0.044201672
49	0x3a7a68f3	0.0009552382
50	0xbca83ae0	-0.020535886
51	0xbaa6c792	-0.0012724272
52	0x3d866252	0.06561722
53	0xbd052899	-0.03250942
54	0xbd7442bf	-0.059633967
55	0xbd1429a5	-0.036172528
56	0xbc810ef5	-0.015754202
57	0x3ccbe692	0.024890218
58	0xbd093b4a	-0.033503808
59	0xbc11c872	-0.008897888
60	0xbcb5f643	-0.022212153
61	0xbda8292f	-0.0821098
62	0x3c8e850f	0.017397432
63	0x3d77a6d9	0.060461853
64	0x3d6540cf	0.05597001
65	0x3c3c80de	0.011505334
66	0xbc17c1b0	-0.009262487
67	0xbd54ecf0	-0.051983774
68	0x3d01ef26	0.03172221
69	0x3be08b65	0.0068525546
70	0x3d52521b	0.051347833
71	0x3d360c37	0.044445243
72	0xbd8962b0	-0.06708276
73	0xbcd6978c	-0.02619531
74	0xbce9d54a	-0.028544087
75	0xbb4a0e2a	-0.0030831196
76	0x3d49a933	0.049233627
77	0x3ca51d5f	0.020155607
78	0x3b05c1f5	0.0020409797
79	0x3d3cbc4b	0.046078008
80	0xbd846c9d	-0.06466029
81	0xbcc3dfa2	-0.023910347
82	0x3b9697f1	0.0045957495
83	0x3d0eab0a	0.034831084
84	0xbbf788d4	-0.007554153
85	0xbc466359	-0.012108647
86	0x3d6c2b2a	0.057658352
87	0x3b99cb1a	0.004693401
88	0x3cd1f356	0.025628727
89	0x3d8b29ff	0.067951195
90	0x3d1704f0	0.036869943
91	0x3d01807e	0.03161668
92	0xbc4b2f9e	-0.01240149
93	0x3c7cb0db	0.015423025
94	0x3c6de3f8	0.014519684
95	0x3d003973	0.031304788
96	0xbcb7e93b	-0.02245008
97	0x3d461b7c	0.048366055
98	0xbd6404b7	-0.05566856
99	0xbd86d931	-0.06584395
100	0x3cde62e0	0.027146757
101	0x3c5968f4	0.013269652
102	0x3c87d9df	0.016583381
103	0xbbdd18d6	-0.0067473454
104	0x3d288ddb	0.04115091
105	0x3d2d7f6d	0.04235785
106	0x3d253df5	0.04034229
107	0x3cf0cd36	0.029394727
108	0xbc497d5f	-0.012297957
109	0x3d770783	0.060309898
110	0x3cee7d51	0.02911249
111	0xbd615f8e	-0.05502277
112	0xbd04d659	-0.03243098
113	0x3c992d25	0.018698284
114	0xbd150f11	-0.03639132
115	0xbca64f7f	-0.020301579
116	0xbc6a123f	-0.014286577
117	0x3d276edb	0.040877204
118	0x3d34a98b	0.044107
119	0xbc5aa120	-0.013344079
120	0x3c1d8f63	0.009616706
121	0xbd413b57	-0.04717573
122	0x3c8c2aff	0.017110346
123	0xbd32aa89	-0.043619666
124	0xbd1046d7	-0.03522381
125	0xbc9c76ec	-0.019099675
126	0xbd5539ed	-0.052057195
127	0xbb4518bd	-0.003007456
128	0xbd196073	-0.037445497
129	0xbd759de6	-0.059965037
130	0xbd065a76	-0.032801114
131	0xbd8120d7	-0.06305092
132	0xbc19834b	-0.009369682
133	0xbd590b12	-0.052989073
134	0xbd2fb1e1	-0.042894248
135	0x3d8e3d77	0.06945317
136	0x3c66b986	0.014082318
137	0xbd45640f	-0.048191126
138	0x3cdb8d80	0.02680087
139	0xbd40ca62	-0.047068007
140	0xbd2138ea	-0.039360918
141	0x3dcd1807	0.100143485
142	0xbc8be33a	-0.017076124
143	0xbcee0f5a	-0.029060055
144	0xbd9d0b0f	-0.07668125
145	0xbd34b568	-0.044118315
146	0xbd1e18c8	-0.038597852
147	0xbd82cdd7	-0.06386917
148	0xbd02960d	-0.03188138
149	0x3ca7f117	0.020500703
150	0xbd20499d	-0.039132703
151	0x3cbc3458	0.022974178
152	0xbcd66c14	-0.026174583
153	0xbd86691e	-0.06563018
154	0xb9d79e4f	-0.00041125945
155	0xbbfd0edd	-0.007722719
156	0xbd0b28f8	-0.033974618
157	0xbd6babbd	-0.05753683
158	0x3d10c762	0.035346396
159	0xbb6c3bfc	-0.0036046496
160	0xbd2f66bd	-0.04282259
161	0xbbcdefbb	-0.0062846816
162	0xbcc5dbb8	-0.024152622
163	0xbbbc8962	-0.005753682
164	0xbce089e4	-0.027409501
165	0xbc129d7b	-0.008948679
166	0xbada6482	-0.0016662034
167	0xbd4a28f9	-0.04935548
168	0xbc0ce4e2	-0.008599492
169	0xbaf4485a	-0.0018637285
170	0xbd5a1ca7	-0.05324998
171	0x3a65af6e	0.0008761798
172	0x3c9fe4eb	0.019518336
173	0x3cae5f34	0.02128563
174	0xbcaea3bf	-0.021318315
175	0xbd29cf0c	-0.04145722
176	0x3d2aa0dd	0.041657317
177	0x3cf965e4	0.030444093
178	0xbcd04b2a	-0.025426466
179	0x3d3cd0a8	0.046097428
180	0xbc9a32a9	-0.018822985
181	0xbc9f2a0a	-0.019429225
182	0x3ced3543	0.028956061
183	0x3cd1a844	0.02559293
184	0xbc6ab381	-0.014325024
185	0xbd1db064	-0.038498297
186	0xbd9acf5f	-0.07559084
187	0xbd217a44	-0.039423242
188	0x3d31e994	0.043435648
189	0xbd29ea07	-0.04148295
190	0x3ca7da83	0.020489937
191	0xbcf55f84	-0.029952772
192	0x3d2b4c99	0.041821096
193	0xbd1b37ff	-0.0378952
194	0xbcae216e	-0.021256175
195	0xbccb69bf	-0.024830697
196	0x3d5ec72f	0.054389175
197	0xbca460f1	-0.020065757
198	0xbb5c72ce	-0.0033637765
199	0xbd59c52c	-0.053166553
200	0x3d2a39d9	0.041559074
201	0x3cd8e1c1	0.026474835
202	0xbbb5549c	-0.005533768
203	0x3c277554	0.010220844
204	0x3c574bda	0.013140643
205	0xbce272af	-0.027642576
206	0xbb347108	-0.0027533192
207	0x3d37d08c	0.04487662
208	0x3c067397	0.00820627
209	0xbc854491	-0.016268047
210	0xbc43a5b6	-0.011941364
211	0x3c618973	0.013765681
212	0x3d613be2	0.05498875
213	0xbceb5f58	-0.028731987
214	0xbc8d3afc	-0.01724004
215	0x3d719608	0.05898097
216	0x3d02be4b	0.03191976
217	0x3d3c0bdc	0.045909747
218	0xbcb55e80	-0.022139788
219	0xbcecf101	-0.028923513
220	0x3cf69890	0.030102044
221	0x3d6791bb	0.056535464
222	0x3c5c717e	0.013454793
223	0x3ce0734a	0.027398724
224	0x3d790b75	0.060801942
225	0x3c34d47c	0.011036988
226	0x3c70acba	0.014689619
227	0x3d591c57	0.053005543
228	0x3d71ba9c	0.059015855
229	0x3d06ea6c	0.032938406
230	0x3c262379	0.010140293
231	0x3d89c5dc	0.06727192
232	0xbd40f702	-0.047110565
233	0x3d27fe4d	0.041014004
234	0x3cb85674	0.022502162
235	0x3d3f1a1c	0.04665576
236	0xbcb54fb4	-0.022132732
237	0x3cfc2281	0.030778171
238	0x3c71059e	0.014710812
239	0x3d2d62d0	0.042330563
240	0xbb905187	-0.00440425
241	0x3d653d57	0.0559667
242	0xbd6c80ab	-0.057739895
243	0x3d95ea2b	0.073200546
244	0x3d227834	0.039665416
245	0xbd520cdf	-0.051281806
246	0xbd28de27	-0.041227486
247	0x3b91346b	0.0044312975
248	0x3a3ae86a	0.00071299693
249	0x3d8d17dc	0.068893164
250	0x3d322969	0.043496523
251	0x3cbf0da3	0.023321932
252	0xbd46e384	-0.04855682
253	0xbcac1646	-0.021006715
254	0xbcefbf42	-0.029266004
255	0xb987d437	-0.0002590732

encoder.cnn_model.2.conv.3.bias f4 [32]
0	0x3d5ee612	0.05441863
1	0x3caa4e2f	0.020789234
2	0x3d522719	0.051306818
3	0xbc1de761	-0.009637685
4	0xbc8d8980	-0.01727748
5	0x3cc439c0	0.023953319
6	0x3d5ca15f	0.053864833
7	0xbd4b1953	-0.049584698
8	0x3cdf957a	0.027292956
9	0x3c49b8a8	0.012312092
10	0x3d372707	0.044714954
11	0xbd1f1deb	-0.03884689
12	0xbc7d5b9c	-0.015463736
13	0xbc0301ca	-0.007996032
14	0x3d553c2f	0.05205935
15	0x3d364465	0.04449882
16	0x3cc76271	0.024338933
17	0x3d336145	0.043793935
18	0x3d674f51	0.056472126
19	0x3d629801	0.055320743
20	0xbd073a6d	-0.033014704
21	0xbd1c81af	-0.038209613
22	0xbc0510f0	-0.008121714
23	0xbb801729	-0.003909011
24	0xbc5d2ba6	-0.013499176
25	0x3b87fec0	0.0041502416
26	0x3d1e5893	0.03865869
27	0x3cb639d8	0.022244379
28	0x3c910c2f	0.017706005
29	0xbd57bd64	-0.05267085
30	0x3d5dcf70	0.054152906
31	0xbc9030eb	-0.01760145

encoder.cnn_model.2.conv.4.weight f4 [32]
0	0x3f797f1d	0.97459584
1	0x3f7ad682	0.9798356
2	0x3f7893ff	0.97100824
3	0x3f7459d0	0.95449543
4	0x3f6e6cae	0.9313458
5	0x3f7593ed	0.9592884
6	0x3f7bce23	0.98361415
7	0x3f80a9f9	1.0051872
8	0x3f6d1179	0.92604786
9	0x3f7cc94c	0.98744655
10	0x3f7b07a4	0.98058534
11	0x3f6f8dea	0.9357592
12	0x3f70e38d	0.94097215
13	0x3f772370	0.9653845
14	0x3f7b6e8a	0.98215544
15	0x3f6c664d	0.923436
16	0x3f8220a3	1.016621
17	0x3f8330b4	1.0249238
18	0x3f6c4ae0	0.9230175
19	0x3f6b3b6b	0.9188754
20	0x3f826049	1.0185634
21	0x3f7d4394	0.9893124
22	0x3f6f8442	0.93561184
23	0x3f79eb14	0.97624326
24	0x3f77bc3a	0.96771586
25	0x3f818b09	1.0120555
26	0x3f81dd91	1.0145742
27	0x3f75710a	0.9587561
28	0x3f712ba7	0.94207233
29	0x3f787691	0.9705592
30	0x3f7d1e82	0.98874676
31	0x3f6eff5c	0.933584

encoder.cnn_model.2.conv.4.bias f4 [32]
0	0x3d4d327c	0.050096974
1	0x3d0b6f24	0.03404154
2	0x3d2d7210	0.042345107
3	0xbc8736d7	-0.016505642
4	0xbdf02f9f	-0.11727833
5	0xbda0055d	-0.07813523
6	0xbd9327ee	-0.0718535
7	0x3d27eee8	0.040999323
8	0xbd665e90	-0.056242526
9	0x3d41c402	0.04730607
10	0x3d6a310a	0.057175674
11	0x3a61ef2d	0.0008618709
12	0x3d206c1f	0.039165612
13	0x3cc7dcfa	0.024397362
14	0x3d2d0aa2	0.04224647
15	0xbd876872	-0.06611718
16	0xbc18fa37	-0.009337
17	0x3cbc64c4	0.022997268
18	0xbc3258ad	-0.0108854
19	0xbc88effe	-0.016716
20	0x3d99e1cc	0.075137705
21	0x3cd1ac3c	0.025594823
22	0x3b0926d5	0.0020927687
23	0x3d88a5b7	0.066722326
24	0x3aff61ad	0.0019484066
25	0x3db2a496	0.087227985
26	0x3d000eeb	0.031264227
27	0xbd05d06c	-0.03266947
28	0x3d6a9781	0.05727339
29	0x3dc8393e	0.09776543
30	0x3c1996e1	0.009374351
31	0xbc98d625	-0.0186568

encoder.cnn_model.2.conv.4.running_mean f4 [32]
0	0x3d75f320	0.060046315
1	0xbc285dbb	-0.010276253
2	0xbd2238e1	-0.039605025
3	0x3d866633	0.06562462
4	0xbd01bda0	-0.03167498
5	0xbbee9261	-0.0072806333
6	0xbc6908c4	-0.014223281
7	0xbd53a4d0	-0.05167085
8	0x3e297842	0.16549781
9	0xbdc5b8e6	-0.09654407
10	0x3cb7d71c	0.02244144
11	0xbe07dd2a	-0.13267961
12	0xbcb373f5	-0.021905879
13	0xbd6d2c27	-0.057903435
14	0xbdd4b6d7	-0.103864364
15	0x3d977900	0.07396126
16	0x3d889de8	0.06670743
17	0x3d55fff1	0.052246038
18	0xbd92aabf	-0.071614735
19	0xbc422b68	-0.011851169
20	0xbe28b52b	-0.1647536
21	0xbdc4c10b	-0.096071325
22	0x3dd2b24d	0.102879144
23	0xbd651a4a	-0.055933274
24	0xbe226424	-0.15858513
25	0x3d0e785d	0.034782756
26	0x3caddcee	0.021223512
27	0x3df87c97	0.121331386
28	0x3e0323a1	0.1280656
29	0xbe736eb5	-0.237727
30	0x3db41b41	0.08794261
31	0x3de183ea	0.11011489

encoder.cnn_model.2.conv.4.running_var f4 [32]
0	0x3f6dba71	0.9286261
1	0x3fe62f90	1.7983265
2	0x40223903	2.5347297
3	0x3f81143f	1.0084304
4	0x3f79cead	0.9758099
5	0x3f962544	1.1730123
6	0x4026905b	2.6025608
7	0x401dc9a0	2.4654312
8	0x3fa95bd2	1.3231146
9	0x3ff84010	1.939455
10	0x3face351	1.3506871
11	0x3ffc83aa	1.9727681
12	0x3f9b0a25	1.2112471
13	0x3fb8bcbb	1.4432596
14	0x3fee1bee	1.8602273
15	0x3f5aae59	0.85422283
16	0x3ff874c0	1.9410629
17	0x3f7caa05	0.9869693
18	0x3f037a7b	0.51358765
19	0x3f3896be	0.72105014
20	0x3f266bb7	0.6500811
21	0x3fcf864e	1.6212862
22	0x3f9d3cd9	1.2284194
23	0x3fe7e065	1.8115355
24	0x40426ca8	3.0378819
25	0x3f5ab5d8	0.8543372
26	0x3f87dbda	1.0613968
27	0x3fecead6	1.8509166
28	0x3f43af84	0.7643969
29	0x3fe54ba7	1.7913712
30	0x3f70b188	0.9402089
31	0x3f1c8b9d	0.6115053
