Data/Dim16_mnist/pneumonia_AE_CNN_01_t.pth (torch, 804438 bytes, 77 tensors)

encoder.cnn_model.0.conv.0.weight f4 [32, 1, 3, 3]
0	0xbe82d9b1	-0.2555671
1	0xbe7ea08c	-0.24865931
2	0xbe86d5cc	-0.2633499
3	0x3c20086b	0.009767632
4	0xbe6b3b8c	-0.22971934
5	0x3e37b5ec	0.17940491
6	0xbe21c4c1	-0.15797712
7	0xbe7391b3	-0.23786049
8	0xbc5491ad	-0.012974185
9	0x3eaf86fe	0.34282678
10	0xbe152c44	-0.14567667
11	0x3e624371	0.2209604
12	0xbe510e8b	-0.20415704
13	0xbe92895c	-0.28620422
14	0x3d22fa2e	0.03978937
15	0xbde351c8	-0.11099583
16	0x3e10d04c	0.14141959
17	0x3cd65a73	0.026166176
18	0xbe6d9491	-0.23201205
19	0xbe0caa8c	-0.13736933
20	0xbe81bd04	-0.2533952
21	0xbe5418db	-0.20712607
22	0x3e95f8e6	0.29291457
23	0xbd6733a7	-0.056445744
24	0xbe8ada09	-0.27119473
25	0xbd1b6ced	-0.037945677
26	0xbe39d273	-0.18146686
27	0xbd055a27	-0.03255668
28	0x3da9070c	0.08253297
29	0x3e2765f7	0.1634749
30	0x3d48efa5	0.049056668
31	0xbe1ebf97	-0.15502773
32	0xbcd11f8b	-0.025527736
33	0x3e4b8a4f	0.1987698
34	0xbc045f27	-0.008079327
35	0xbddd5ad6	-0.10808341
36	0xbd75e9c2	-0.060037382
37	0x3d94af7e	0.07260035
38	0x3e77eadb	0.24210684
39	0x3def57ad	0.11686645
40	0x3e052327	0.13001691
41	0x3eabb5a7	0.33537027
42	0xbe4473a9	-0.19184746
43	0x3e6efe20	0.23339128
44	0x3e9740eb	0.29541716
45	0x3dd1dab8	0.102467954
46	0x3e9c934b	0.30581126
47	0xbe9b0fff	-0.30285642
48	0xbe812945	-0.252268
49	0x3e7cfca4	0.2470575
50	0x3d8862b2	0.0665945
51	0xbe36039b	-0.17774813
52	0xbe7fc741	-0.24978353
53	0xbe3f17eb	-0.18661468
54	0xbd7d73a0	-0.061877847
55	0x3e864392	0.26223427
56	0x3d6470cf	0.055771645
57	0xbe554e51	-0.20830657
58	0x3c7e3359	0.015515172
59	0xbe5b4044	-0.21411234
60	0x3dd6d9f1	0.10490788
61	0x3ea7a395	0.3274199
62	0x3848398d	4.7737314e-05
63	0xbe197922	-0.14987615
64	0xbc984b00	-0.01859045
65	0x3defb9b3	0.11705341
66	0xbdea19b4	-0.11430684
67	0x3dd54f25	0.10415486
68	0xbd8fe857	-0.07026737
69	0x3e5f7d0f	0.2182505
70	0xbddfb353	-0.10922875
71	0x3ea66924	0.3250209
72	0xbe895990	-0.26826143
73	0xbdcc8cd5	-0.09987799
74	0xbe5716e6	-0.21004829
75	0x3e92db5f	0.28682992
76	0x3e98052a	0.2969144
77	0xbd1f695a	-0.03891883
78	0xbd8f06d9	-0.06983728
79	0xbe06771e	-0.13131377
80	0x3e8d8b76	0.27645463
81	0x3e768492	0.24074009
82	0x3d301638	0.04298994
83	0x3e0ca8b4	0.1373623
84	0x3d353d90	0.044248164
85	0x3e031e18	0.12804449
86	0x3e1356ab	0.1438853
87	0xbe622409	-0.22084059
88	0xbe132bd2	-0.14372185
89	0x3c5a042a	0.013306657
90	0x3dd7808a	0.10522564
91	0xbe82ecc8	-0.25571275
92	0xbe2b38d6	-0.167209
93	0xbe2e8064	-0.17041165
94	0xbc4006a2	-0.011720331
95	0xbe9b2623	-0.30302534
96	0x3e82b2af	0.2552695
97	0xbe29d93e	-0.16586778
98	0x3d55af04	0.05216886
99	0xbd3cbf86	-0.04608109
100	0x3df79416	0.12088792
101	0xbdd6f92f	-0.10496747
102	0x3d260704	0.040534034
103	0x3e838f79	0.25695398
104	0xbc800478	-0.01562713
105	0xbe8e6e66	-0.27818602
106	0xbe80246c	-0.25027788
107	0xbe9299f2	-0.28633076
108	0xbe76a279	-0.24085416
109	0x3ea5b5ac	0.32365167
110	0xbe8d12ae	-0.27553314
111	0x3e4c692f	0.19962
112	0xbe704443	-0.2346354
113	0xbec862cf	-0.39137885
114	0x3e1cd153	0.15314226
115	0xbdfcddf3	-0.12347021
116	0xbde642a4	-0.112431794
117	0x3e76b444	0.24092203
118	0xbdbe7b30	-0.0930084
119	0x3dcbc442	0.099495426
120	0xbea8c203	-0.3296052
121	0x3e916d7b	0.2840384
122	0x3e8d44c1	0.27591518
123	0x3cd6f705	0.026240835
124	0x3e1dc790	0.15408158
125	0xbda5300a	-0.08065803
126	0x3d9114e3	0.07084062
127	0x3e84482a	0.25836307
128	0xbe0e0a33	-0.13871078
129	0x3d4f96fa	0.05068109
130	0xbd3df9ad	-0.046380688
131	0x3dac94c1	0.0842681
132	0xbe72209f	-0.23645256
133	0xbd31ae71	-0.04337925
134	0x3e4fd9b9	0.20297898
135	0x3e573885	0.21017654
136	0xbdee465f	-0.11634516
137	0x3cfef4a1	0.031122508
138	0x3e66a7d4	0.22524959
139	0xbe4d389d	-0.20041128
140	0x3e25aca6	0.16179141
141	0xbd4d7f26	-0.050170086
142	0x3d97a6f3	0.0740489
143	0x3e8400ce	0.25781864
144	0x3df0fcb0	0.11766946
145	0x3e035d0b	0.12828462
146	0x3ea08ebe	0.31358904
147	0x3e6e054b	0.23244207
148	0xbe4f8dfe	-0.2026901
149	0x3dcdaf48	0.10043198
150	0xbe2aa821	-0.16665699
151	0xbe82f436	-0.25576943
152	0x3e3d35ba	0.18477526
153	0x3decb504	0.115579635
154	0xbdf6f5b3	-0.12058582
155	0x3ea25153	0.3170267
156	0xbd94e61f	-0.072704546
157	0xbe00a08b	-0.12561242
158	0x3e1807fb	0.14846794
159	0x3e49a3f3	0.19691448
160	0x3c1b0120	0.009460717
161	0x3e9c0c06	0.30477923
162	0xbe08d76a	-0.13363424
163	0x3e7ae3de	0.24500987
164	0xbe8c60cd	-0.27417603
165	0x3cf49cf7	0.029860003
166	0x3d984542	0.07435085
167	0xbea3bcc5	-0.31979957
168	0x3e73f10b	0.2382242
169	0xbe1553da	-0.14582768
170	0x3e5dd9bf	0.21665095
171	0xbe6e5f0c	-0.23278445
172	0xbe46840c	-0.1938631
173	0x3e1abbf2	0.15110758
174	0xbd591863	-0.053001773
175	0x3e3c30c3	0.18377976
176	0xbe16922c	-0.14704198
177	0xbd0fefd3	-0.035140824
178	0x3c8fd32f	0.017556755
179	0xbe8d72bb	-0.27626595
180	0xbe0c3d4a	-0.13695255
181	0xbe2965b2	-0.165427
182	0x3d9c5d5c	0.076349944
183	0x3eaada73	0.3336979
184	0xbe69a7bc	-0.22817892
185	0xbe8e869a	-0.27837068
186	0x3dd932b6	0.106053755
187	0x3e85df58	0.2614696
188	0x3e984d64	0.29746544
189	0x3e18c125	0.14917429
190	0xbe966062	-0.2937041
191	0x3c9db877	0.019252999
192	0x3e0bb3aa	0.13642755
193	0x3e252c9f	0.16130303
194	0xbe3bd4fe	-0.18342969
195	0x3e0f842d	0.14015265
196	0xbd3d801c	-0.046264753
197	0xbea4391b	-0.32074818
198	0xbdfaee10	-0.12252438
199	0xbc944f2a	-0.018104155
200	0xbe3c7774	-0.18404943
201	0x3d02d9c4	0.03194596
202	0x3dfc035d	0.12305329
203	0x3e94f4bf	0.29092976
204	0x3e98aaf0	0.29817915
205	0x3dcac465	0.099007405
206	0x3e11b2a6	0.14228305
207	0x3ea88806	0.32916278
208	0x3e9a5694	0.3014418
209	0x3c33a06d	0.010963541
210	0x3ea01e44	0.3127309
211	0x3d628ccc	0.055310056
212	0xbe6181b8	-0.2202214
213	0xbd4866ec	-0.04892628
214	0x3e84dd59	0.25950125
215	0x3d72dcff	0.05929279
216	0x3ce30f24	0.02771718
217	0xbe8b9b01	-0.27266696
218	0xbc1f8647	-0.009736604
219	0x3e8915ab	0.26774344
220	0x3d97ff77	0.07421773
221	0xbc3bf7fc	-0.011472698
222	0x3e43755f	0.19087742
223	0x3dc04839	0.093887754
224	0xbd833501	-0.06406594
225	0xbe756716	-0.23965105
226	0xbe148e75	-0.14507468
227	0x3ea976b5	0.3309838
228	0x3e5bd803	0.2146912
229	0x3e8bf7de	0.27337545
230	0xbd24ae12	-0.04020507
231	0xbcee7654	-0.029109158
232	0xbe03ebbe	-0.12882897
233	0x3e0d6612	0.13808468
234	0x3c5dbfbd	0.0135344835
235	0xbd624f12	-0.05525119
236	0xbd4a4316	-0.049380384
237	0x3e84a372	0.2590595
238	0xbe408e46	-0.18804273
239	0xbe0a4064	-0.13501126
240	0xbe9e5482	-0.3092385
241	0xbe04adc1	-0.12956907
242	0x3c926f49	0.01787533
243	0xbe450e62	-0.19243768
244	0x3e7c9f72	0.24670199
245	0xbdcb0896	-0.09913747
246	0x3c81e745	0.015857348
247	0xbe8c923a	-0.27455312
248	0x3e458462	0.19288781
249	0xbe99f5a6	-0.30070227
250	0x3defc010	0.11706555
251	0xbddaed80	-0.10689831
252	0x3e5a3857	0.21310554
253	0xbe3f264c	-0.18666953
254	0x3e465514	0.19368392
255	0xbdccfbed	-0.100089885

encoder.cnn_model.0.conv.0.bias f4 [32]
0	0x3e28ab2f	0.16471551
1	0x3cbcb43f	0.023035167
2	0x3d316a09	0.043314014
3	0x3e98a1df	0.29810998
4	0x3e01fb53	0.12693529
5	0x3e1dd071	0.15411545
6	0xbea309bb	-0.3184336
7	0xbe9fe6fc	-0.31230915
8	0xbe6a3075	-0.22870047
9	0x3ea23817	0.31683418
10	0xbe84c0cb	-0.2592834
11	0xbe87b8c6	-0.26508158
12	0xbd93b1f2	-0.07211675
13	0xbe3b367c	-0.18282503
14	0x3d08b0a9	0.0333716
15	0xbea61d07	-0.3244402
16	0x3e86420f	0.26222274
17	0xbd306d05	-0.04307272
18	0x3d690421	0.056888703
19	0xbe90d764	-0.2828933
20	0x3d2760e5	0.04086389
21	0xbe8269ba	-0.25471288
22	0xbdb72e75	-0.08944408
23	0x3e81cf09	0.25353268
24	0x3d4ae6f2	0.049536653
25	0xbe938db8	-0.2881906
26	0x3dd8b11c	0.10580656
27	0x3debec07	0.11519628
28	0x3dcfd06f	0.101471774
29	0xbd0a6be7	-0.03379431
30	0x3e453510	0.19258523
31	0x3ca50fdf	0.02014917

encoder.cnn_model.0.conv.1.weight f4 [32]
0	0x3f705bfb	0.9389035
1	0x3f64842b	0.8926417
2	0x3f89b6c5	1.0758902
3	0x3f83b502	1.0289614
4	0x3f7f15ad	0.9964245
5	0x3f7d55e2	0.9895917
6	0x3f80d387	1.0064553
7	0x3f7b0866	0.9805969
8	0x3f806a0c	1.0032363
9	0x3f75c45b	0.9600274
10	0x3f7c9ac3	0.9867365
11	0x3f8087cb	1.0041441
12	0x3f6cbb4d	0.924733
13	0x3f8318b5	1.0241915
14	0x3f781fab	0.9692332
15	0x3f8249c6	1.0178764
16	0x3f7af470	0.9802923
17	0x3f8020f1	1.0010053
18	0x3f770d94	0.96505094
19	0x3f83e445	1.0304037
20	0x3f76578c	0.96227336
21	0x3f771a2e	0.9652432
22	0x3f7dd1ea	0.9914843
23	0x3f83252f	1.0245723
24	0x3f6e0edc	0.92991424
25	0x3f7fc0d5	0.99903613
26	0x3f7525cc	0.957608
27	0x3f749631	0.95541674
28	0x3f7f3397	0.99688095
29	0x3f801ebd	1.000938
30	0x3f7d7c30	0.9901762
31	0x3f714370	0.94243526

encoder.cnn_model.0.conv.1.bias f4 [32]
0	0xb9d3429c	-0.00040294684
1	0xbc803428	-0.01564987
2	0xbca602fa	-0.020265091
3	0xbd4ae140	-0.04953122
4	0xbd405631	-0.0469572
5	0x3daedc2c	0.08538088
6	0xbb6d66ba	-0.003622456
7	0xbd48d908	-0.049035102
8	0xbcacf651	-0.021113547
9	0xbccc6ad2	-0.02495328
10	0xbd81bfdd	-0.06335423
11	0x3d1503b9	0.036380503
12	0x3cb2bc24	0.021818228
13	0x3c5f46d5	0.0136277275
14	0xbce22dce	-0.027609732
15	0xbc21d037	-0.009876302
16	0xbdc2bb68	-0.09508401
17	0xbd706b42	-0.05869604
18	0xbd4a9cea	-0.04946605
19	0xbb08ff36	-0.002090407
20	0xbd983024	-0.07431057
21	0xbcf4534d	-0.029824877
22	0xbd004e71	-0.031324808
23	0x3c35d8f1	0.011099086
24	0xba9ad969	-0.0011814061
25	0xbc17321b	-0.009228255
26	0x3b8104c1	0.0039373343
27	0x3d87b8ff	0.06627082
28	0x3caaffdb	0.020873955
29	0x3d0969b2	0.033548065
30	0x3c2182e7	0.00985787
31	0x3d74a649	0.059728894

encoder.cnn_model.0.conv.1.running_mean f4 [32]
0	0x3e36e8b9	0.17862214
1	0x3d0b07bf	0.033942934
2	0x3d31beb5	0.043394763
3	0x3e9a09b2	0.30085522
4	0x3de0181c	0.109420985
5	0x3e194494	0.14967567
6	0xbea4daf8	-0.3219831
7	0xbe9f7977	-0.31147358
8	0xbe7397c7	-0.23788367
9	0x3e9f32f3	0.3109356
10	0xbe7a4774	-0.2444132
11	0xbe8a3a3f	-0.26997563
12	0xbd8271f8	-0.06369394
13	0xbe455360	-0.19270086
14	0x3cefe2ac	0.02928289
15	0xbea65538	-0.32486892
16	0x3e874a34	0.264238
17	0xbd261499	-0.040546987
18	0x3d6ba2f8	0.057528466
19	0xbe902aa9	-0.28157547
20	0x3d37badc	0.044855937
21	0xbe81bd74	-0.25339854
22	0xbdcdcce6	-0.10048847
23	0x3e75c67e	0.240015
24	0x3d3a75d1	0.045522515
25	0xbe976817	-0.29571602
26	0x3de8934a	0.11356218
27	0x3ded62c1	0.115911014
28	0x3dd15324	0.10220936
29	0xbcc82ca6	-0.024435353
30	0x3e558709	0.20852293
31	0x3c74ed06	0.014949089

encoder.cnn_model.0.conv.1.running_var f4 [32]
0	0x3f87e6e9	1.0617343
1	0x3d7f41e6	0.062318705
2	0x3f2f76d3	0.68540686
3	0x3d2e67cd	0.04257946
4	0x3f915bbe	1.1356122
5	0x3e4fcfac	0.20294064
6	0x3de52300	0.11188316
7	0x3e0135d2	0.12618187
8	0x3d971e70	0.07378852
9	0x3e27a60a	0.16371933
10	0x3ed6dbc7	0.41964552
11	0x3e859688	0.2609141
12	0x3f033360	0.5125027
13	0x3e947f34	0.29003298
14	0x3d8766c0	0.06611395
15	0x3e5990e4	0.21246678
16	0x3e565db9	0.2093419
17	0x3ed01b39	0.4064577
18	0x3dbf9689	0.09354884
19	0x3e529f8a	0.20568672
20	0x3e0eebc3	0.13957123
21	0x3e5cf7ae	0.21578857
22	0x3eca49e1	0.3950949
23	0x3f67351b	0.9031541
24	0x3e14c220	0.14527178
25	0x3e31fe95	0.17382272
26	0x3e935c7a	0.28781492
27	0x3e147204	0.14496619
28	0x3e2df459	0.16987742
29	0x3e07b2bd	0.13251777
30	0x3f7f87e5	0.99816734
31	0x3e193991	0.14963366

encoder.cnn_model.0.conv.3.weight f4 [32, 32, 3, 3]
0	0x3d013e9a	0.031553842
1	0x3ce8982a	0.02839287
2	0x3c9e1dfb	0.019301405
3	0x3d0fd988	0.035119563
4	0x3c49d0c4	0.01231784
5	0x3d141452	0.03615219
6	0xbd720ebc	-0.059096083
7	0x3c9fddaf	0.019514887
8	0x3d1bb8eb	0.03801815
9	0x3ce9bf95	0.028533736
10	0xbd7ef3a6	-0.06224408
11	0x3bc9af47	0.006154928
12	0x3d1a159c	0.037618265
13	0x3d0026f3	0.031287145
14	0x3d5416bb	0.05177949
15	0x3b8e8e81	0.004350484
16	0x3bfb6925	0.0076724463
17	0x3d3324b5	0.04373618
18	0x3cf7f013	0.030265843
19	0xbcdfc9cc	-0.027317904
20	0x3b28dedb	0.0025767598
21	0xbd8fac2b	-0.0701526
22	0xbd1daf53	-0.03849728
23	0x3bd17486	0.0063920645
24	0xbce3a9aa	-0.027790863
25	0xbd248898	-0.04016933
26	0xbd6338a0	-0.055473924
27	0xbc41e190	-0.011833563
28	0x3db3c6db	0.08778163
29	0xbca0eaac	-0.01964315
30	0x3d179404	0.037006393
31	0x3d80126a	0.06253512
32	0xbd6f17db	-0.05837236
33	0xbd3d906b	-0.046280306
34	0xbcd0f3c9	-0.02550687
35	0x3cdeea24	0.027211256
36	0x3c87e6bb	0.016589513
37	0xbcc17f9b	-0.023620417
38	0x3d039937	0.03212854
39	0xbc808811	-0.015689882
40	0xbd3b29a0	-0.045693994
41	0x3c18dc33	0.009329843
42	0xbbe4438f	-0.0069660614
43	0xbd2ec125	-0.042664666
44	0x3c146274	0.009056676
45	0xbcb148db	-0.021641186
46	0x3d7a0d22	0.06104768
47	0x3d51c915	0.051217157
48	0xbd38b30c	-0.045092627
49	0xbd4cbfa2	-0.049987443
50	0xbb0f3ad7	-0.002185514
51	0x3c0bf63e	0.008542595
52	0xbb841e22	-0.0040319124
53	0xbd3999d1	-0.045312706
54	0x3d22d287	0.039751556
55	0x3c99bc7d	0.018766636
56	0xbd242fd7	-0.040084686
57	0xbbddd51b	-0.006769789
58	0xbab322c6	-0.001366698
59	0xbd2db71b	-0.04241095
60	0x3da18043	0.07885792
61	0xbc477c97	-0.012175701
62	0xbc52fe6a	-0.01287804
63	0xbca9cd92	-0.020727906
64	0xbd7c9298	-0.06166324
65	0xbc9ceb5c	-0.019155197
66	0xbd83bfe5	-0.06433085
67	0x3cf1004c	0.029419087
68	0x3d0da608	0.034582168
69	0x3c6350a7	0.0138742095
70	0x3ccb4d69	0.024817185
71	0x3dd4a199	0.10382385
72	0x3ce8b5a6	0.02840693
73	0xbd559f4d	-0.052153874
74	0xbd340322	-0.0439483
75	0x3c1e3641	0.00965649
76	0x3d1e71a0	0.03868258
77	0x3d6058ce	0.05477219
78	0x3cbd19e3	0.023083633
79	0x3d8dbaf3	0.06920423
80	0x3d22199d	0.039575208
81	0xbd604ab3	-0.05475874
82	0x3c85ea50	0.01634708
83	0x3b04daf3	0.0020272105
84	0xbc7a54f6	-0.015279045
85	0xbc96ea07	-0.01842214
86	0x3ca49ff0	0.020095795
87	0xbc7cdb5b	-0.015433158
88	0x3bf2b511	0.0074068387
89	0x3d63be82	0.055601604
90	0x3b9b4292	0.0047381604
91	0x3ce6ca3e	0.028172608
92	0xbca44220	-0.020051062
93	0xbd510d02	-0.051037796
94	0xba857128	-0.0010180818
95	0x3c64be4b	0.013961385
96	0xbd63245c	-0.055454597
97	0x3cd38cf0	0.02582404
98	0xbcdc7edd	-0.026915962
99	0x3b3c5338	0.0028736126
100	0xbc902961	-0.017597856
101	0x3dcd0750	0.100111604
102	0x3d44fa30	0.04809016
103	0xbce9195b	-0.028454473
104	0xbc66fefd	-0.01409888
105	0x3d807da7	0.06273966
106	0x3cde9222	0.02716929
107	0xbdaa7b04	-0.083242446
108	0xba0b6450	-0.0005317377
109	0xbc7397ad	-0.014867705
110	0xbbdcc05a	-0.0067367973
111	0x3c1d7fca	0.009612987
112	0x3db32bdc	0.087486
113	0x3c3a0e0c	0.011355888
114	0x3d745678	0.059652776
115	0x3d370a04	0.044687286
116	0x3c60a926	0.013712203
117	0x3d662224	0.056184903
118	0x3cd13f6d	0.02554294
119	0x3b281747	0.002564864
120	0x3d3587c3	0.044318926
121	0x3cc9d587	0.02463795
122	0x3b4ee2c3	0.0031568266
123	0x3d6687c1	0.05628181
124	0x3c30f18b	0.010799776
125	0xbc3ec864	-0.011644457
126	0xbd707bed	-0.058711935
127	0xbc0d5d24	-0.0086281635
128	0x3d0fb121	0.035081033
129	0xbce45ceb	-0.027876338
130	0x3d31eceb	0.043438833
131	0x3dfbc584	0.122935325
132	0xbcf8148a	-0.030283231
133	0xbd4fc8a1	-0.050728444
134	0xbc753471	-0.014966116
135	0x3c86bdb4	0.01644788
136	0xbd40a4b6	-0.04703208
137	0x3d5400e7	0.051758673
138	0x3d356e64	0.04429473
139	0x3d0a1cca	0.03371886
140	0x3c0aa4fe	0.008462189
141	0x3c372817	0.011178992
142	0xbb01b53d	-0.0019791864
143	0x3db02abe	0.086019024
144	0x3cb1c797	0.021701617
145	0x3b9e17b7	0.0048246044
146	0x3d17f261	0.037096385
147	0xbcab085f	-0.020878015
148	0xbca3849b	-0.019960692
149	0x3d870c55	0.06594149
150	0x3c5d9833	0.013525057
151	0x3d7d4190	0.061830103
152	0x39f747d2	0.00047165022
153	0xbc836304	-0.016038425
154	0xbbb6a24a	-0.0055735456
155	0xbcd5e8bf	-0.026111959
156	0xbd1afbd1	-0.037837807
157	0x3c366390	0.011132136
158	0x3d73b794	0.059501246
159	0xbbbcac65	-0.0057578557
160	0xbd24e493	-0.040257048
161	0x3c08ec6f	0.008357151
162	0xbd013ae0	-0.03155029
163	0xbc4bd000	-0.012439728
164	0xbd231389	-0.039813552
165	0xbd10898b	-0.03528742
166	0x3dae9099	0.085236736
167	0x3d3992be	0.04530596
168	0x3bb9adce	0.005666471
169	0x3d2dd352	0.04243786
170	0x3d19da17	0.037561502
171	0x3d4a6073	0.049408387
172	0xbd8d522a	-0.06900437
173	0xbd0ccc4b	-0.034374516
174	0xbc968390	-0.01837328
175	0x3be324b6	0.0069318665
176	0xbd6657c3	-0.05623604
177	0x3d2026cf	0.03909951
178	0xbd9cdf26	-0.0765975
179	0xbd4003d2	-0.046878643
180	0x3c5bc3d5	0.013413389
181	0xbc741a07	-0.0148987835
182	0xbd352fd0	-0.04423505
183	0xbd2f45fc	-0.04279135
184	0x3c16a86b	0.009195427
185	0xbcf35553	-0.029703772
186	0x3d0b6f1e	0.034041516
187	0x3c984270	0.018586367
188	0x3cf63852	0.030056152
189	0xbd1e3c1a	-0.038631536
190	0x3c849ef9	0.016189085
191	0x3ce415dd	0.027842456
192	0xbbcebbc7	-0.006309006
193	0x3d7c0a1e	0.061533086
194	0xbd9e5c57	-0.07732456
195	0xbc3d3fc9	-0.011550852
196	0x392135af	0.00015374155
197	0xbd11109b	-0.035416227
198	0xbb8ceccc	-0.0043006893
199	0xbca888ef	-0.020573108
200	0xbc20681c	-0.009790447
201	0xbd3dc5e0	-0.046331286
202	0x3d720153	0.059083294
203	0xbcd6eeae	-0.026236858
204	0x3c820ede	0.01587623
205	0xbc40973d	-0.011754808
206	0x3c814b7d	0.015783066
207	0xb9c305ae	-0.0003719753
208	0x3c77816b	0.015106539
209	0x3d86ce0d	0.0658227
210	0x3c7ff672	0.015622722
211	0x3da417ee	0.08012377
212	0xbca3b097	-0.019981666
213	0xbd00f051	-0.031479184
214	0xbd13ea3d	-0.03611206
215	0xbc7feec4	-0.015620891
216	0x3cdeac71	0.027181836
217	0xba0a67d3	-0.0005279753
218	0xbc484995	-0.012224575
219	0x3c623f61	0.013809056
220	0x3d5128c4	0.051064268
221	0xbc9699a9	-0.018383818
222	0x3c59e168	0.01329837
223	0x3bf9fc19	0.0076289293
224	0xbc8c5086	-0.01712824
225	0x3d4950b1	0.04914922
226	0xbd1ff574	-0.03905244
227	0xbc049f0f	-0.008094563
228	0x3d30fecd	0.043211747
229	0x3c79e04c	0.01525123
230	0x3d217183	0.039414894
231	0xbd4b6b35	-0.049662787
232	0xbc930769	-0.01794787
233	0x3d3c1e1f	0.045927163
234	0x3d137d16	0.036007963
235	0xbd9e7028	-0.07736236
236	0xbc6fd955	-0.014639218
237	0xbd204f84	-0.039138332
238	0x3c182963	0.009287211
239	0xbc726b24	-0.014796052
240	0xbd218627	-0.03943458
241	0x3c133a2d	0.008986038
242	0xbcaa99f5	-0.020825366
243	0xbcdb2e08	-0.026755348
244	0x3b026237	0.0019894966
245	0x3ce4f1c1	0.027947308
246	0x3d0e6733	0.034766387
247	0xbd8dc64d	-0.069225885
248	0x3c87c486	0.016573202
249	0x3d87eb96	0.06636731
250	0xbcae9826	-0.021312784
251	0xbcb31e17	-0.021864934
252	0xbbed342f	-0.007238887
253	0xbc38dc9e	-0.011283068
254	0xbc1e1add	-0.009649959
255	0x3cb56103	0.022140985

encoder.cnn_model.0.conv.3.bias f4 [32]
0	0xbca9d480	-0.02073121
1	0x3cccc3ee	0.02499577
2	0x3d304682	0.04303599
3	0xbce60e11	-0.02808288
4	0xbd616fe5	-0.05503835
5	0xbc4cf38f	-0.012509241
6	0xb91627dc	-0.00014319964
7	0x3c052dc2	0.008128585
8	0xbcb34da1	-0.021887602
9	0x3c917fbf	0.01776111
10	0x3c1b7a94	0.009489674
11	0xbc654c4d	-0.013995242
12	0xbd0c9313	-0.03431995
13	0x3cebf475	0.02880309
14	0xbca992a2	-0.020699803
15	0xbc1cd814	-0.009573001
16	0xbc390cef	-0.0112945875
17	0x3d3493a3	0.04408611
18	0xbd550b10	-0.052012503
19	0x3d40503a	0.04695151
20	0xbb911be9	-0.004428376
21	0xbd4a637a	-0.049411274
22	0x3d04bff0	0.03240961
23	0xbd51a230	-0.051180065
24	0x3d3278d0	0.043572247
25	0xbd449fc2	-0.04800392
26	0xbd3c0643	-0.04590441
27	0xbc54525f	-0.012959092
28	0xbd136a71	-0.035990182
29	0x3d070e7a	0.03297279
30	0xbc99bf9f	-0.01876813
31	0xbccb1529	-0.024790363

encoder.cnn_model.0.conv.4.weight f4 [32]
0	0x3f87b043	1.0600666
1	0x3f75a1b2	0.9594985
2	0x3f7a0261	0.9765988
3	0x3f86bfe5	1.0527312
4	0x3f71fbf3	0.9452507
5	0x3f795413	0.9739391
6	0x3f816c27	1.011113
7	0x3f8115ff	1.0084838
8	0x3f74b1bf	0.9558372
9	0x3f7f35e7	0.99691623
10	0x3f8d29de	1.1028402
11	0x3f73885e	0.95129955
12	0x3f6e9468	0.931952
13	0x3f8992fa	1.0747979
14	0x3f83017a	1.0234826
15	0x3f893a67	1.0720948
16	0x3f8384b3	1.0274872
17	0x3f7d4969	0.9894014
18	0x3f81f1de	1.0151937
19	0x3f80ca7c	1.0061793
20	0x3f699327	0.9124016
21	0x3f7986e7	0.9747147
22	0x3f78af79	0.9714275
23	0x3f72bfc3	0.94823855
24	0x3f8168ab	1.0110067
25	0x3f73809b	0.9511811
26	0x3f784ab9	0.9698902
27	0x3f857acc	1.04281
28	0x3f80146b	1.0006231
29	0x3f842fdd	1.0327107
30	0x3f81a495	1.0128351
31	0x3f837e97	1.0273007

encoder.cnn_model.0.conv.4.bias f4 [32]
0	0xbc12d725	-0.008962427
1	0x39e5029f	0.00043680237
2	0xbd249328	-0.0401794
3	0x3c95065c	0.018191509
4	0x3c89e0d4	0.01683084
5	0x3d4831d8	0.04887566
6	0x3c5f9264	0.013645742
7	0xbc88cfb0	-0.016700596
8	0xbc9776dc	-0.018489294
9	0x3d57060f	0.052496012
10	0x3cfa75df	0.030573783
11	0x3cc9bfaa	0.024627525
12	0x3d290638	0.041265696
13	0x3c929566	0.017893504
14	0xbcae7e5b	-0.021300485
15	0x3d030419	0.03198633
16	0x3b83cb18	0.0040220134
17	0x3c2e198d	0.010626209
18	0x3d138cef	0.036023077
19	0x3d361a18	0.04445848
20	0x3d6c7eb2	0.057738014
21	0x3d53ce53	0.051710438
22	0xbd5f389e	-0.054497354
23	0x3ced17d8	0.028942034
24	0xbb1698d1	-0.002297927
25	0xbd3de5af	-0.04636162
26	0x3c5fab90	0.0136517435
27	0x3ce80109	0.028320806
28	0xbd841764	-0.06449774
29	0x3c2ad9dd	0.010427919
30	0xbc042787	-0.008066065
31	0x3b2bf21d	0.002623684

encoder.cnn_model.0.conv.4.running_mean f4 [32]
0	0xbe6095a4	-0.21932083
1	0x3ebf2652	0.37333924
2	0x3e92787f	0.28607556
3	0xbeb06dfc	-0.3445891
4	0xbec61cb3	-0.3869377
5	0xbe2e1cae	-0.17003128
6	0xbe96a014	-0.29419005
7	0x3ec89428	0.39175534
8	0xbf02b2c8	-0.5105405
9	0xbe4e8921	-0.20169498
10	0x3ebfd5d7	0.37467834
11	0x3eac5265	0.33656612
12	0xbd2990d0	-0.04139787
13	0xbe67da3f	-0.22641848
14	0xbf24bfe4	-0.643553
15	0xbebd3261	-0.369525
16	0x3e642b7f	0.22282217
17	0xbe532b05	-0.2062188
18	0x3e7f6892	0.24942234
19	0x3e90c28d	0.2827343
20	0x3f0ea9ed	0.55728036
21	0x3ca25a09	0.019818323
22	0x3e714ce1	0.23564483
23	0xbebec65b	-0.37260708
24	0xbf044d4d	-0.5168045
25	0x3e4f6a9b	0.2025551
26	0x3eabe8c8	0.33576035
27	0x3e599faf	0.2125232
28	0x3df52826	0.11970548
29	0xbea717af	-0.32635257
30	0xbe4e8cd2	-0.20170906
31	0xbea2141a	-0.3165596

encoder.cnn_model.0.conv.4.running_var f4 [32]
0	0x3eb8490a	0.35993224
1	0x3f8dd744	1.1081319
2	0x3f445ba5	0.7670234
3	0x3f6677b8	0.90026426
4	0x3f50f26a	0.81619895
5	0x3f04ffcb	0.5195281
6	0x3f1fd5a4	0.62435365
7	0x3f36b694	0.7137234
8	0x3fd0ef78	1.632308
9	0x3f18f520	0.5974903
10	0x3fb73b47	1.4314965
11	0x3f93f9b1	1.1560575
12	0x3eda740f	0.4266667
13	0x3ef32a05	0.47492996
14	0x400c152c	2.1887922
15	0x3f3cce7b	0.73752564
16	0x3f518234	0.818393
17	0x3ee90828	0.45514035
18	0x3f415777	0.75524086
19	0x3f26d114	0.6516278
20	0x401a22fc	2.4083853
21	0x3f08493d	0.5323675
22	0x3f5c5570	0.8606787
23	0x3f7ac3a2	0.9795476
24	0x3fd9c566	1.7013366
25	0x3f556947	0.83363765
26	0x3f9a0142	1.2031634
27	0x3f520985	0.82045776
28	0x3f0fc50c	0.56160045
29	0x3f4ff735	0.81236583
30	0x3eaaca07	0.3335726
31	0x3f0c2c2e	0.5475491

encoder.cnn_model.2.conv.0.weight f4 [32, 32, 3, 3]
0	0xbd104de7	-0.035230543
1	0x3d4bc352	0.04974682
2	0xbcdb790d	-0.02679112
3	0xbc9744cb	-0.01846542
4	0x3d246e4b	0.040144246
5	0xbd02d4a1	-0.03194106
6	0xbcbb9c90	-0.022901803
7	0xbcd07330	-0.02544555
8	0xbd72903c	-0.059219584
9	0xbd8d9857	-0.06913822
10	0xbd6de5c6	-0.058080457
11	0xbdbd95f4	-0.09257117
12	0xbcdb74c6	-0.02678908
13	0xbc883b73	-0.01662991
14	0xbb240875	-0.0025029455
15	0xbcd0b32f	-0.025476066
16	0xbc265073	-0.0101510165
17	0x3b336dad	0.0027378604
18	0xbd6d656d	-0.057958055
19	0x3cc150e1	0.023598136
20	0xbd7a7176	-0.06114336
21	0x3b836377	0.00400966
22	0xbb6a1d2b	-0.0035722952
23	0xbdc1e65d	-0.094677664
24	0x3d77cde0	0.060499072
25	0x3d6d63e0	0.057956576
26	0xbddcc6b4	-0.10780087
27	0x3cebb577	0.028773053
28	0xbd536bb2	-0.051616378
29	0xbc1b8bf1	-0.009493814
30	0xbd5f7f78	-0.054564923
31	0x3d6c63af	0.057712253
32	0x3d2e5982	0.04256583
33	0x3cd4e80a	0.025989551
34	0xbce01e5b	-0.027358225
35	0x3d3755e8	0.04475966
36	0x3d8d1a3a	0.06889768
37	0xbd194930	-0.037423313
38	0x3c226f3a	0.009914214
39	0xbd5d2aa9	-0.053995762
40	0xb9f346f8	-0.00046401448
41	0xbb096bb1	-0.002096873
42	0x3c2c4e27	0.01051668
43	0xbd172743	-0.036902677
44	0x3c1f7eb2	0.009734796
45	0x3a19d65c	0.0005868429
46	0x3d68b729	0.0568153
47	0x3d9456f7	0.0724315
48	0x3d2c39f8	0.04204747
49	0x3c9ac2da	0.01889174
50	0x3c9df988	0.019284025
51	0x3c772ae9	0.015085914
52	0xbcc832c0	-0.024438262
53	0xbc55f081	-0.013057829
54	0x3d01a0fb	0.031647664
55	0x3c10162d	0.00879435
56	0x3d53f538	0.05174753
57	0xbd4cbafb	-0.049983006
58	0xbd13e50a	-0.0361071
59	0x3d8f9710	0.07011235
60	0xbd80fa04	-0.06297687
61	0xbc4025e0	-0.01172778
62	0xbb84743e	-0.0040421775
63	0xbd2e5b03	-0.042567264
64	0xbdb1dc3b	-0.08684584
65	0x3c38333a	0.011242682
66	0x3b2c94c4	0.0026333788
67	0xbcd97a83	-0.026547676
68	0xbda858f3	-0.08220091
69	0xbd43ba66	-0.047785185
70	0xbd6f93d0	-0.058490574
71	0xbd3913c3	-0.045184862
72	0xbd096a57	-0.03354868
73	0x3b6674c6	0.0035164817
74	0x3c8f600f	0.017501859
75	0x3ba32319	0.004978549
76	0x3d0e30e9	0.034714613
77	0xbc995ed3	-0.018721974
78	0xbcb2ea5a	-0.021840263
79	0xbb439804	-0.0029845247
80	0xbd471447	-0.048603322
81	0xbd86f381	-0.065894134
82	0x3cd66aa6	0.0261739
83	0xbd8578f1	-0.06517208
84	0xbc23e1fb	-0.010002608
85	0xbc8cd257	-0.017190142
86	0xbc49d123	-0.0123179285
87	0xbd27cf8e	-0.040969424
88	0xbbaf2c7a	-0.005345878
89	0xbb50f0ee	-0.0031881887
90	0x3d5c8bbb	0.053844195
91	0xbadd8664	-0.0016901013
92	0xbcb2eea6	-0.021842312
93	0xbbc62c59	-0.006047767
94	0xbd604d8f	-0.054761466
95	0xbd2e1cde	-0.042508
96	0x3d564e7d	0.052320946
97	0x3ba3caa0	0.00499852
98	0x3b18a939	0.0023294224
99	0xbdb8b7f8	-0.09019464
100	0xbd61856d	-0.055058885
101	0xbd7fd78d	-0.062461425
102	0x3cca713e	0.024712201
103	0x3d38236c	0.044955656
104	0x3cc47036	0.023979288
105	0xbd81e86e	-0.063431606
106	0xbd51501e	-0.051101796
107	0xbcf57f52	-0.029967938
108	0xbc91105b	-0.017707994
109	0xbd30e113	-0.043183398
110	0xbc8c452b	-0.017122826
111	0x3b4780d1	0.003044177
112	0x3cd27ad8	0.025693342
113	0x3cff01e3	0.03112883
114	0x3db22b7d	0.08699701
115	0xbd512578	-0.051061124
116	0x3bd744b4	0.0065694693
117	0x3d0f92df	0.035052177
118	0x3c93b5f1	0.018031092
119	0x3d591ca5	0.053005833
120	0xbd9723dd	-0.07379887
121	0xbd0dbfb8	-0.034606665
122	0x3d847963	0.06468465
123	0xbd92196f	-0.07133757
124	0x3ce7d8a0	0.028301537
125	0xbd543f31	-0.051818077
126	0x3d0809de	0.033212535
127	0x3d2477e8	0.040153414
128	0x3d404578	0.04694125
129	0x3c76e757	0.015069804
130	0xbc4e82d2	-0.012604432
131	0xbcb923fb	-0.022600165
132	0xbc2b6b2d	-0.010462564
133	0x3d4b983b	0.049705725
134	0x3ca98054	0.020691074
135	0xbd716e7c	-0.058943257
136	0x3c3aacfd	0.011393783
137	0x3d2487ee	0.040168695
138	0xbd6b89e4	-0.05750455
139	0x3c896e13	0.01677612
140	0x3d2e0b9a	0.042491533
141	0xbc2556cc	-0.010091495
142	0x3ce399c7	0.027783288
143	0xbce6e559	-0.028185533
144	0xbc1f12ee	-0.009709103
145	0xbc2a856d	-0.010407788
146	0x3d56d4d8	0.052449077
147	0x3bc263a8	0.00593229
148	0x3cedfb99	0.029050635
149	0x3af9e8f5	0.0019066619
150	0xbd1c19e2	-0.03811062
151	0xbd5b414f	-0.05352908
152	0xbd3f394e	-0.04668551
153	0x3d341ace	0.043970875
154	0x3d572050	0.05252105
155	0xbd0dfb92	-0.034663744
156	0x3c93a195	0.018021384
157	0xbd26c3a6	-0.04071393
158	0xbd575982	-0.052575596
159	0x3c3d11a7	0.011539853
160	0x3cd08e8c	0.025458597
161	0x3c510a35	0.012758781
162	0x3cd7a6b0	0.0263246
163	0xbc2f0d61	-0.010684342
164	0xbcf1cff4	-0.029518105
165	0x3cab6389	0.020921485
166	0xbb88b1b2	-0.0041715736
167	0x3d33a21c	0.04385577
168	0xbcf599e7	-0.029980613
169	0x3d10072e	0.035163097
170	0xbd6a3ce6	-0.057186984
171	0xbc85b274	-0.016320445
172	0xbb38a43c	-0.0028174063
173	0x3d438e57	0.047743168
174	0x3c2e655b	0.010644282
175	0xbc7b2462	-0.015328499
176	0x3bc04450	0.0058675185
177	0xbd92cdc8	-0.07168156
178	0x3bf6fc18	0.007537376
179	0x3d4f5c59	0.05062518
180	0x3c951561	0.01819867
181	0xbd9f2067	-0.07769852
182	0xbcf0d08c	-0.029396318
183	0x3cc109fe	0.023564335
184	0xbc952e07	-0.018210424
185	0xbd3f6c27	-0.046734
186	0xbca5f6fa	-0.02025937
187	0x3b6d4981	0.0036207142
188	0xbc82ebbe	-0.015981551
189	0xbc886e33	-0.01665411
190	0xbd0f7c33	-0.035030555
191	0xbd6359b6	-0.055505477
192	0xbcac9a87	-0.021069778
193	0x3d1a8079	0.037720177
194	0xbdd8fef3	-0.10595503
195	0x3d80c070	0.062867045
196	0xbd2fb248	-0.04289463
197	0x3d26de21	0.040739182
198	0x3c7d3055	0.015453418
199	0xbd2d2cfc	-0.04227923
200	0xbc065c89	-0.008200773
201	0xbd0335e3	-0.032033812
202	0xbd466d31	-0.048443977
203	0x3d8fc346	0.07019667
204	0xbcc28fa8	-0.023750141
205	0xbca56b96	-0.020192903
206	0xbd29e2d9	-0.041476104
207	0xbc54c33a	-0.012985999
208	0xbd0a91b2	-0.033830352
209	0xbba7461d	-0.0051047937
210	0x3ce18581	0.02752948
211	0x3d84f401	0.064918526
212	0xba967bcc	-0.0011480986
213	0xbd009e30	-0.03140086
214	0xbcd4ac72	-0.025961135
215	0xbd2f4a7b	-0.04279564
216	0x3d3cd6d6	0.04610332
217	0x3c09a842	0.008401932
218	0xbd12bb98	-0.035823435
219	0x3cc04318	0.023469493
220	0x3d1bd162	0.03804148
221	0xbcd1bb20	-0.025601923
222	0xbd602191	-0.05471951
223	0xbb429f9d	-0.0029697188
224	0xbd4092d3	-0.047015022
225	0xbd7204c1	-0.059086565
226	0x3d352dcf	0.04423314
227	0xbd414f04	-0.047194496
228	0xbdcac84d	-0.099014856
229	0xbd877644	-0.06614354
230	0xbcaf5677	-0.021403534
231	0xbd6a904b	-0.057266515
232	0x3d230b7d	0.039805878
233	0xbd0b7cbb	-0.0340545
234	0xbda0bf3c	-0.07848975
235	0xbd85a86c	-0.065262645
236	0xbd1ddd0b	-0.03854088
237	0xbd4e95ef	-0.050435957
238	0x3d563aa1	0.052302007
239	0x3d14a249	0.03628758
240	0x3ba6191a	0.0050689103
241	0x3d0d675e	0.034522407
242	0xbd164860	-0.036690116
243	0xbce49fd4	-0.027908243
244	0x3d23f972	0.04003281
245	0xbd9ed83a	-0.07756086
246	0x3d06bbb5	0.032893855
247	0x3c9b4f18	0.018958613
248	0xbd865fe0	-0.065612555
249	0x3d195370	0.037433088
250	0xbc26716a	-0.010158876
251	0xbd9547a0	-0.07289052
252	0xbde5f9a1	-0.112292536
253	0xba982aef	-0.0011609475
254	0xbb930966	-0.0044872044
255	0xbd9dd22b	-0.07706102

encoder.cnn_model.2.conv.0.bias f4 [32]
0	0xbd63d164	-0.055619612
1	0x3c0505db	0.008119072
2	0x3d4c7f5e	0.049926154
3	0xbd54cd61	-0.051953677
4	0xbb1214a5	-0.0022290137
5	0xbd10f39d	-0.035388578
6	0x3bf12681	0.0073593264
7	0x3d1b3610	0.037893355
8	0x3c415843	0.011800828
9	0x3c1a89db	0.009432281
10	0x3c5eea39	0.013605648
11	0x3b8826aa	0.0041549997
12	0xbd2bc9fb	-0.04194067
13	0xbc9f0681	-0.019412281
14	0x3d34d747	0.044150617
15	0x3c93d5c3	0.018046265
16	0x3d69508a	0.056961574
17	0x3d1928cf	0.037392434
18	0xbcdfc3fe	-0.027315136
19	0xbd38f600	-0.04515648
20	0x3d46c722	0.04852975
21	0x3c1cf908	0.009580858
22	0x3d41c937	0.047311034
23	0x3d6dee1e	0.058088414
24	0x3cedd03a	0.029029954
25	0x3c73dd83	0.0148843555
26	0xbd048129	-0.03234974
27	0x3d1d52c4	0.03840901
28	0xbc832fd6	-0.01601402
29	0x3cb6072a	0.022220213
30	0x3ae3281d	0.001733068
31	0xbd2f2390	-0.042758524

encoder.cnn_model.2.conv.1.weight f4 [32]
0	0x3f79410d	0.97364885
1	0x3f857bf6	1.0428455
2	0x3f7f33fb	0.9968869
3	0x3f82139f	1.0162238
4	0x3f7f4524	0.99714875
5	0x3f8ca99f	1.0989264
6	0x3f82cdc5	1.0219046
7	0x3f7c15b6	0.9847063
8	0x3f7d30a5	0.9890235
9	0x3f7f50dd	0.9973276
10	0x3f74d671	0.9563971
11	0x3f897ff9	1.0742179
12	0x3f8b4c4c	1.0882659
13	0x3f836175	1.0264117
14	0x3f801e74	1.0009294
15	0x3f7c0865	0.9845031
16	0x3f854a5c	1.0413318
17	0x3f842ee3	1.0326809
18	0x3f7df0ce	0.99195564
19	0x3f80b3f6	1.005492
20	0x3f7cfd46	0.98823965
21	0x3f8085a6	1.0040786
22	0x3f839506	1.0279853
23	0x3f7a6557	0.9781088
24	0x3f81c289	1.0137492
25	0x3f8653ce	1.0494325
26	0x3f825718	1.0182829
27	0x3f7e8c03	0.9943239
28	0x3f869f47	1.0517358
29	0x3f859056	1.0434673
30	0x3f79e06d	0.9760807
31	0x3f80c565	1.006024

encoder.cnn_model.2.conv.1.bias f4 [32]
0	0x3b8249c3	0.0039760782
1	0x3ca3fed6	0.020018976
2	0xbd08a328	-0.033358723
3	0xbcd814ab	-0.026377043
4	0x3c61b442	0.013775887
5	0xbe018386	-0.12647828
6	0x3d68c41c	0.05682765
7	0xbc196d4b	-0.009364436
8	0x3b9072da	0.0044082226
9	0x3d8df578	0.06931585
10	0x3d954be4	0.072898656
11	0x3d6398c2	0.055565603
12	0xbd5eb058	-0.054367393
13	0xbd1b9401	-0.037982944
14	0x3d51fed8	0.05126843
15	0xbd094798	-0.033515543
16	0xbd5242f2	-0.051333375
17	0x3c3f4cb5	0.011676003
18	0x3cd52e7e	0.026023146
19	0x3d443f52	0.04791195
20	0x3d8295ec	0.063762516
21	0x3c997e56	0.018737
22	0x3e008e3c	0.12554258
23	0x3b9e1aab	0.0048249564
24	0x3b9c82b3	0.0047763227
25	0x3d7f25b6	0.062291823
26	0xbca7be2e	-0.020476427
27	0xbb95eb53	-0.004575172
28	0x3e420d62	0.18950418
29	0x3e1ab326	0.15107402
30	0xbd10f48c	-0.035389468
31	0x3cf2915b	0.029610327

encoder.cnn_model.2.conv.1.running_mean f4 [32]
0	0xbf19174d	-0.5980118
1	0x3c964030	0.018341154
2	0x3e3fb983	0.18723111
3	0xbe6331ef	-0.22187017
4	0xbf097b94	-0.5370419
5	0xbe9e88c3	-0.30963716
6	0xbef507cb	-0.47857508
7	0x3da889b8	0.08229393
8	0x3e9efe0a	0.3105319
9	0x3ebe03b1	0.3711219
10	0xbe67aa81	-0.22623636
11	0xbf3bf708	-0.73423815
12	0xbe8156f5	-0.25261655
13	0xbd810a61	-0.06300808
14	0x3e8d1f79	0.27563074
15	0xbe0e5dfa	-0.13903037
16	0xbe8bd802	-0.27313238
17	0x3e9da35d	0.307887
18	0xbea4a2c9	-0.32155445
19	0x3d06a0e5	0.032868285
20	0xbe27a1ef	-0.16370367
21	0xbf1ab640	-0.6043434
22	0x3e8f6074	0.28003275
23	0x3f15f350	0.5857439
24	0x3edb528e	0.42836422
25	0xbde5e571	-0.11225403
26	0x3e82ce8a	0.25548202
27	0xbe054338	-0.13013923
28	0x3ec938e5	0.3930122
29	0x3e2c0c61	0.16801597
30	0xbe48fb8d	-0.19627209
31	0x3e9fe136	0.3122651

encoder.cnn_model.2.conv.1.running_var f4 [32]
0	0x3eff540d	0.49868813
1	0x3f83d993	1.0300773
2	0x3f3e0a17	0.74234146
3	0x3f9ea3ed	1.2393776
4	0x3f0f5e83	0.5600359
5	0x3f827af1	1.0193769
6	0x3efe5dc8	0.49680924
7	0x3f2e24bc	0.680248
8	0x3fc744a4	1.5567822
9	0x3f4ad0e5	0.79225
10	0x3f875c4f	1.0575045
11	0x3eff3a09	0.49848965
12	0x3f4ad8e6	0.7923721
13	0x3f574d56	0.8410238
14	0x3f1a4259	0.6025749
15	0x3f123c78	0.5712352
16	0x3f182a37	0.59439415
17	0x3efabc19	0.48971632
18	0x3f59cfaa	0.85082495
19	0x3f447a56	0.7674917
20	0x3f8a956c	1.082685
21	0x3ed5b520	0.4173975
22	0x3f978c1f	1.1839637
23	0x3f2b5d5a	0.6693932
24	0x3f040f42	0.5158578
25	0x3f39fe3e	0.7265357
26	0x3f0db771	0.55358034
27	0x3ee31294	0.4435011
28	0x3f1a285b	0.6021783
29	0x3f14cbca	0.5812346
30	0x3f3b4c18	0.73162985
31	0x3f897023	1.0737346

encoder.cnn_model.2.conv.3.weight f4 [32, 32, 3, 3]
0	0x3cc81990	0.024426252
1	0x3d025163	0.031815898
2	0xbc05327e	-0.008129714
3	0xbc96c6d1	-0.01840535
4	0x3c2d6f9f	0.010585695
5	0xbd82c290	-0.06384766
6	0xbd00fc25	-0.031490464
7	0xbcdfbd57	-0.027311964
8	0x3d0aaa7f	0.033854004
9	0x3c4623d5	0.012093504
10	0x3cb59941	0.022167804
11	0x3c3f6547	0.011681861
12	0xbd435ba5	-0.04769482
13	0x3aa1d1af	0.0012345816
14	0x3b0b9208	0.0021296758
15	0xbd896e25	-0.067104615
16	0xbc9cd2d7	-0.019143505
17	0x3cb34585	0.021883735
18	0x3c45145d	0.012028781
19	0x3c75addd	0.0149950655
20	0xbd0fc377	-0.03509852
21	0xbda67fe7	-0.08129864
22	0xbd076ee5	-0.03306474
23	0x3c4b3782	0.012403371
24	0xbd1a9dcd	-0.037748147
25	0xbc14acaa	-0.009074369
26	0x3cf42148	0.029801026
27	0xbd99d4f1	-0.075113185
28	0xbdae30a0	-0.08505368
29	0x3b8c1e91	0.0042761047
30	0xbd819267	-0.06326752
31	0xbd5c4e94	-0.053785875
32	0x3ca82781	0.02052665
33	0xbb8d6855	-0.004315416
34	0x3d026f80	0.031844616
35	0x3c04b527	0.008099831
36	0x3c86758f	0.016413478
37	0x3d5aed4c	0.05344896
38	0xbc7ac4ef	-0.015305742
39	0xbca9ddf9	-0.020735728
40	0xbd16412b	-0.036683243
41	0x3b05d94a	0.0020423704
42	0xbcb9fd11	-0.02270368
43	0xbd1a3c95	-0.03765543
44	0x3d85265b	0.06501456
45	0xbdc2ad2b	-0.095056854
46	0xbd69cede	-0.05708205
47	0xbc5943a6	-0.013260758
48	0x3c12d6fa	0.008962387
49	0x3cef9be6	0.029249143
50	0x3cf6e6da	0.030139375
51	0xbd0d2809	-0.03446201
52	0x3d3c11ae	0.0459153
53	0xbd898874	-0.067154795
54	0x3d0804f0	0.033207834
55	0x3d892e6c	0.066983074
56	0x3c95e38c	0.01829698
57	0x3b348db3	0.002755028
58	0xbba70156	-0.005096595
59	0xbbf636b3	-0.007513845
60	0x3babc217	0.005241643
61	0xbd1223e3	-0.035678755
62	0xbd03acf1	-0.03214735
63	0xbcf04a9c	-0.029332452
64	0xbd604f66	-0.05476322
65	0xbcf08e58	-0.02936475
66	0xbd0b4a43	-0.03400637
67	0xbd89e2a4	-0.067326814
68	0x3c9f20a4	0.019424744
69	0x3ca18b75	0.019719819
70	0x3af2cf49	0.001852491
71	0xbd2d129b	-0.04225407
72	0xbdf76877	-0.12080472
73	0xbdb0ae91	-0.08627046
74	0xbc57be5b	-0.013167943
75	0xbd8cb2de	-0.06870054
76	0xbd792763	-0.060828578
77	0xbd182e32	-0.03715343
78	0xbd0ca7f5	-0.034339864
79	0x3bd0f78b	0.0063771657
80	0xbd20795b	-0.039178234
81	0x3cb1b1d2	0.021691237
82	0x3b9f065b	0.0048530526
83	0x3d30012b	0.042969864
84	0x3c534dca	0.012896964
85	0x3d2ba429	0.041904602
86	0xbc96a720	-0.018390238
87	0x3d0b5310	0.03401476
88	0x3c816919	0.015797185
89	0x3cab9e3c	0.020949475
90	0xbc4832d1	-0.012219147
91	0xb9d03621	-0.0003971318
92	0x3d213166	0.03935375
93	0x39b446ba	0.0003438497
94	0x3cdee761	0.02720994
95	0x3d6101a9	0.054933224
96	0xbbf05d48	-0.0073353387
97	0x3d4b3e67	0.04962006
98	0x3c0dd0f0	0.008655772
99	0xbd932862	-0.07185437
100	0xbd1e8b38	-0.038706988
101	0xbd1a28be	-0.03763651
102	0xbd370eaf	-0.044691738
103	0xbb9ccd28	-0.0047851987
104	0x3cacc927	0.02109201
105	0x3d57abba	0.052654006
106	0x3c55a0a0	0.013038784
107	0xbd823766	-0.06358223
108	0x3dab697b	0.08369728
109	0xbd4f9776	-0.050681554
110	0xbd00f379	-0.031482194
111	0x3cff9ee7	0.0312037
112	0xbd9a9e52	-0.075497285
113	0x3c29bb4c	0.010359596
114	0xbd0632b0	-0.032763183
115	0xbcac9a71	-0.021069737
116	0xbcc1935c	-0.023629837
117	0xbd903e2f	-0.070431106
118	0x3ccda668	0.025103763
119	0xbc495270	-0.012287721
120	0xbba96c92	-0.0051704133
121	0x3c1c13c1	0.009526194
122	0x3c81723d	0.015801543
123	0xbcedfbc3	-0.029050713
124	0xbc60a956	-0.013712248
125	0xbc77a17b	-0.015114184
126	0xbd5fbbdb	-0.054622512
127	0x3d4daca8	0.050213486
128	0x3cdc8ce7	0.026922656
129	0xbd63a4c5	-0.05557706
130	0xbb9e8fff	-0.004838943
131	0xbd65adbb	-0.056073885
132	0xbd47e464	-0.048801795
133	0x3c9d1c4f	0.019178538
134	0xbce2fcaf	-0.02770838
135	0x3d41b29a	0.04728947
136	0xbc8ffeeb	-0.017577609
137	0x3d4b73df	0.04967105
138	0xbc9a98f2	-0.018871758
139	0xbd6dfb20	-0.05810082
140	0x3cdf16c0	0.027232528
141	0xbd2ad882	-0.041710384
142	0xbd10df47	-0.035369184
143	0xbcd3c415	-0.025850335
144	0xbd01dfef	-0.0317077
145	0xbc5e68da	-0.013574803
146	0x3d44c42a	0.04803864
147	0x3d08c4cc	0.033390805
148	0x3c8903d1	0.016725453
149	0xbc073f06	-0.008254772
150	0x3c4842ad	0.012222928
151	0xbd781ace	-0.060572438
152	0x3b07f632	0.002074611
153	0x3c032025	0.008003269
154	0x3d9a67f4	0.07539359
155	0xbd3ae663	-0.04562987
156	0x3d74e0ea	0.059784807
157	0x3d94b22b	0.07260545
158	0x3d20f5ce	0.039296918
159	0x3d4d0813	0.05005653
160	0x3cfc760e	0.030818012
161	0x3ca37c76	0.019956809
162	0x3d0d9c8a	0.034573115
163	0xbcee8d81	-0.029120209
164	0x3d5a0ebc	0.053236708
165	0x3d98cf1c	0.07461378
166	0xbd03624d	-0.03207617
167	0x3d027f3c	0.03185962
168	0x3cc3b7c2	0.023891333
169	0xbcb37839	-0.021907913
170	0x3d05f9b4	0.03270884
171	0xbd0c6c02	-0.03428269
172	0x3cda709a	0.02666502
173	0x3d23802e	0.039917164
174	0xbafc93bf	-0.0019270106
175	0x3cc7541b	0.024332097
176	0x3d8495fb	0.06473919
177	0x3d945897	0.0724346
178	0x3d43c1ff	0.04779243
179	0x3d83edf7	0.064418726
180	0x3d8c620d	0.06854639
181	0xbd3612c5	-0.044451494
182	0xbd0b62fc	-0.034029946
183	0x3cfe3d62	0.031035129
184	0xbcd0a190	-0.025467664
185	0x3c82feaf	0.015990583
186	0xbd06bd09	-0.03289512
187	0xbd77fcc4	-0.06054379
188	0x3d09b4a9	0.033619557
189	0xbd4de473	-0.050266694
190	0x3c857db1	0.016295286
191	0x3cafc7c3	0.021457558
192	0x3cd9683a	0.026538957
193	0x3c46be52	0.012130337
194	0x3cbf9a8c	0.023389123
195	0x3d4f94f7	0.050679173
196	0xbd046198	-0.032319635
197	0xbc838811	-0.016056092
198	0x3b71d674	0.0036901506
199	0x3d2ee601	0.042699818
200	0x3d094a3b	0.033518057
201	0x3bedbb2f	0.00725498
202	0xbd675414	-0.056476668
203	0x3d3b4edc	0.045729503
204	0x3be0b9a3	0.006858067
205	0xbc5b3aaf	-0.0133806905
206	0x3cb37e8d	0.02191093
207	0x3cd2fb02	0.025754455
208	0x3c7426ea	0.014901856
209	0x3d39195c	0.0451902
210	0x3b866a64	0.004102038
211	0xbc1b5a3c	-0.009481963
212	0x3c8bed21	0.017080845
213	0xbc07c2b7	-0.00828617
214	0xbce67e29	-0.02813633
215	0x3d07bb86	0.03313782
216	0xbd0e9657	-0.034811344
217	0xbb6513c2	-0.0034954404
218	0x3cba8858	0.022770092
219	0x3c14c66d	0.0090805115
220	0xbc98490b	-0.018589517
221	0xbcc979f1	-0.024594279
222	0x3b7fe62e	0.003904711
223	0x3ca6e180	0.020371199
224	0x3c885743	0.016643172
225	0xbd037550	-0.0320943
226	0xbd5d0dc8	-0.05396822
227	0x3c71cc4a	0.014758179
228	0x3c80040f	0.015626935
229	0xbca81e43	-0.020522242
230	0x3c7aa649	0.0152984345
231	0x3d6ab268	0.057299048
232	0xbc49c4e0	-0.012315005
233	0x3d758e04	0.05994989
234	0xbcdbb2a1	-0.026818575
235	0xbd8cb75f	-0.06870913
236	0x3d25ac64	0.040447608
237	0x3b2858c9	0.0025687686
238	0xbc42fba4	-0.011900816
239	0x3c32608f	0.010887279
240	0xbb91fb0d	-0.0044549764
241	0x3b79ea4b	0.0038134034
242	0xbca5ffbc	-0.020263545
243	0x3dca7ef1	0.098874934
244	0x3d07275f	0.03299653
245	0xbd11c100	-0.03558445
246	0x3d9fa9ec	0.07796082
247	0xbd7fad7a	-0.0624213
248	0xbd7cb11d	-0.061692346
249	0xbc66c81f	-0.0140857985
250	0xbd57da59	-0.052698467
251	0x3d811dc9	0.06304509
252	0x3c3e3363	0.011608931
253	0x3d5a2ba2	0.053264268
254	0xbbfa8c5a	-0.0076461257
255	0xbcd36c80	-0.025808573

encoder.cnn_model.2.conv.3.bias f4 [32]
0	0x3d30ca5a	0.043161727
1	0xbd36b0c4	-0.04460217
2	0xbd07598d	-0.033044387
3	0xbcc3fe35	-0.023924926
4	0xbbde9f42	-0.0067938874
5	0x3d295766	0.041343115
6	0xbbb011ed	-0.0053732307
7	0xbcdc9efa	-0.026931275
8	0xbcf30a8c	-0.029668115
9	0x3bea8d48	0.0071579553
10	0xbd42b3cb	-0.047534745
11	0x3c19de7d	0.009391424
12	0xbc3752b5	-0.0111891525
13	0x3d4bf480	0.04979372
14	0x3ce28063	0.02764911
15	0xbd6893d9	-0.056781624
16	0x3d42b4c9	0.04753569
17	0xbc96f635	-0.018427948
18	0x3c490dea	0.012271384
19	0x3d435e8e	0.047697596
20	0x3c8ddeb2	0.017318103
21	0xbc8ddd1b	-0.017317345
22	0xbacdfeec	-0.0015716231
23	0x3cb83336	0.022485357
24	0xbd49e8f8	-0.049294442
25	0xbc285c46	-0.010275906
26	0xbd198496	-0.03747996
27	0x3d5cf8b6	0.053948127
28	0xbc7b4d02	-0.015338184
29	0xbcdf773d	-0.027278537
30	0x3d567986	0.052361988
31	0x3c1429ce	0.00904317

encoder.cnn_model.2.conv.4.weight f4 [32]
0	0x3f74362d	0.95395166
1	0x3f6ec1db	0.9326455
2	0x3f7a224b	0.97708577
3	0x3f6d8447	0.92779964
4	0x3f835f74	1.0263505
5	0x3f735a1a	0.9505936
6	0x3f68b5b1	0.9090224
7	0x3f5b0fd4	0.85571027
8	0x3f72a438	0.9478183
9	0x3f6b8fd9	0.9201637
10	0x3f72eb25	0.9489005
11	0x3f683f6d	0.9072178
12	0x3f7b90e1	0.9826794
13	0x3f78f707	0.97251934
14	0x3f7ca7b0	0.9869337
15	0x3f76008a	0.9609457
16	0x3f86770b	1.0505079
17	0x3f85be44	1.044869
18	0x3f77e470	0.9683294
19	0x3f70da44	0.94083047
20	0x3f7197c1	0.94372183
21	0x3f7b7c55	0.9823659
22	0x3f8021d1	1.001032
23	0x3f7b7a66	0.9823364
24	0x3f6e275e	0.9302882
25	0x3f74cb03	0.9562227
26	0x3f63e810	0.89025974
27	0x3f72b17a	0.9480206
28	0x3f6c85c2	0.923916
29	0x3f6e5470	0.9309759
30	0x3f87300d	1.0561539
31	0x3f7692c9	0.96317726

encoder.cnn_model.2.conv.4.bias f4 [32]
0	0x3d8b3678	0.067974985
1	0x3d79668f	0.060888823
2	0x3dc055dc	0.093913764
3	0x3cc67c8a	0.024229307
4	0x3d1cb05d	0.03825413
5	0xbcf9adaf	-0.030478327
6	0xbd17dd3f	-0.03707623
7	0xbc1f8ab2	-0.009737657
8	0xbd1d7bbd	-0.038448084
9	0x39c79017	0.00038063593
10	0x3d944b57	0.072409324
11	0x3cb08feb	0.021553
12	0x3bdde736	0.0067719473
13	0x3d042b3b	0.03226779
14	0x3b5d5dec	0.0033777906
15	0x3d975d9f	0.07390904
16	0x3d8cb545	0.06870512
17	0x3d08acb0	0.033367813
18	0xbd7370cf	-0.059433755
19	0xba8ab494	-0.0010582381
20	0xbd195951	-0.037438694
21	0x3d746080	0.059662342
22	0x3d915e58	0.07098073
23	0x3cb3f8c8	0.021969214
24	0x3de4d972	0.11174287
25	0xbd936256	-0.071964905
26	0x3d2b35a1	0.04179919
27	0xbd480b3a	-0.04883883
28	0xbc2b9cbd	-0.010474381
29	0x3b5d4f98	0.0033769365
30	0x3c4fa9e7	0.012674785
31	0xbd4f0952	-0.050545998

encoder.cnn_model.2.conv.4.running_mean f4 [32]
0	0x3e0b3ac3	0.13596635
1	0x3d46d971	0.048547212
2	0xbcf01a7b	-0.029309502
3	0x3d057ff0	0.032592714
4	0xbd92b6cc	-0.07163772
5	0x3caf494c	0.021397255
6	0xbd3a5245	-0.045488615
7	0xbd26bb0a	-0.040705718
8	0xbdd31fc1	-0.10308791
9	0x3dbeda4f	0.09318983
10	0xbd61c033	-0.055114936
11	0xba73128a	-0.0009272477
12	0xbde8d0de	-0.11367963
13	0x3e372900	0.17886734
14	0x3d1f5f1c	0.038909063
15	0xbd3145eb	-0.04327957
16	0x3cd3f67d	0.02587437
17	0x3cf71e86	0.030165922
18	0x3d95d2c9	0.07315595
19	0x3e006840	0.12539768
20	0xbd5be9f0	-0.053689897
21	0x3c3f4551	0.011674241
22	0xbc4891ab	-0.012241761
23	0x3e420ac9	0.18949427
24	0xbd730db8	-0.059339255
25	0x3d5a3482	0.05327273
26	0x3d0d0a46	0.034433626
27	0x3cfe29c7	0.03102578
28	0xbdc40e74	-0.09573069
29	0x3cd48ae0	0.025945127
30	0xbd8139b4	-0.06309834
31	0x3ce25846	0.027629983

encoder.cnn_model.2.conv.4.running_var f4 [32]
0	0x3f8b694d	1.089151
1	0x3f96d4a0	1.1783638
2	0x3f947e40	1.1601028
3	0x3f5f7b3c	0.87297416
4	0x3fa8792a	1.3161976
5	0x3f4bb9b2	0.79580224
6	0x3fa10818	1.2580595
7	0x3f8ea3f4	1.1143785
8	0x3f33aaff	0.70182794
9	0x3f5cac72	0.8620063
10	0x3fed6b97	1.8548459
11	0x3f919547	1.1373681
12	0x3fcd26ab	1.6027426
13	0x3f817e7f	1.0116729
14	0x3f5733d1	0.8406344
15	0x3fa74a18	1.3069487
16	0x3f750568	0.95711374
17	0x3f787ca4	0.97065187
18	0x3fd01d29	1.6258899
19	0x3f63af66	0.8893951
20	0x4019bb90	2.402073
21	0x3f9394d1	1.152979
22	0x4016cb07	2.3561418
23	0x3fa38020	1.2773476
24	0x3f03afd5	0.51440173
25	0x3fd2af1a	1.6459687
26	0x3f88721f	1.0659827
27	0x3f880c92	1.0628836
28	0x3fdb194f	1.7117099
29	0x3f661d8a	0.89888823
30	0x401c252a	2.4397683
31	0x3fe012ad	1.7505699
