Data/Dim16_mnist/pneumonia_AE_CNN_0123_t.pth (torch, 804686 bytes, 77 tensors)

encoder.cnn_model.0.conv.0.weight f4 [32, 1, 3, 3]
00000000: 40ad d2bd 5afa a63e 987c 70bd 64f2 473e
00000010: 505a d0bd e536 48be ed1c 153e f1cf 22bd
00000020: 7bf6 863d dde9 8c3e d548 a6bd 08b8 e73d
00000030: bda3 1b3d edd2 a9bd dc6a 39be 14c3 363e
00000040: 4e0b 2cbb c543 a63e 1116 8abe 172a 76bd
00000050: 1d57 2c3e f9fd a53e 73c7 65be 4c99 89bd
00000060: 1d6d f8bd f479 a53e cd6a 0fbc 7967 393d
00000070: e4f4 a8bd 70c9 343e ded2 30be a4e1 a9be
00000080: ddd2 f33b 59f8 1d3e 1b8f 3d3e ccf7 69be
00000090: 2986 113d 2369 b7bd 6138 cdbd 7cdf f0bc
000000a0: c10e 85be a18b 933e 1334 6fbd 8e4f b7bd
000000b0: 1209 643e f3f4 bfbe 1dc8 b9bd 0e0b e6bc
000000c0: f42b 17bd 9142 a83d bd1d 57be 649d b53d
000000d0: 6a8c 233d 2503 d13d afbc 863d 78af 833e
000000e0: 093a 903d 0157 91bd 43c7 3ebe f3eb 483e
000000f0: 6e5c 9b3e 29f3 8d3d 8236 1e3e 06f7 56be
00000100: 7590 84be 463f d43d 6b06 1bbe dc24 cabd
00000110: 06c7 3fbe 491a 73be 569a 03be 1a6e 4b3e
00000120: a99c 27be ac49 413e 7d52 493e af35 2c3e
00000130: 5cf8 933d f949 673e 2f85 e3bb 461f 93bd
00000140: a2fd 073d b9e3 e2bd 1cfe 9f3e 3e58 a03e
00000150: 0ac4 3bbe 7bdd 113e a11d 803e e33a 973e
00000160: 1b9d a2bd d450 bd3c 5ac7 4e3e 013e a5be
00000170: a978 943d 2245 37be 6fbd e23d 304a 90bd
00000180: 90f8 103d 8175 33be d137 1f3e ee2c 3e3e
00000190: 9baa 93bd 375c c23e 9af9 5d3e 398b 4dbe
000001a0: 8cd6 ea3d ac26 29be 5ea2 1ebe 6959 053e
000001b0: ebd3 b8bc b902 c6bc deb0 903e 0fbc 18be
000001c0: 32ae a4bd e55c 4d3e 7936 c83b f55d b63d
000001d0: fcb9 af3e ff2b 4a3e 8e38 cdbd c4b8 b63d
000001e0: 8ea6 2abe 98bc 7cbe b35a 24be a0d7 433e
000001f0: 1afa 433e 5319 01be ba54 1c3e 375f 80be
00000200: 257f 463e 9242 6b3e 0c69 f3bd b768 aa3e
00000210: b0ee 203d 8176 353d c101 643e 57dd e3bd
00000220: cfdc 97be 1a9a ac3d 8d98 c5bc f51a 523e
00000230: a408 6c3d 9e5c d93d 8ac1 213e 9d50 8dbe
00000240: 829d 1fbe aa73 0fbe f9d5 99be eef9 463e
00000250: 2d4a e93d 947a 713d 0924 3bbc 9f96 8a3e
00000260: fccf 0cbe daf4 ee3c ae87 58bc f8a6 f6ba
00000270: 0b9e 413d 11a9 ec3d eb76 9cbe 0e6f a63e
00000280: 6e00 df3d c32f 8c3e 580c 9fbe 791a fabd
00000290: e475 da3d 50be bebd 6a7b 97be dfd4 96be
000002a0: f147 f63d 2caa 0ebe f9ba a9bd 80ec 3f3e
000002b0: 2d3a bebd 5480 a63e aaac 913e 0585 6a3e
000002c0: e934 e0bd 8510 a93d f817 63be 0691 b23c
000002d0: 851e 4d3e f81e 8c3e cdab ecbd 467a a13d
000002e0: c649 c63d 122b 263e b1bb 50bd 50c3 45be
000002f0: 9ff4 3dbe e705 53be d727 783e 16e6 1b3e
00000300: 81e6 80be 3b82 43be 612a 4d3d 8940 393e
00000310: 85db 8f3e cbce 813e 9da7 fabd def1 9c3e
00000320: f0b1 213d f042 3e3e 9d0c 9cbc 044a 24be
00000330: 2ab0 013e 4a3a f9bd 2ed7 253e ba93 893d
00000340: adfe e9bd 2ef3 b03e 5bdf 35bc 83b1 b13e
00000350: dc0d 42be 3938 32bc bdb3 9ebd 0f71 c73d
00000360: 1e24 9b3e 0a62 20be 54b2 973e 1465 d53c
00000370: 37b2 573e 582b b33d d256 67be f027 613d
00000380: 7025 543e ba07 75be 7d39 6ebe 7e3f ae3e
00000390: 7747 c03d ff09 97be 8989 213c ec03 093e
000003a0: 901a 3dbe fdf7 92be 4d0a a7bd fa51 5bbd
000003b0: 54bb 753e f343 913d a108 60be 03b4 6d3e
000003c0: b197 373e ece5 8f3e cb65 0abc 9459 003e
000003d0: c4bb 4fbe 30dd e83c 4657 833d 079f 2c3d
000003e0: 76f0 bbbd 5459 903e 1613 93bd 6fa9 e23b
000003f0: 488b 79be 9ed0 a8be e6d4 a4bd 53d2 0dbe
-0.10286951 0.32612878 -0.05871257 0.19526058 -0.10173476 -0.1955219 0.14561816 -0.03974909
0.06589981 0.27522174 -0.0811936 0.11314398 0.03799795 -0.08292184 -0.1810717 0.17847854
-0.0026251855 0.3247358 -0.2696996 -0.060098734 0.16830106 0.32420328 -0.22439365 -0.06718692
-0.12130187 0.32319605 -0.008753491 0.045264695 -0.08249834 0.17654967 -0.1726794 -0.33179963
0.0074409083 0.15426768 0.18511622 -0.22848433 0.035528336 -0.089556 -0.10020519 -0.02940344
-0.2598782 0.28817466 -0.05839927 -0.08950721 0.22269085 -0.3749157 -0.09071372 -0.028081443
-0.03690715 0.082158215 -0.21007438 0.088679105 0.03992883 0.10205678 0.06578957 0.2571981
0.07042319 -0.07096673 -0.186307 0.19621257 0.30343956 0.06931145 0.1545048 -0.2099267
-0.25891462 0.10363631 -0.15139167 -0.098703116 -0.18728265 -0.23740496 -0.12851843 0.19866219
-0.16368355 0.1887576 0.19660373 0.16817354 0.07225105 0.22586812 -0.006943367 -0.07183699
0.033200867 -0.11078591 0.31248558 0.31317323 -0.18336502 0.14244644 0.25022605 0.29537115
-0.07940122 0.02310983 0.20193234 -0.32273868 0.072495766 -0.17897466 0.11071288 -0.070454
0.035393298 -0.17525293 0.15548636 0.18571827 -0.07210275 0.3796098 0.21677247 -0.2007264
0.11466703 -0.16518658 -0.15491626 0.13022389 -0.022561988 -0.02417122 0.2825994 -0.14915489
-0.080410376 0.20054968 0.0061100093 0.0890464 0.34321582 0.19743346 -0.100205526 0.0892196
-0.16665098 -0.24681318 -0.16050224 0.19125223 0.19138375 -0.12607317 0.15266696 -0.25072643
0.1938444 0.22974613 -0.118852705 0.33283016 0.03929013 0.044302467 0.22266294 -0.111262016
-0.2966065 0.0842783 -0.024120593 0.20518096 0.057625428 0.106133685 0.15796486 -0.27600566
-0.15587428 -0.14008966 -0.3004606 0.19431278 0.11391101 0.05895479 -0.011422166 0.2706804
-0.13751215 0.029169489 -0.013215942 -0.0018818071 0.047269862 0.11555684 -0.30559477 0.32506603
0.10888754 0.2738019 -0.31064105 -0.122120805 0.10667017 -0.09313643 -0.29586345 -0.29459283
0.120254405 -0.13932103 -0.08287615 0.18742561 -0.0928844 0.32519782 0.28452045 0.22902305
-0.10947592 0.08255104 -0.22177112 0.021797668 0.20031174 0.27367377 -0.11556206 0.0788465
0.0968204 0.16227368 -0.050960246 -0.19312787 -0.18550347 -0.2060772 0.24233948 0.1522449
-0.2517586 -0.19092648 0.050089244 0.18091024 0.28097168 0.25353083 -0.12239001 0.3065328
0.039476335 0.18580222 -0.019048983 -0.1604386 0.12664858 -0.12169321 0.16195366 0.0671763
-0.11425529 0.3456053 -0.011100615 0.34705743 -0.189506 -0.010877662 -0.07749126 0.09738361
0.30300993 -0.15662399 0.2962824 0.026049174 0.21064077 0.087485015 -0.22591713 0.054969728
0.20717406 -0.23928729 -0.23264118 0.34032816 0.09388631 -0.29499814 0.009859451 0.13380402
-0.18467164 -0.28704825 -0.081562616 -0.053544976 0.23997241 0.070930384 -0.21878292 0.232132
0.1792896 0.28105104 -0.008447121 0.12534171 -0.2028647 0.028425783 0.064131305 0.042143848
-0.09176724 0.28193152 -0.07181375 0.0069171707 -0.24369538 -0.32971662 -0.0804842 -0.13849764

encoder.cnn_model.0.conv.0.bias f4 [32]
00000000: a8a2 80be c9c8 733d f4af b93d bebd 87be
00000010: f277 9a3e 8fed f93d b07d 253d 3196 813d
00000020: eee7 98be 0a92 833e 6670 64be 84dd 2fbc
00000030: 607b 2bbc f4ed f9bc eb27 a13e e2f9 84be
00000040: a875 d6bc ce65 80be b99e 2abd 5023 9e3d
00000050: 61a7 36be 0880 9e3e 4071 93be c165 6b3d
00000060: da93 09be 250d 79bd a425 6d3e a898 ad3d
00000070: 2f72 253e 202e 0dbc ae6d 493e c442 853e
-0.25124097 0.059517656 0.090667635 -0.2651195 0.30169636 0.12203514 0.040403068 0.06327475
-0.29864448 0.25697356 -0.22308502 -0.010733966 -0.010466427 -0.030508973 0.31475767 -0.25971895
-0.02617915 -0.2507767 -0.041655276 0.07721579 -0.17837287 0.30957055 -0.2879734 0.057470087
-0.13435307 -0.06080355 0.2315889 0.084763825 0.16156839 -0.008616954 0.19670746 0.260275

encoder.cnn_model.0.conv.1.weight f4 [32]
00000000: 6940 823f 6fb7 8c3f 12a2 733f 4749 7d3f
00000010: 2a37 813f 8588 863f 1da2 983f 982b 7b3f
00000020: a1a8 763f c654 7c3f 8e94 673f 0d8d 753f
00000030: 1e56 663f eeff 643f f981 7f3f 0a90 763f
00000040: ff66 853f 32d7 8a3f e72a 6a3f e5c9 7a3f
00000050: 0080 763f fe83 6e3f b25b 6a3f c4ef 753f
00000060: 590b 793f 57e8 833f d6d1 863f 3c15 8b3f
00000070: e463 7d3f 3653 773f 6457 613f 8762 783f
1.0175906 1.099348 0.95169175 0.9893994 1.009496 1.0510412 1.1924473 0.98113394
0.9635106 0.98566854 0.9046105 0.9591835 0.89975154 0.8945302 0.998077 0.96313536
1.0422057 1.0846922 0.91471714 0.97964317 0.9628906 0.93170154 0.91546166 0.9606898
0.9728294 1.030528 1.0532787 1.0865855 0.98980546 0.96611345 0.8802397 0.9702534

encoder.cnn_model.0.conv.1.bias f4 [32]
00000000: e8c7 1d3d 7434 5fbd 7c91 f4bb 34e6 59be
00000010: 3fe8 3fbd 99f7 6f3c 0968 b93d 2b67 d4bc
00000020: 9d69 39bd 91ac 913d 01ce f7bd 0f1f 6bbd
00000030: b043 ce3c 0371 643d 1b16 a6bd 1a35 353d
00000040: 8f02 113b 2239 cabc d431 16bd e58c 84bc
00000050: a2a4 0b3d a101 003e 353e 1c3e babc 6dbc
00000060: abd2 193a 2d0d 74bd 09f1 cf3c eec6 16bd
00000070: 9340 783d 22c9 643c b120 693c a150 c2bc
0.038520724 -0.054493383 -0.007463632 -0.21279222 -0.046852347 0.014646434 0.09053046 -0.0259281
-0.045266736 0.071129926 -0.12099839 -0.057402667 0.02517876 0.05577184 -0.08109685 0.044240095
0.002212677 -0.024685446 -0.036668614 -0.016180465 0.034092553 0.12500621 0.15258105 -0.014510328
0.0005867879 -0.059582878 0.02538349 -0.036810808 0.060608458 0.013963969 0.014228986 -0.023720087

encoder.cnn_model.0.conv.1.running_mean f4 [32]
00000000: 1185 79be 065d b33d 54f7 bc3d d403 87be
00000010: 084f 9c3e 675b dc3d 24ce 933d ecdd 223d
00000020: d53e 91be 5706 923e f753 63be 3d9d 293c
00000030: 4c46 733c e263 cabc 34dc b03e be42 89be
00000040: 82a3 20bd fd43 6bbe ead3 86bd 1ad8 cb3d
00000050: 36fd 33be 81fd a83e 77fb 8cbe cdc9 8f3d
00000060: 0989 e1bd 14a9 94bd 518f 823e 2e80 c23d
00000070: 4c1c 0c3e eba6 b43a 8064 4a3e f861 853e
-0.24367167 0.08757977 0.092268616 -0.26370108 0.30529046 0.10759621 0.072170526 0.039762422
-0.2836825 0.28520462 -0.22199999 0.01035243 0.014848303 -0.024705831 0.34543002 -0.26808733
-0.039218433 -0.22975154 -0.06583388 0.099533275 -0.17577061 0.33005908 -0.27535602 0.07020912
-0.110124655 -0.072588116 0.25499967 0.094971046 0.1368267 0.0013782656 0.197649 0.26051307

encoder.cnn_model.0.conv.1.running_var f4 [32]
00000000: c3da bf3d a280 563e 7e56 633d d95b c43d
00000010: 2dcc d23d 9f6d 623e cba5 f33e 732c 4c3f
00000020: ecf5 bf3e 2c16 473f df68 663d 46c6 5b3e
00000030: a0fe e43e f37a ab3d 9bd4 fe3e 3d99 873d
00000040: f652 063e d34a a43e 3d62 703f e81f e23e
00000050: 2795 653e a3c1 b53e 74e0 083e c2df 373e
00000060: 4f64 fc3e f83b ca3e 0d20 ad3e 473b a13d
00000070: 9b47 d53e 7514 4f3d ca04 283e e64f b93d
0.09367897 0.20947507 0.055502407 0.09587831 0.1029285 0.2211213 0.47587427 0.79755324
0.3749231 0.77768207 0.056252357 0.21462354 0.44725513 0.0837306 0.4977158 0.06621025
0.13117585 0.32088336 0.938999 0.44164968 0.22420178 0.35499296 0.13366872 0.1795645
0.4929528 0.39498878 0.33813515 0.078726344 0.41656193 0.05055662 0.16408077 0.090484425

encoder.cnn_model.0.conv.3.weight f4 [32, 32, 3, 3]
00000000: 0ed6 82bd bb13 5c3c 8cff 8ebc e767 003c
00000010: fe3e 4bbd f9ce 4f3d a0d6 94bd b0df d0bc
00000020: fb11 4dbd 834c ecba ea00 c5bc d377 d53c
00000030: e6cf 3238 bc3d b93d 1927 b53d 1191 03bd
00000040: a9f1 ca3c 443f 033d 60ea 1abd 3057 813d
00000050: c7b0 11bc aecb 0f3d f50d 473c 13c0 173d
00000060: c6ce eb3a ffd6 6bbb 4cc2 f73c 59a7 453d
00000070: 75f3 5a3d 8b5b a0bc 71cb fa3c dd50 76bc
00000080: 97e7 d33b 0e1b 3e3c 1ea2 6cbd c22a 95bc
00000090: 9943 9f3d 4208 963d 193a 42bd 6ac2 f8bc
000000a0: c659 f03d 8ef7 973d e2e1 523c df7a e73c
000000b0: 63ce 893c 4739 633d c66a 0d3d c758 9c3d
000000c0: 18cf f03c 3a09 253c 9918 fb3c 8bc8 7ebc
000000d0: 4d5b 8fbd 8d81 e5bd 725c 89bd 9c7d 263d
000000e0: b3a2 f6bc a8fa e5bc f291 4abc 32d9 0c3c
000000f0: 4543 f43c 014b 683d fa54 d63c dfd8 0fbd
00000100: d006 a3bb e5e8 313d c059 733d 7f2d 193c
00000110: 1f65 1e3d c7d8 793c 3058 5f3d 366a aa39
00000120: 806a 01bd 58f7 ecbc dc84 05bd e557 613d
00000130: 9dd5 303c 503e 513d 78ad 21bd 3400 e6bc
00000140: ced7 253d d5bf 88bd 30e6 123d 9055 3cbd
00000150: 5e40 143d c21f 75bd 2fd9 133d 716f 413d
00000160: 5128 76b9 1efb b0bc fb09 6ebc 39b9 8a3d
00000170: 7e12 14bd e3d3 363d c0a2 d13d 6e68 253d
00000180: 40f5 983d ee6f 643d efbf 8fbc 7d84 cbbd
00000190: ec12 b13c e365 6fbc 11f9 c93c eef4 9b3d
000001a0: 3483 43bd ec1b 2bbc 3afe a93d 13de 4c3d
000001b0: bedf 833b 0520 5dbd ff46 11bd 8b39 093d
000001c0: c9e3 7fbd 0484 acbc 58ce abbc c970 8bbb
000001d0: df48 25bd 96c5 293d 2ffa 013d fb65 023d
000001e0: e7a9 083c 2e21 fd3c 7f7a b33c b370 8ebd
000001f0: 8ee0 dd3b d500 1abd b39d e73b 8f05 af3c
00000200: f451 68bd ce9d a6bc 54ad 643d f749 a2bc
00000210: 36ff b93c db09 c83d 41fa 3a3d 7d17 10bd
00000220: 33f3 0b3d 02b4 673d cdd3 dcbc 30f1 9abc
00000230: fc66 26bc 251f 63bb 1286 32bd 76a1 57bc
00000240: f4cd 7a3d d2b4 bb3d f817 e33d 9d45 2e3d
00000250: a831 5c3d c144 2a3a fd21 a83c cfc5 32bd
00000260: cdcd f6bb ee8a 603d 8d5a 17bc 2b81 333d
00000270: 4098 443d 1ab9 b13d 1404 c53d af23 413c
00000280: 2f06 223d 86da 8b3d 1b32 fdbc 4d95 683d
00000290: 05d7 083d c792 223c bf5e b3bc a3b8 0ebd
000002a0: cd8a 5dbc 8203 5abd e99f ecba 15a9 2cbd
000002b0: 5a34 963d 4662 ae3c 2b3c 07bd 9ea3 313d
000002c0: a22e abbc 8be4 4abd 7fd9 b93d 8932 0c3c
000002d0: e75c dbbd 28b1 0cbd 627d 48bd cbb2 21bd
000002e0: 491a ebbb c050 3cbd d1ad 873d 45cf 353b
000002f0: ef6a 423c 56f3 6bbd 2d2a 8aba 6023 86bd
00000300: 5354 123c d5d2 843d b3f8 843d 3577 41ba
00000310: c4be 21bd 3cd7 f33b 3336 933c c219 ee3c
00000320: 9e78 963d faae 3a3d f456 27bc 5f5e 6a3c
00000330: 3beb 2a3d b409 bc3c 7a60 43bc 3b6f b0bc
00000340: 6d43 5dbd a1a3 253c 4506 153d d506 f53c
00000350: 4ccc 2d3c c6fc 35bc 7a37 c03c 377f 8d3d
00000360: a24b d9bc 780d 33bd f685 33bd 8ab3 993c
00000370: 4d35 4abd 92a3 52bd 1a83 46bc 35c8 643d
00000380: 9ac6 3c3d ce04 073d 3d12 063d 36f0 a53d
00000390: 6e1e b53c b80c febc e0c0 21bd 8a51 76bd
000003a0: 91e5 26bd b8ce e9bc 913b 3f3d 7bbf 0cbc
000003b0: a50f 4d3d 3312 99bc 6c3d 4e3d 7645 233c
000003c0: 40fe 07bd 6f8b c33c 45d2 423c 8d70 aabd
000003d0: 49b9 0d3d e80f 9bbc dc65 ea3c a7a1 a33d
000003e0: 108e 483c 55d8 1dbd 39a8 c83d 28bd a93c
000003f0: df67 173d f97d fd3b 401e 54bc dfe5 06bc
-0.06388484 0.0134324385 -0.017455839 0.007837272 -0.04962062 0.050734494 -0.07267499 -0.025497288
-0.050065976 -0.0018028173 -0.024048287 0.026058113 4.2632128e-05 0.09044978 0.08845348 -0.032120768
0.024773436 0.032042757 -0.037821174 0.06315458 -0.008892245 0.035106353 0.012149324 0.03704841
0.00179907 -0.0035986302 0.030244015 0.0482553 0.053454835 -0.019574901 0.030614587 -0.015033928
0.0064668166 0.01160313 -0.057771794 -0.018208865 0.07776565 0.07325794 -0.047418687 -0.030366141
0.11735873 0.07420264 0.0128712375 0.028256832 0.016822046 0.055474546 0.034525655 0.076341204
0.029395625 0.010073001 0.030651378 -0.015550743 -0.06999836 -0.112063505 -0.06707086 0.040647134
-0.030106878 -0.028073624 -0.012363898 0.008596705 0.029817233 0.056712154 0.026163567 -0.035118934
-0.0049751773 0.043434996 0.059411764 0.009349226 0.038670655 0.015249438 0.05452746 0.0003250406
-0.031595707 -0.028926536 -0.032597408 0.055015463 0.010793117 0.051084816 -0.039472073 -0.028076269
0.04048901 -0.06677214 0.035864055 -0.045980036 0.036194198 -0.05984474 0.036095794 0.04722542
-0.00023475407 -0.021604117 -0.014528747 0.0677361 -0.036150448 0.044635665 0.1023612 0.040382795
0.07468653 0.055770807 -0.017547576 -0.099373795 0.021615468 -0.014611694 0.024654897 0.07615076
-0.047732547 -0.010443669 0.08300443 0.050016474 0.004024475 -0.053985614 -0.035468098 0.033502143
-0.062473092 -0.021059044 -0.020972416 -0.0042553884 -0.0403527 0.0414482 0.031732734 0.031835537
0.008341289 0.03089961 0.021908997 -0.069550894 0.006771154 -0.03759845 0.0070683598 0.021364955
-0.05671878 -0.020338919 0.05582936 -0.01981066 0.022704702 0.09767505 0.045648817 -0.03517865
0.03416748 0.056568153 -0.026956463 -0.018913835 -0.010156389 -0.0034656015 -0.04358489 -0.013161054
0.06123157 0.09165348 0.11088556 0.042546857 0.053758293 0.00064952305 0.02052402 -0.043645676
-0.0075318576 0.054819994 -0.009237898 0.043824356 0.04799676 0.086778834 0.096199185 0.011788293
0.03955668 0.068287894 -0.030907681 0.05678301 0.033408184 0.00992269 -0.021895764 -0.034844052
-0.013521862 -0.053226 -0.0018053028 -0.042153437 0.07334204 0.021287095 -0.033016365 0.043368928
-0.02089626 -0.04953436 0.09074687 0.00855697 -0.10711079 -0.034348637 -0.0489477 -0.03947715
-0.0071747643 -0.045975447 0.0662495 0.002774195 0.011866315 -0.05760511 -0.0010541134 -0.06549716
0.008931237 0.064855255 0.06492748 -0.0007380129 -0.03948857 0.0074414294 0.01797018 0.029065017
0.07347225 0.045577027 -0.010213602 0.014304726 0.04172824 0.022953846 -0.011924857 -0.021537414
-0.05401938 0.010109813 0.036382932 0.029910484 0.01060779 -0.011107629 0.023463953 0.0690903
-0.026525322 -0.043714017 -0.043828927 0.018762369 -0.049367238 -0.051425524 -0.012116218 0.055854995
0.04608784 0.032963566 0.032732237 0.08102457 0.022109237 -0.031011924 -0.03949058 -0.060136355
-0.040746275 -0.028540954 0.046687666 -0.008590574 0.050063748 -0.018685436 0.050351545 0.009965291
-0.033201456 0.023870198 0.0118909525 -0.083222486 0.03460053 -0.018928483 0.028613023 0.07989817
0.012240902 -0.03853639 0.09797711 0.02072008 0.036964294 0.0077359644 -0.012946665 -0.0082335165

encoder.cnn_model.0.conv.3.bias f4 [32]
00000000: 5350 1c3d 4668 0c3d 94b4 4cbd 2501 47bd
00000010: 626e 99bb 5f67 af3c 0b5b 18bb 1090 0e3d
00000020: 25f4 d2bb 60c8 1a3d 94ea 93bc 4acc b1bc
00000030: 7440 6bbd 39ed 3a3d ebfb 0dbd c35d b6bc
00000040: 4643 9dbc dc1b 013d bfc3 f2bb 8b75 bb3c
00000050: a058 2b3d 9761 54bd a016 76bc 0a0c fc3c
00000060: 1796 4a3d 1e2e 9d3c 95fc 1cbd 4c1f 02bd
00000070: 7c60 cebc 0861 34bd da4d f33c 566d 493b
0.03816254 0.03427913 -0.0499769 -0.048585076 -0.004682348 0.021411596 -0.0023247625 0.034805357
-0.0064377957 0.03778875 -0.018056192 -0.021703858 -0.057434514 0.04563639 -0.034664076 -0.022261506
-0.019197118 0.03152071 -0.0074085887 0.022883197 0.041832566 -0.05185088 -0.015020043 0.03076746
0.049459543 0.01918703 -0.03832682 -0.03176813 -0.025192492 -0.04403785 0.029700208 0.0030735335

encoder.cnn_model.0.conv.4.weight f4 [32]
00000000: 295c 853f 4d25 813f 1c53 913f a248 803f
00000010: bc2a 7b3f 08f5 763f 0f0a 763f 3646 703f
00000020: f29d 8a3f bd6e 593f 0a6d 853f 803e 7f3f
00000030: 9474 8e3f 691b 743f 7a94 683f 8604 7d3f
00000040: 4f29 7b3f 61d0 6a3f 796a 7d3f e2d4 713f
00000050: 98a3 823f bc6e 863f 218b 723f 58b7 8b3f
00000060: f286 683f 8efc 8f3f fb1c 853f 6473 863f
00000070: 540e 7a3f ee6b a13f 1289 7b3f 7812 8b3f
1.041875 1.0089508 1.1353488 1.0022166 0.9811208 0.9646764 0.961091 0.93857133
1.0829451 0.849346 1.0423901 0.9970474 1.1129327 0.95354325 0.9085156 0.9883503
0.98109907 0.9172421 0.9899059 0.9446546 1.0206175 1.0502543 0.94743544 1.0915327
0.9083091 1.1248949 1.0399469 1.0503964 0.97678113 1.2611063 0.9825603 1.0865011

encoder.cnn_model.0.conv.4.bias f4 [32]
00000000: d686 bd3c 2c77 e3bb 59a9 9abb 4ef0 423e
00000010: d8cc c4bc e291 0c3d 11ab b73c 745a 33bd
00000020: 7f58 c1bb d06f 1c3c 9130 18bd 39ef 50bd
00000030: 0977 83bc 1980 433d c707 893c 92f9 5e3d
00000040: c82c d33d d564 bb3b 4c88 4d3b 9a31 3dbc
00000050: e2bc a13d 5b65 093e 45a0 db3d 5461 6a3c
00000060: 39f5 e6bb f97f 70bd 077a cd3d 89d8 253d
00000070: 9f18 493d f096 c3bd 3d6c c2bc 7951 88bc
0.023135584 -0.0069416966 -0.004719895 0.19036981 -0.024023458 0.034318812 0.022420438 -0.043787435
-0.005900442 0.009548143 -0.03715569 -0.05100939 -0.016047971 0.047729585 0.016727341 0.054437228
0.10311276 0.005718807 0.0031361757 -0.01154747 0.07897355 0.1341757 0.10723928 0.014305431
-0.007048276 -0.058715794 0.100330405 0.040489707 0.049095746 -0.095502734 -0.023733253 -0.016640412

encoder.cnn_model.0.conv.4.running_mean f4 [32]
00000000: a4f1 02be 4ad4 f3bd e03b 81be 02f5 413e
00000010: 6d8f d83d 2127 cc3e 7fe5 c03e 9bc6 43be
00000020: d93a d3be e3fd c6be 9127 443e fb72 823e
00000030: 39ca f03e ac19 48be 1a79 8a3e 2bff 06be
00000040: 1b07 953e 080d 913e c03b 10bf 4124 923e
00000050: 1ea1 c43e 571e 883e fe2b a3be f074 9abe
00000060: cee6 44bd ce4c 7fbe 5011 943e f9d2 3ebd
00000070: a7bc 123c f4fc 8abe 9151 c43e 7e09 3ebe
-0.12787491 -0.11905725 -0.25240993 0.1894112 0.10574231 0.39873603 0.37675092 -0.1911873
-0.41255835 -0.38865575 0.19155718 0.25478348 0.47029284 -0.19541043 0.27045518 -0.13183276
0.29106984 0.28330255 -0.5634117 0.28543285 0.38404173 0.26585647 -0.318695 -0.3016734
-0.048071675 -0.24931642 0.28919458 -0.046587918 0.008956111 -0.27146113 0.3834348 -0.18558308

encoder.cnn_model.0.conv.4.running_var f4 [32]
00000000: 6df4 403f 3d44 6a3f 98e4 323f c249 a83f
00000010: 32ac 9a3f 720d f63f 1d40 3c40 6b87 a83f
00000020: 38c4 0a40 e86c 3240 c861 9f3f 6c09 f93f
00000030: 57ab 0040 dccc 483f 3853 b33f 13d8 c43e
00000040: 6126 e73f 13d5 c23f 8737 4e40 0c82 d83f
00000050: 094d b43f 4e3a c83f e36d 3a3f ed54 b53f
00000060: 4cc5 2d3f e5ea 113f d62d 913f ac04 ff3e
00000070: 9f2e 633f 7b24 443f 7f30 c03f d789 4b3f
0.75372964 0.91510373 0.69880056 1.3147509 1.20838 1.9222853 2.9414132 1.3166326
2.1682262 2.787897 1.2451715 1.9456 2.0104578 0.7843759 1.4009771 0.38446102
1.8058587 1.5221275 3.2221391 1.6914687 1.4086009 1.5642793 0.72823924 1.4166542
0.67879176 0.56999046 1.1342113 0.49808252 0.88743013 0.76618165 1.50148 0.795072

encoder.cnn_model.2.conv.0.weight f4 [32, 32, 3, 3]
00000000: f8ab e3bd e5fb 3ebd 2294 b9bc 336f 25bd
00000010: ba34 bebc 6e56 e33c d630 82bc a7ce 86bd
00000020: d1d8 18be 66e7 543d 181a be3d 1a49 6338
00000030: 4269 2cbd 7d09 96bd 8da5 2bbd cb7c ca3d
00000040: dda9 523d d388 2e3d 5393 26bd ff18 a5bd
00000050: ccb0 f0bc e8b6 28bc 7d76 febc 359c 39bd
00000060: 5da4 6b3d 91d3 9d3c 6fce 8b3c 22e3 1e3d
00000070: 9648 1b3d cbf6 73bb 08e4 cfbb cd10 55bd
00000080: 5ea1 e23c 43ab bbbc 9316 d03c 06a8 1d3d
00000090: 1b8e 87bd 9a7b cbbc 73e5 b83c fb48 2a3d
000000a0: 7c31 c0bc 8bfe 503d 331b 9ebd fb14 a4bd
000000b0: 75e8 9dbd 0c28 2abc 944e c83c 353f 90bc
000000c0: 3f30 c83c da9e 213b b09e 86bc 5bfe 49bc
000000d0: c32d d8bc f8ec 8cbc 2f25 593d 65fe 433d
000000e0: ca6a cabc 8e9a 33bd 3d67 663d e25c 9bbd
000000f0: 7303 99bd 4c17 04bd d014 03bd cc83 cfbb
00000100: f34b 9fbd e70e 73bc 3086 ad3d 4844 b1ba
00000110: 1bce 5dbc 56bb 86b9 561c 45bc d48d c7bc
00000120: c97a a1bd c3b3 86bd db80 82bc 5943 2fbd
00000130: 1732 dabc 4402 fe3c 0703 77bb 5027 4ebd
00000140: 2406 8cbc 729d ecbc 91fc 1e3d f559 1f3d
00000150: 3930 b53c 8abf 7dba 0ed7 403c fea8 0b3d
00000160: df56 81bc 7bc4 a93c ef54 b9bb 32d1 263d
00000170: 0533 80ba d59f ad3d f9bc 1e3d 50b4 2dbd
00000180: 9aa0 76bc 9a1a 293c 48aa cabb a5f5 6f3c
00000190: 1bbf 3f3c 4d05 66bd 770a 663d 7188 b23c
000001a0: 9cfb adbd 873a c6bd 4f26 b2bb d18b ffbd
000001b0: 90f4 21bd 1c17 c6bd db9a 05bd 2afd 193d
000001c0: 47d2 dcbc 2781 ffbc f79e 56bc e2cc 15bd
000001d0: d838 45bc 81bc 583d 7766 79bd 9df6 3bbd
000001e0: 941b b3bc e163 413d 2192 6f3d a95f 283d
000001f0: 8485 c03c b123 4d3d 99b9 66bc 3348 90bc
00000200: 987f 653d a6fc 123d a047 8dbd d59f 5ebd
00000210: cbf0 a8bc 0288 35bc 238b e4ba 4620 bfbc
00000220: edfd 36bd 17ff 36bc 75a7 34bd c842 ab3c
00000230: 3bb6 6ebc 67f0 6d3d eda5 fe3c 8a03 8c3d
00000240: 2a42 293d 0ea3 2c3d d230 cdbc f561 b13b
00000250: bd52 f2bc fa25 f5bb 2d3a 1fbc 0f40 c2bd
00000260: 2148 2bbd c353 373c 3f22 33bd 64cc a3bd
00000270: 1c83 8d3d 4558 0f3d 0e9f 6b3d ed02 debc
00000280: f321 d9bc 3dad 003d 79f5 f6bc a760 12bd
00000290: 15bc 57bd 8d31 d93c d2f1 123d 802f 313c
000002a0: 74fd cc3c 29ff 9ebc 8e74 1bbd 34ef d9bb
000002b0: 1aa4 1c3d cfb0 41bc 25b1 2abd 5f5a 5d3c
000002c0: 806a eabc ee92 a5bd 7171 e13c e9c2 c5bc
000002d0: 7b81 573c e67f 133b 4ef4 a8bd 3ee4 32bc
000002e0: 6c9c 633d 7c79 8ebc 115f cebc 7baa e0bc
000002f0: 5c05 dcbc 2529 8d3c dc50 4fbd 0a29 02bd
00000300: a478 5a3c 142f a83d 983d 50bd 9a05 74bd
00000310: 0390 57bd 24b9 efbd 9fe4 1a3d 6019 7b3d
00000320: 1efa 3c3d 38e4 af3b 3605 203c 13a4 a5bc
00000330: 2940 923d c700 123d d802 9ebc aa98 0cbd
00000340: 60aa 55bd 3a7a a7bd 0d86 503c 2295 1bbd
00000350: c151 1abd 2dbc 07bd 9257 68bb f735 8dbc
00000360: d16f d23d a0fb 05bd 33a9 f73b 6308 4e3d
00000370: e03c a1bd 42f9 103c 90da 2a3d 33d4 e2bc
00000380: 4747 d3ba 1534 f9bd a2d2 c3bc f6df 4cba
00000390: f8b2 5dbd 1a86 2c3d 6023 e33c 4ada b4bc
000003a0: 359d 343d 492d 1bbd a550 51bc ea08 053b
000003b0: ce0a 2dbd 7b42 9b3c 8b78 b4bc d174 29bd
000003c0: 6177 8fbd 74e7 cebd 5186 9abd 99ca 66bc
000003d0: dc01 89bd 677f 373d 15a8 163d ef3d 413d
000003e0: de70 59ba 744b 09be 48ed 03be 3c80 f5bd
000003f0: 7510 2c3d 2458 1fbd d23a 403a 1033 fb3c
-0.11116785 -0.046626944 -0.022653643 -0.04038925 -0.023218501 0.027751174 -0.015892427 -0.065823846
-0.14926459 0.05197849 0.09282321 5.41891e-05 -0.04209257 -0.073260285 -0.04190593 0.098870836
0.051431525 0.042610954 -0.040667843 -0.08061408 -0.029381178 -0.0102975145 -0.031062359 -0.045314986
0.057529796 0.019265922 0.017066209 0.03879083 0.03791102 -0.0037225957 -0.006344322 -0.052017976
0.027664836 -0.022908812 0.02540139 0.038490318 -0.06618901 -0.024839211 0.022570347 0.041573506
-0.023461096 0.051024 -0.077200316 -0.08011814 -0.07710353 -0.0103855245 0.024451531 -0.017608264
0.024437068 0.0024661333 -0.01643309 -0.0123287095 -0.026389008 -0.01720284 0.053013977 0.04785003
-0.024709124 -0.043848567 0.0562508 -0.07586075 -0.07471361 -0.03224878 -0.03200227 -0.00633285
-0.07778158 -0.014835096 0.0847286 -0.0013524378 -0.013537909 -0.00025698048 -0.012030682 -0.024359621
-0.078847475 -0.065772556 -0.015930584 -0.042788837 -0.026635213 0.03100694 -0.0037691013 -0.05033046
-0.017092772 -0.02888367 0.038815085 0.03890415 0.02211772 -0.00096797256 0.011770023 0.03409671
-0.015788494 0.020723572 -0.005655877 0.040726848 -0.000978083 0.08477751 0.038754437 -0.042408288
-0.015052939 0.010321284 -0.00618485 0.014645969 0.011703278 -0.0561574 0.056162324 0.021793576
-0.08495256 -0.09679132 -0.0054366956 -0.1247784 -0.039539874 -0.096723765 -0.032618385 0.03759495
-0.026955737 -0.031189514 -0.013099424 -0.036572345 -0.012037478 0.052914146 -0.060888734 -0.045889486
-0.021863736 0.047214393 0.05848897 0.041106854 0.023501165 0.050082866 -0.014082336 -0.017612552
0.056029886 0.035885476 -0.06898427 -0.054351646 -0.020622632 -0.01107979 -0.0017436486 -0.023330819
-0.044675756 -0.011169217 -0.044105012 0.020905867 -0.014569814 0.058090594 0.031084979 0.068366125
0.041322865 0.04214769 -0.025047693 0.0054132887 -0.029580468 -0.007481334 -0.00971846 -0.094848745
-0.041816834 0.011189404 -0.04373383 -0.07997969 0.06909773 0.03499629 0.057524733 -0.027101004
-0.026505446 0.031415213 -0.030146347 -0.035736706 -0.052669603 0.026512885 0.03587515 0.010814548
0.0250232 -0.01940878 -0.037952952 -0.0066508297 0.038242437 -0.01182194 -0.041672844 0.013510316
-0.028615236 -0.08084665 0.027519913 -0.024140792 0.013153429 0.0022506653 -0.082497224 -0.010918675
0.055569097 -0.017391913 -0.025191816 -0.027425041 -0.026858024 0.017231533 -0.050614223 -0.03177742
0.013334427 0.082121044 -0.05083999 -0.059575655 -0.052627575 -0.11705235 0.037815686 0.061303496
0.046136968 0.005367782 0.009766867 -0.020219838 0.07141144 0.035645273 -0.019288465 -0.03432528
-0.052164435 -0.0817761 0.012727273 -0.03798402 -0.037675623 -0.033138443 -0.0035452587 -0.017237647
0.102752335 -0.03271067 0.007558012 0.050300967 -0.07872939 0.00884849 0.041712344 -0.027689075
-0.0016119265 -0.12168137 -0.023904148 -0.0007815355 -0.054125756 0.042120077 0.027726829 -0.022076745
0.044095237 -0.037884984 -0.012775575 0.0020299503 -0.042246632 0.018952599 -0.022030136 -0.04137117
-0.070051916 -0.1010274 -0.0754515 -0.014086389 -0.06689808 0.044799235 0.03678139 0.047178205
-0.00082947116 -0.1340769 -0.12883484 -0.119873494 0.042007882 -0.038902417 0.00073329837 0.030663997

encoder.cnn_model.2.conv.0.bias f4 [32]
00000000: aeb6 5a3c 62c0 3dbd 3b5e 903c 5f85 993c
00000010: 836b 383d eae2 84bc 561e 933c 4e01 1d3d
00000020: 9415 14bd 3ecf 0f3c e003 6cbc ffdc 78bc
00000030: f1a3 ffbc e2b7 64bd 1ffc 03bd bf72 bcbc
00000040: eba8 8d3c 7da4 02bd 48b4 f4ba 2a21 a93b
00000050: 4e4b 3e3d 0dea d6ba f7c4 843c bb15 a03b
00000060: 2bd7 023d 9904 07bd cd0c f33c ea6e 153d
00000070: c864 17bd 2034 91bc e00c 3d3c f9c2 003c
0.013349218 -0.04632605 0.017623058 0.018740354 0.045024406 -0.016221482 0.017958801 0.038331322
-0.03615339 0.008777438 -0.014405221 -0.015189408 -0.031206103 -0.055839427 -0.032222863 -0.023003934
0.01729246 -0.03189515 -0.0018669451 0.005161424 0.046458535 -0.0016396657 0.016207201 0.004885403
0.03194348 -0.03296337 0.02966919 0.03648273 -0.036961347 -0.01772505 0.011538714 0.007858985

encoder.cnn_model.2.conv.1.weight f4 [32]
00000000: db66 8b3f 783a 8d3f b802 903f 00e5 633f
00000010: 500c 813f 6042 933f 023e 8a3f 03be 8d3f
00000020: 0f80 7b3f 9028 843f cfce 9a3f 8fd2 773f
00000030: fb30 833f a91f 893f 1302 853f 33f0 963f
00000040: 8128 833f 290f 8e3f d764 8c3f 767c 873f
00000050: 2f07 7c3f 30b6 7b3f 5401 893f 5632 843f
00000060: e0bf 823f 5b07 8b3f 7374 7f3f 1c91 8b3f
00000070: 6fa6 8b3f 2e39 793f 643e 823f e4b4 903f
1.0890764 1.1033468 1.125083 0.890213 1.0081882 1.1504631 1.0800173 1.1073612
0.98242277 1.0324879 1.2094363 0.9680566 1.0249323 1.0712787 1.0391258 1.1792053
1.0246736 1.1098377 1.0968274 1.0584857 0.9844846 0.9832487 1.070353 1.0327861
1.0214806 1.086162 0.9978706 1.0903659 1.0910167 0.97352874 1.017529 1.1305203

encoder.cnn_model.2.conv.1.bias f4 [32]
00000000: 56f6 29bd c30c 73bd fd08 0b3e c430 d7bd
00000010: e631 d63d c3da 003e 437a a3bd 9608 863e
00000020: 8b6f ba3d 266f 2d3e e39e 28be cf33 09bd
00000030: 610f f13c 1396 053d 265c e2bc 7bf7 de3c
00000040: 83f9 12be 017b c9bd 649d ccbd 6d33 7d3d
00000050: 44cb 61be 942c 923d cddc cfbc b42b a33d
00000060: 4e8a 10bd 7129 a8bd e5e2 9b3d 416f 40bc
00000070: 4d2c d9bd 8033 86bc bada 44be 3b2e 383c
-0.04149469 -0.059338342 0.13577648 -0.10507348 0.10458736 0.12583451 -0.07982304 0.26178426
0.091033064 0.16936931 -0.1646686 -0.033496674 0.029426279 0.032613825 -0.02763183 0.027217617
-0.14352994 -0.09837914 -0.099909574 0.06181662 -0.22050196 0.07137409 -0.02537384 0.0796732
-0.035288148 -0.08211029 0.07611636 -0.011745275 -0.10604153 -0.016381979 -0.19224063 0.011241491

encoder.cnn_model.2.conv.1.running_mean f4 [32]
00000000: 0503 0cbf babd e4be fb8a 1ebf b9ff bf3e
00000010: 782a 983f 56b8 143e 9699 b7bb cf6a ba3e
00000020: 94dc 9ebf 67e0 d63e 7cf0 6cbc 2c50 a83f
00000030: 1e7b d43d cd14 a1bd 32d9 9abe ef74 a93e
00000040: 97d5 d7be d796 693e 34ba 01be 4e8b a23e
00000050: 43fe f5be fd90 d2bd 8bfb b33d 26b0 b23e
00000060: 993a c23e 8471 c13e e9df 203e 9094 5e3c
00000070: eec5 86be e0da c2be f1e7 89bd 037d 22be
-0.5469211 -0.44676 -0.6193082 0.37499788 1.188796 0.14523444 -0.0056030257 0.36409613
-1.2411065 0.4196808 -0.014461633 1.3149467 0.10375045 -0.078652956 -0.30243832 0.33097026
-0.42155144 0.22811447 -0.12668687 0.31746906 -0.4804555 -0.102815606 0.087882124 0.34900016
0.3793533 0.37781918 0.15710415 0.013585225 -0.26322883 -0.38057613 -0.067336924 -0.15868

encoder.cnn_model.2.conv.1.running_var f4 [32]
00000000: cc99 213f 5d29 953f dca3 513f 285b 453f
00000010: bc32 4d3f fbec 7d3f 2440 233f e5b1 503f
00000020: e66a 123f 5a0f 9a3f 22d3 173f 80a7 2a3f
00000030: 141d cc3f b4af 8f3f 122f 923f 4c4f 673f
00000040: 9de2 653f fb6c 803f 345c 6b3f 2d1a 9e3f
00000050: a2b3 c23f 57b1 ac3f 5261 a03f 91df 8e3f
00000060: baab a53f 4c17 1b3f 77a7 9c3f 3949 873f
00000070: bc37 463f f5c2 883f f770 813f 3894 243f
0.631253 1.1653248 0.81890655 0.7709222 0.8015554 0.9918973 0.63769746 0.81521446
0.57194364 1.2035935 0.5930654 0.66661835 1.5946374 1.1225495 1.1420615 0.9035537
0.8979891 1.0033258 0.91937566 1.2351738 1.521107 1.349162 1.25297 1.1161977
1.2943032 0.60582423 1.2238606 1.0569221 0.77428794 1.0684496 1.0112599 0.64288664

encoder.cnn_model.2.conv.3.weight f4 [32, 32, 3, 3]
00000000: 318e 163d f993 393d 670b 973d 51d5 40bd
00000010: 50f2 3f3d 90f5 55bd 0cf0 ccbd 390d 67bd
00000020: e6f2 6dbc 2971 553d 4d5c 063c 98fe 373d
00000030: 7337 3d3c 0ce2 723d 899c 56bd 4c8e 9d3b
00000040: d3fd a83d 40e0 bcb8 4660 10bd be47 ab3d
00000050: 6e0c 4e3d f4c5 ad3d 4445 013e 5d62 ea3c
00000060: ad4b 35bd f5c1 813d 7231 99bc 7a53 a33d
00000070: 9d2a 4a3b 04b6 28bd 20ac b23c 4e2c cd3b
00000080: 6565 95bb 1d4e 02bd 0079 9cbc e297 013d
00000090: 4af5 f8bc 4f84 0b3d a590 53bd 3a95 5fbc
000000a0: d87e f3bc d796 9e3a 32e0 dd3d f508 983b
000000b0: b8d9 9abd f51c 783d 35e9 583c 01ab 0cbd
000000c0: a216 e43d 4406 b03d 8542 093c 2a82 51bb
000000d0: 164a c03d b2a7 29bc 8fb6 c6bb 8f60 99bb
000000e0: cbac 243d 5086 8bbd 2a0d c3bd 2f3e 8cbd
000000f0: e9a5 5dbd 372f e43c 3fba e13c 3113 103c
00000100: e325 8a3d dd87 023c 87e0 1f3c 312a 3d3e
00000110: a207 a23d 3d6b 303d 2125 ce3d 73a0 8c3d
00000120: b88d 09be dd6f 49bd 50e1 e1bb 8e35 d1bd
00000130: efb3 83bd c157 c0bd ee66 b1bd 9b44 42bd
00000140: 3c3e 52bb 4e86 943d 6806 783d 51fe 123d
00000150: 36d9 9fba 504e 60bc 6cd5 4abd cfee 9dbc
00000160: 7c4a 3a3c e239 f33c 5a50 8e3d 221f 3dbd
00000170: 49a5 b83c 331b d0bd 3f34 48bd 0300 9a3c
00000180: 248b 15bd e689 813c 27f2 0abd e9e0 0fbd
00000190: 8968 19bd 42a2 41bd 5f5d 713d 4beb ea3b
000001a0: 4380 843d 6904 963c da9b f73c 11fe 60bc
000001b0: ee95 5fbd 2378 39bd 1389 9bbc b6ac 12bd
000001c0: 11e4 c1bc ced8 12bd 2eb6 8abc cd9b 983c
000001d0: 4895 b63c 829d 92bc 4e2d 963a aa62 48bc
000001e0: e143 15bd e99d 59bd ea33 a4bd 54db 32bd
000001f0: 50ca 2d3d c1d2 63bc d455 bc3c d9e2 ecbc
00000200: 344b 9b3c 6204 7abb b457 dcbc 2e22 b7bc
00000210: 1b99 de3d 9bda 343d a2d3 1a3d f1e7 d4bc
00000220: 4bb5 0bbe e4f6 e6bd 8793 37bd fc4e 093d
00000230: c02e 84bd 8be9 ea3c 7c65 1b3d 7762 0ebc
00000240: 8df2 c33b 5469 c93c 17cb 7e3d e53a 35bd
00000250: f6b6 323d 4c48 873d ad70 133d 1eb3 04bd
00000260: 98bb 7fbb 9014 ba3c 73ec 75bb 942c d63c
00000270: 0626 7d3c c876 b0bb b17a e73c 137e 913c
00000280: 4cfb 033b 2e06 9abd e3e7 bb3c 4f2c 9cbb
00000290: 32f6 723c 9544 0b3e 588f 94bb 5fd7 20bd
000002a0: 830e be3c e048 77bc 9b38 acbc 08df 3fbd
000002b0: 3d1d 7f3a 82f1 2c3c 975e 18bc a09a 1c3d
000002c0: 4f73 6f3b bf2f 78bc 4b94 a1bd 4c24 013c
000002d0: 38b8 a3bb 550f ebbc 3593 1a3b cc39 2f3c
000002e0: 7e1a 64bd 9d5c 63bd 126a babb e1ca 3e3c
000002f0: 2fb3 62bd b3ab 31bb 92be 20bd 751d d83c
00000300: 9ee2 8a3d 52d4 fb3b cf9f d6bc 4f7e 953d
00000310: 673b 35bd 990a 073d d34d 00bd 9d55 95bc
00000320: 6912 33bc fbfc da3c df37 343b 8ff1 d53c
00000330: b856 a43d 6665 5d3d 01a0 843d d864 023c
00000340: d060 3eba 9a07 2b3c e0ef 113d 3e3a a1bc
00000350: 4025 6dbd 708d 333d 9fd4 afbb bac9 9c3b
00000360: a4ea eebc b813 bbbc e6e8 173d 0e73 3abc
00000370: e838 40bd de7d 9cbd e0ea 3cbc 2fea 18bd
00000380: d771 8abd f15a 903d 6ea4 f53b f313 dc3b
00000390: 81d5 983c bd0d 40bd 6969 fc3c c1ec b33d
000003a0: 13b2 38bd b746 38bd f07a 3cbd 7f11 2e3d
000003b0: 65f4 83bc 73fa 03bd fa10 943b 64e5 293d
000003c0: 4dab df3c 18dc 18bd 553d 33bb 0b41 3cbd
000003d0: a1d3 913c d62f 053d 6eb1 f63a 2d74 aabc
000003e0: 05fc 8d3d a0d8 45bd b0fc 8dbd 4820 20bd
000003f0: 657f da3c 2712 6dbc aaab 203c 9d53 bb3c
0.036756698 0.045307133 0.07375222 -0.047078434 0.046861947 -0.05223614 -0.10006723 -0.056409094
-0.0145232435 0.05210987 0.008200717 0.044920534 0.011548865 0.059297606 -0.052395377 0.004808223
0.08251538 -9.0063084e-05 -0.035248064 0.08363293 0.050304823 0.08485022 0.12624079 0.028611356
-0.044261623 0.063358225 -0.018700335 0.07974906 0.0030848153 -0.04118921 0.021810591 0.006261385
-0.0045592063 -0.031812776 -0.019100666 0.031638987 -0.0303904 0.034061726 -0.051651616 -0.013646418
-0.02972357 0.0012099397 0.108337775 0.0046397396 -0.07561058 0.06057449 0.013239195 -0.03434277
0.11137129 0.08594945 0.008377676 -0.0031968453 0.09389131 -0.010354923 -0.006064243 -0.0046807
0.04020385 -0.068127275 -0.09523995 -0.06847798 -0.054113302 0.027854545 0.02755463 0.008793638
0.067455076 0.007966963 0.009758121 0.18473126 0.07911612 0.04307102 0.100656755 0.06866541
-0.13432968 -0.049178947 -0.0068933144 -0.10215293 -0.06430804 -0.09391738 -0.086622104 -0.04742871
-0.0032080552 0.07252179 0.060552984 0.035887066 -0.0012195471 -0.013690546 -0.04951994 -0.019278912
0.0113702975 0.029690687 0.069489196 -0.04617227 0.022539752 -0.10161438 -0.04887795 0.018798834
-0.036509648 0.015812825 -0.03392234 -0.0351266 -0.037453208 -0.04727388 0.058926936 0.0071691624
0.064697765 0.01831265 0.030225683 -0.013732449 -0.054586343 -0.045280587 -0.01898626 -0.03580924
-0.02366832 -0.035851292 -0.016932573 0.01862898 0.02228798 -0.017897371 0.0011457594 -0.012230555
-0.036441687 -0.05312911 -0.08017714 -0.0436662 0.04242927 -0.013905228 0.022990145 -0.028916763
0.018956758 -0.0038149585 -0.026897289 -0.022355165 0.10869046 0.04415379 0.037799485 -0.025989505
-0.13643377 -0.112775594 -0.044818427 0.03352259 -0.06454229 0.028675815 0.03793858 -0.008690468
0.005979842 0.024586357 0.0622054 -0.04424562 0.043631516 0.066055864 0.035996128 -0.032397382
-0.0039021727 0.022714883 -0.0037524968 0.026144303 0.01545096 -0.0053852536 0.028256746 0.017760312
0.0020138798 -0.0752071 0.02293772 -0.004766024 0.014829205 0.1360038 -0.0045336895 -0.039267894
0.02320028 -0.015093058 -0.021023085 -0.04684356 0.0009731835 0.010555627 -0.009299896 0.0382334
0.0036537235 -0.015148102 -0.07889613 0.007882189 -0.004996326 -0.028693834 0.0023586277 0.010694932
-0.055689327 -0.055508245 -0.005688914 0.01164505 -0.055346664 -0.0027110397 -0.039244242 0.026381234
0.06781505 0.0076852227 -0.02619925 0.07299482 -0.044246104 0.03296909 -0.03132422 -0.0182293
-0.010929682 0.026731959 0.0027499122 0.02611616 0.08024353 0.05405178 0.06475831 0.007958613
-0.0007262351 0.010438824 0.035629153 -0.019681092 -0.057896852 0.043836057 -0.0053659226 0.00478479
-0.02916462 -0.022836551 0.037087344 -0.01137997 -0.04692927 -0.07641195 -0.011530608 -0.03733271
-0.067599945 0.07048596 0.007496408 0.0067162453 0.018656494 -0.0468881 0.030811982 0.087853916
-0.0450917 -0.044989314 -0.04601568 0.042497154 -0.016107747 -0.03222127 0.0045186253 0.04147853
0.027303362 -0.037319273 -0.002734979 -0.045960467 0.017801108 0.032516323 0.0018821189 -0.02080735
0.069328345 -0.048302293 -0.06932962 -0.039093286 0.026672075 -0.01446966 0.009806553 0.022867018

encoder.cnn_model.2.conv.3.bias f4 [32]
00000000: 564d fabc 7722 673d 3eb8 3cbc f9e9 50bd
00000010: 681c edbb e125 353d a9f7 03bc 469b d63c
00000020: 3571 c33c 29f3 563d ee0d a9bc 536b d7bc
00000030: de66 f2bc a584 453c 2b16 51bd 425f bdbc
00000040: 9af6 d1bc 75fd a1bc 3e56 9dbc 7710 0e3d
00000050: bdef ce3c dd26 4e3d d739 5dbd 4dd2 443d
00000060: 06b0 3e3d 5700 143c 6815 fdbc 8df9 873c
00000070: b802 19bc 16e8 d0bc e5c2 843b 83cd 00bd
-0.030554455 0.056429353 -0.011518536 -0.051004384 -0.0072360523 0.044225577 -0.008054652 0.026197087
0.023857692 0.05247799 -0.020636525 -0.026296293 -0.029590067 0.012055551 -0.05104653 -0.023116712
-0.025630284 -0.019774178 -0.019206163 0.03468367 0.0252608 0.05033003 -0.05401024 0.04805212
0.046554588 0.009033284 -0.030893996 0.016598487 -0.009339027 -0.025501292 0.0040515536 -0.03144599

encoder.cnn_model.2.conv.4.weight f4 [32]
00000000: 7f19 823f 4e0f 623f 82f0 6c3f 3a22 823f
00000010: 52cb 683f 6e3a 5c3f 5d3b 573f eeb4 5e3f
00000020: c850 5a3f f853 813f 1195 4e3f 14e1 883f
00000030: 3020 873f 9483 8c3f 41c5 8a3f cf30 693f
00000040: 7f75 803f e77f 863f 1187 563f 9c2a 8a3f
00000050: 3fe8 793f 8ffb 4e3f afca 853f 2954 503f
00000060: 3d25 823f f6ef 6a3f 7772 553f 66d2 503f
00000070: 720b 783f f258 483f 5c39 7f3f 0790 783f
1.0164031 0.88304603 0.92554486 1.0166695 0.9093524 0.86026657 0.84074956 0.86994827
0.8527951 1.010375 0.8069621 1.0693688 1.0556698 1.0977654 1.0841447 0.910901
1.0035857 1.0507783 0.83799845 1.0794253 0.97620004 0.808526 1.0452479 0.8137842
1.0167614 0.917724 0.83377784 0.8157104 0.96892464 0.7826072 0.996969 0.9709477

encoder.cnn_model.2.conv.4.bias f4 [32]
00000000: 8c8c d33d 0903 9c3d a6d8 b63d 1438 f73d
00000010: 3e4c a43d 9197 b1bc 71da 68be 695e cfbc
00000020: 3cad 98bd b2e8 873c 5384 10bd 3eac debc
00000030: fd61 423e 2244 073e 7663 4c3d 3486 133c
00000040: 269a 6b3d 7086 2c3d 2249 4d3d 9406 e73d
00000050: 9a60 3c3e 6e70 20be c016 0c3e c865 e5bd
00000060: d984 0e3e 988a f23c d308 313d c5d4 513d
00000070: 4ba7 a83d 262e ccbd c80d be3d ad38 7cbc
0.103295416 0.076177664 0.08928041 0.12071243 0.080223545 -0.021678718 -0.22739579 -0.025313573
-0.07454917 0.01659045 -0.035282444 -0.02718174 0.18982692 0.13209584 0.04989954 0.0090041645
0.057520054 0.042120397 0.050118573 0.112805516 0.18396226 -0.15667889 0.13680553 -0.11201054
0.13917865 0.029607102 0.043221306 0.051228303 0.082350336 -0.099697396 0.09279972 -0.015394372

encoder.cnn_model.2.conv.4.running_mean f4 [32]
00000000: 7afb 79bd 58d4 923d 8283 163e b10c 90bd
00000010: 12bc 3239 c61c 193e d06e d33d 2fbf 21be
00000020: 7024 323e 642c 7ebd fcc9 dc3d 9f0c 15bd
00000030: 79ad 863d 5d92 b13d be1a 8fbd 7413 93bd
00000040: 52f6 abbd 1401 75bd a53a 0c3e 52d3 223e
00000050: 1f86 8e3d 16e4 2d3e c6f0 bebd 7aec d73d
00000060: b382 343d 6a3a 5abd 767d adbd e539 76bd
00000070: 84e0 703b 44af b0bd 4ef2 d03c b73c 1dbd
-0.061030842 0.071694076 0.14698604 -0.07033671 0.00017045464 0.14952382 0.1032387 -0.15795587
0.17396712 -0.062054053 0.10780713 -0.03638899 0.06576056 0.08670495 -0.069875225 -0.07181445
-0.08396591 -0.05981548 0.13694246 0.15900925 0.06959175 0.16981539 -0.09323268 0.10543151
0.044069957 -0.053278364 -0.084711954 -0.060113806 0.0036754915 -0.08627179 0.025506165 -0.03838798

encoder.cnn_model.2.conv.4.running_var f4 [32]
00000000: 40a3 1c40 0029 c93f a8a1 1e40 8538 dc3f
00000010: 53d0 1840 8797 ae3f 1eda c33f 11ef ec3f
00000020: 23d9 0540 e3c6 0d40 d232 c43f 60cb 5a40
00000030: a7cc 0740 a3ce be3f 7592 9d3f c673 a53f
00000040: d40e ce3f 3729 6340 c8cd 2d40 e52e 5c40
00000050: 8066 b43f 48e9 2540 2712 4840 5a77 c43f
00000060: 934f 3740 0905 fb3f 920c f23f 51b1 bb3f
00000070: 7136 c63f 9f05 923f 921c 0040 d73d ad3f
2.447464 1.5715637 2.4786167 1.7204748 2.387715 1.3639992 1.5300939 1.8510457
2.091378 2.215264 1.5328009 3.418663 2.121866 1.490681 1.231032 1.2925956
1.6098275 3.5493906 2.715685 3.4403622 1.409378 2.5923634 3.126108 1.5348923
2.8642318 1.9610912 1.8910086 1.4663488 1.5485364 1.1407965 2.0017438 1.3534497

encoder.cnn_model.4.weight f4 [64, 32, 4, 4]
00000000: 9879 7cbd 86bb 40bd 782c 533c 9080 32bd
00000010: 8a8a 413c f47c 59bc 494f 59bc 28bb 7dbb
00000020: 6840 8dbc 979f 023c a1b1 893d 5292 97bb
00000030: 797c 083d df8a c3bc a10d 79bc 4ec3 9d3a
00000040: d91c 753d 1ee5 df3a c627 5c3c 3194 aa3d
00000050: e5a1 9f3c 86a5 b73d d9ae 063d d45c 93bd
00000060: b19d 993d c9d0 503c cac5 1abd 2c85 a2bd
00000070: 3044 393d 8ca8 a53c 7a3f 113d 56ec 08bc
00000080: 331e 4c39 de1d efbc c2b0 33bc 1a74 98ba
00000090: ac85 143c fa1a 093d 189d da3b 685f 3fbd
000000a0: 7a98 02bd 744a 3e3b 11d4 cc3d af4f 10bd
000000b0: df42 833c a4b1 0ebc 55c0 b43d 2127 113d
000000c0: 3cf6 96bd 855e 52bd d4b8 383d b584 a2bc
000000d0: 1c11 1dbd 804d 9a3d 2cce 933d 1c6c 3f3d
000000e0: d07f 01bc 6d36 d63c da62 bebc 3e36 8aba
000000f0: 4d61 a5bc ce25 2bbd b1b1 363d 4084 f93c
00000100: d461 48bc 32a6 203d cd3c b5bb 01a6 663c
00000110: 5092 ae3b e481 53bd 33ce 1cbd 376b 26bd
00000120: e560 63bc fb6a f0bc 5e50 573c 8c13 5cbd
00000130: 8d0c fc3c ca23 a83b d226 5b3d 189e 6dba
00000140: 6790 27bd 6c97 00be 7eaf 2abd 366d 4cbd
00000150: 9761 68bd 6e07 a63b be5e a8bc f012 a3bd
00000160: d23f f3bc 88e1 823d 43a8 783b b893 b73b
00000170: 9902 4dbc fbc7 ef3d 6d92 543d 41fd aabb
00000180: 6566 14bc d118 30bd 0c11 4e3d 9188 a9bc
00000190: 5bee e43c a5ad c2bc bc4a b4bd efa6 9dbc
000001a0: 9a3c 9dbc d349 61bc 1ac6 99bc f4ba f9bc
000001b0: d272 523d 3d00 113d 126b 983d 400f 5c3c
000001c0: 38be 403c 7c6e 5f3c 6d38 dcbb 9529 c9ba
000001d0: b8e7 833b e568 c33d c969 a93d 15e0 cc3b
000001e0: cd8e a5bb 3fab 1f3d 30d5 073c 2925 56bd
000001f0: 4704 263c db29 8ebd 2cce ddbc 6f80 5e3c
00000200: 3be8 2c3d a918 81bc adbe 8f3d a854 283c
00000210: f79c c33c ecef 113d e800 b4bc d8ae b1bc
00000220: ac44 d33c 4fdd 50bd 3fba 95bd aef8 85bd
00000230: e56e b63c a72a 523d cd01 1c3d d468 ed3c
00000240: 6be0 75bb 4a89 54bd 45eb fcbc a7a0 2dba
00000250: a4c8 b8b8 9d56 a83d ab06 063d b3ac 7fbd
00000260: 52e4 533c e21e a73b 477b 203c bee0 ba3b
00000270: 32c3 933a b364 48bd d226 653c 166a a03d
00000280: 313a 95bb 9518 3ebc d147 47bd 7154 5ebd
00000290: 8a03 a6bb 2dc3 c63a 77b6 f1bb e227 9d3b
000002a0: 747f 0ebc 7011 2fbd 7c8e 2e3b 9b5c f0bc
000002b0: 2b1e 9a3c 7a8d 94bc e9c1 c33d c969 563d
000002c0: 4bc1 69bd 64c1 44bd 4e8d a83c ab73 62bd
000002d0: 6684 84bd 3c30 973b 5135 ae39 477f 683c
000002e0: 3872 f7bc d9f9 543d 837a ad3d 5705 963d
000002f0: cb7c 45bd d5cf 2f3d 392f 513d 2fd6 743d
00000300: ad5f 66bd 37d8 a9bd d1c8 10bd 7fa9 2cbd
00000310: c6c7 76bb 5c40 bfbb ace8 be3c 7332 20bc
00000320: 322d c4bc 352c 78bc a2ac 0c3d 6888 f3bc
00000330: 230e 31bd 1ddf 8fbc 7c10 43bd a47e ab3b
00000340: 9fad 89bd 1150 2ebd 2ca7 21bc 2817 c0bd
00000350: 3e7a a9bd 7e5f 91bd db50 f93b a50f 3cbd
00000360: 96be 323b 1da5 aa3c 4e98 923d 6200 77bd
00000370: 119a b23b 3614 48bd dc77 15bd 0e3b 1e3b
00000380: 3ca4 29bd 1b5e 95bd 07a0 033c 12bc 6ebc
00000390: 5bde dcbc e82d d8bc 73cc b03d 9edb 333d
000003a0: cbe3 a6bc 4212 b0bb 29aa c43d e867 a63c
000003b0: 582b e63c ec34 96bd 704d ab3b 16f1 3b3c
000003c0: 6a7a cebc d8b8 3ebc d7fe ccbc 3b70 173d
000003d0: 370d bbbc df1b 183d c192 0ebc b0e6 68bd
000003e0: 25ac d73c bd35 d9bc 7033 e93c e4dc 9cbc
000003f0: 977b d6bc 514a fd3c 2eb1 da3d c25a cd3c
-0.0616394 -0.047053836 0.01288902 -0.043579638 0.011812815 -0.01327442 -0.013263532 -0.003871629
-0.017242625 0.0079726195 0.06723333 -0.004625597 0.03332183 -0.02386993 -0.015201003 0.0012036355
0.059841964 0.0017081832 0.013437217 0.083290465 0.019486377 0.08967118 0.03288159 -0.0719544
0.075007804 0.012745091 -0.037786283 -0.07935557 0.045231044 0.020221971 0.035460927 -0.008357128
0.00019466206 -0.029189046 -0.010967435 -0.0011631281 0.009065073 0.033472992 0.006671559 -0.046721846
-0.031883694 0.0029036077 0.10001386 -0.035232242 0.016023098 -0.008709345 0.08825747 0.035437707
-0.07371184 -0.051359672 0.04509814 -0.01983867 -0.038346395 0.07534313 0.072170585 0.04673396
-0.007904008 0.026149 -0.023240495 -0.001054473 -0.020187998 -0.0417841 0.044603053 0.03045857
-0.012230355 0.039220996 -0.0055309297 0.014077664 0.0053275004 -0.051637545 -0.038282584 -0.04062959
-0.013878082 -0.029347887 0.01314172 -0.05372958 0.030767703 0.0051312195 0.05350382 -0.00090643903
-0.040909197 -0.12557763 -0.04167127 -0.04990884 -0.056733694 0.0050668037 -0.02055299 -0.079625964
-0.029693518 0.06390673 0.0037942089 0.0056023262 -0.012512826 0.11708065 0.051897455 -0.0052181785
-0.009057616 -0.042992417 0.050309226 -0.020695003 0.027945688 -0.02376444 -0.08803317 -0.01924464
-0.019193936 -0.013750511 -0.01877122 -0.030484654 0.051379032 0.035400618 0.07442297 0.01343137
0.011764102 0.013637181 -0.0067205937 -0.0015347475 0.0040254258 0.095414914 0.0827213 0.0062522986
-0.0050524236 0.038981672 0.008290574 -0.052281532 0.010132856 -0.06941577 -0.02707585 0.013580426
0.04221366 -0.01575883 0.070187904 0.01027409 0.023878558 0.035629198 -0.021973088 -0.021689817
0.025789581 -0.050992306 -0.07310914 -0.065415725 0.022269676 0.051310208 0.038087655 0.02898065
-0.0037517797 -0.05188874 -0.030873904 -0.00066233653 -8.811176e-05 0.08219645 0.032721203 -0.06242056
0.012932854 0.005100117 0.009795017 0.005703061 0.0011273383 -0.04892416 0.013986306 0.07832734
-0.004554056 -0.0116025405 -0.048652474 -0.05427975 -0.00506634 0.0015164368 -0.007376488 0.004796014
-0.008697379 -0.04274124 0.002663522 -0.029341033 0.018813213 -0.018133868 0.0955847 0.05234698
-0.057069104 -0.048035994 0.020575192 -0.05528609 -0.064705655 0.0046139043 0.0003322759 0.0141905015
-0.030205831 0.051996086 0.08470633 0.07325237 -0.048214715 0.042922813 0.051070426 0.059774574
-0.056243587 -0.08293193 -0.035347763 -0.04215383 -0.0037655695 -0.0058365297 0.023304306 -0.009777653
-0.023947332 -0.0151472585 0.034344323 -0.02972813 -0.043226372 -0.017562443 -0.047623143 0.0052336026
-0.06722569 -0.042556826 -0.009866517 -0.09379417 -0.08275269 -0.07098292 0.0076085157 -0.045913357
0.0027274243 0.020830685 0.07157956 -0.0603031 0.005450495 -0.0488474 -0.03649126 0.0024144086
-0.04141639 -0.0729334 0.008033759 -0.014571207 -0.026961496 -0.026389077 0.086327456 0.043910615
-0.020372292 -0.0053732703 0.09602768 0.020313218 0.02809684 -0.07334313 0.005227737 0.011471054
-0.025204856 -0.01164075 -0.02502386 0.036972266 -0.02283345 0.037135955 -0.008701981 -0.056860626
0.026327202 -0.026514882 0.02846691 -0.019148298 -0.02618198 0.030919226 0.106783256 0.02506769

encoder.cnn_model.4.bias f4 [64]
00000000: c6d3 fe3c 73f5 bfbb da6f dcbb 79ab bfbc
00000010: 658c b0bb c91c b2bb d410 1d3d 2a24 debb
00000020: 5d80 d7bc 62e6 27bd 004d 1dbd f3f0 243b
00000030: db58 86bb 3628 8abc 6e33 9bbc de36 213d
00000040: 5527 b7bc e255 8fbc 9bfe 1e3d 3f11 9bbc
00000050: 5835 183c 690d 843c c88e debc a22a 00bb
00000060: c4f2 d8bc 96e9 f1bb 1fcb f3bc 5f24 fbbc
00000070: 6d57 b8bc 837b 943c 7c36 babc 2064 08bd
00000080: 7e38 813c a24c 233c 4ba8 293d 7ab4 8e3c
00000090: 3ef5 e0bb 3693 973c ae1f 05bd 53c5 16bd
000000a0: 8edb cebc 3351 163d cd87 a4bc c5c7 033d
000000b0: 93a6 503c 74ac c4bc 0ad8 0f3b 6495 bebc
000000c0: ca08 f4bb 5265 1cbd bdff af3c 731f 393a
000000d0: bd26 e1bc e291 a4bc 56b8 bebc fa75 663c
000000e0: a7e5 24bd 57b4 2c3d 58e9 013b 1ba6 993c
000000f0: e758 a3bb 6e52 1f3d a46d cc3c f91a 213c
0.03110684 -0.0058581172 -0.006727201 -0.023397194 -0.00538783 -0.0054355604 0.038346127 -0.0067792134
-0.026306326 -0.040991195 -0.03840351 0.002516803 -0.004099948 -0.016864877 -0.018945422 0.039358966
-0.022357622 -0.017497007 0.03881703 -0.018929122 0.009290062 0.016119676 -0.027167693 -0.001955666
-0.026482947 -0.007382582 -0.029759942 -0.030656992 -0.022502625 0.018125301 -0.022731058 -0.03329861
0.015774008 0.009967001 0.041420262 0.017420042 -0.0068651726 0.018502813 -0.032500915 -0.036809277
-0.025251176 0.03669853 -0.020084286 0.032172937 0.012735027 -0.024008013 0.0021948838 -0.023264594
-0.007447337 -0.038182564 0.02148425 0.0007061876 -0.027484292 -0.020089094 -0.023281258 0.014066214
-0.040258076 0.042164173 0.0019822922 0.018755963 -0.004984963 0.03889697 0.024954624 0.009833091

encoder.cnn_model.5.weight f4 [64]
00000000: 7e6e 4a3f bf47 563f 7f4f 563f 833f 563f
00000010: 63ab 5f3f e33e 423f c74a 633f 2f58 423f
00000020: e0e6 663f cab2 423f 326b 583f f288 6e3f
00000030: c0a9 3d3f a7fc 563f 859d 503f c3c3 3e3f
00000040: 17d2 533f aaeb 3c3f 87ed 573f c1fb 513f
00000050: ffb5 543f a269 673f d4b4 513f eaf4 673f
00000060: 1937 593f 18ab 563f a5ff 543f 9f7b 533f
00000070: 604d 5d3f 87d9 473f 6fcf 533f e0ac 3e3f
00000080: 221b 403f 163d 483f bb75 6b3f 2144 493f
00000090: 4939 4c3f c2ad 5f3f da9d 583f b236 3a3f
000000a0: ece0 653f b9c1 4e3f 4929 403f 766c 5c3f
000000b0: 077f 4d3f 8102 673f 42b7 5b3f e563 5c3f
000000c0: 5f84 5c3f 6de7 563f b246 543f eef3 5a3f
000000d0: e1cb 4d3f 23de 4c3f 2a19 413f 5670 4c3f
000000e0: 4f93 4c3f eb26 543f 7129 293f 07af 503f
000000f0: 0cd2 583f 051b 593f 6f6e 543f 004d 633f
0.7907485 0.83703226 0.8371505 0.8369066 0.8737089 0.7587721 0.88785976 0.7591581
0.9019604 0.7605406 0.8453857 0.9317771 0.7408714 0.83979267 0.81490356 0.7451746
0.82742447 0.73797095 0.8434681 0.8202477 0.83090204 0.9039556 0.81916547 0.90608084
0.848497 0.8385482 0.8320258 0.82610506 0.8644619 0.78066295 0.82738394 0.74482536
0.750414 0.7821821 0.9197652 0.7861958 0.7977491 0.8737451 0.8461586 0.7273971
0.8979633 0.8076435 0.75062996 0.86103 0.80271953 0.90238196 0.85826504 0.86089927
0.8613948 0.8394688 0.8292037 0.8552846 0.8038922 0.80026454 0.7542902 0.7985891
0.79912275 0.82871884 0.6607886 0.8151707 0.84695506 0.84806854 0.8298101 0.8878937
