Data/Dim16_mnist/pneumonia_AE_CNN_018_t.pth (torch, 804594 bytes, 77 tensors)

encoder.cnn_model.0.conv.0.weight f4 [32, 1, 3, 3]
0	0x3d5c4f10	0.053786337
1	0xbdfa60af	-0.12225472
2	0xbea3c402	-0.3198548
3	0xbe72def5	-0.23717864
4	0x3e413267	0.18866883
5	0xbdd4e668	-0.10395509
6	0xbe79827e	-0.24366185
7	0x3d37c76c	0.044867918
8	0x3e65d8fa	0.22446051
9	0xbe8f6023	-0.28003034
10	0xbe055912	-0.13022259
11	0x3d28698e	0.04111629
12	0xbe59d97e	-0.21274373
13	0xbd76032e	-0.060061626
14	0x3de65b2d	0.11247859
15	0x3d1eda2c	0.038782284
16	0xbe63cf7f	-0.22247122
17	0x3e734d3b	0.2375993
18	0x3e505a77	0.2034701
19	0x3e95084a	0.29107887
20	0x3deb5894	0.11491504
21	0x3c1991ca	0.009373138
22	0x3e4511fc	0.19245142
23	0xbe442e4e	-0.19158289
24	0xbe42aa76	-0.19010338
25	0xbcfac75f	-0.030612646
26	0xbe21e518	-0.15810049
27	0xbda3e4ff	-0.08002662
28	0xbd83f8aa	-0.06443913
29	0x3e9de87c	0.30841434
30	0x3da1849a	0.0788662
31	0xbe0edbce	-0.13951036
32	0xbe83a1cc	-0.2570938
33	0x3eaae51a	0.33377916
34	0x3e25fa5b	0.16208784
35	0x3eac3d74	0.33640635
36	0x3ca2a3d2	0.019853506
37	0x3ea2dfac	0.31811273
38	0x3d85c7d4	0.06532255
39	0x3e523fef	0.20532201
40	0xbe8ec3a6	-0.27883643
41	0x3e398eb9	0.1812085
42	0xbe474d48	-0.19463074
43	0x3e195046	0.14972028
44	0x3e30a327	0.17249738
45	0xbbf6c652	-0.007530966
46	0xbe80794e	-0.25092548
47	0x3e4133bf	0.18867396
48	0x3ddb7d7d	0.10717294
49	0xbda21c55	-0.0791556
50	0x3e7c5426	0.24641475
51	0x3da64512	0.08118643
52	0xbe6166dd	-0.22011895
53	0x3d9bcbce	0.07607232
54	0x3e8016e1	0.25017455
55	0x3d431c79	0.047634576
56	0xbd8a305e	-0.067475066
57	0x3e89e71c	0.26934135
58	0x3cc416ff	0.023936747
59	0xbe9d012f	-0.30664966
60	0xbe886d50	-0.266459
61	0xbe780c98	-0.24223554
62	0x3dd7b365	0.10532264
63	0x3e37fa93	0.1796668
64	0xbde5ea9f	-0.11226391
65	0x3e2134b5	0.15742762
66	0x3da11906	0.07866101
67	0x3d2be98d	0.04197078
68	0x3da4ee6e	0.08053289
69	0xbc8a97f3	-0.016918158
70	0x3d746403	0.05966569
71	0xbcb6027b	-0.02221798
72	0xbe61b3e6	-0.22041282
73	0xbe71e6cd	-0.236232
74	0xbe30e02d	-0.17273016
75	0x3b11b08f	0.0022230481
76	0x3cf4422f	0.029816715
77	0x3d098255	0.03357156
78	0xbd965341	-0.07340098
79	0x3d9e03bb	0.07715555
80	0x3e077441	0.13227941
81	0x3dd913c1	0.10599471
82	0xbd83103f	-0.06399583
83	0x3ebc74f6	0.36807984
84	0x3e775f05	0.24157341
85	0x3e67fc1d	0.22654767
86	0xbdb5a298	-0.08868903
87	0xbe5a92e4	-0.21345097
88	0x3dbaaf88	0.09115511
89	0x3c9a5f60	0.018844306
90	0x3e32e48c	0.17469996
91	0x3d13f15d	0.036118854
92	0xbe69eefd	-0.22845073
93	0x3dab78ae	0.08372627
94	0xbe426eea	-0.18987623
95	0xbe79caa9	-0.24393715
96	0x3d88509d	0.06656001
97	0x3e687852	0.22702149
98	0x3e42451f	0.1897168
99	0x3da370b4	0.07980481
100	0xbe2faa16	-0.17154726
101	0x3dee93b1	0.11649264
102	0x3e89d083	0.26916894
103	0x3e22db52	0.15903977
104	0xbe405be5	-0.18785055
105	0x3ca6f18c	0.02037885
106	0x3e50c465	0.20387419
107	0xbe88734c	-0.26650465
108	0x3e9758ee	0.29560035
109	0xbd252438	-0.040317744
110	0xbe59449c	-0.21217579
111	0xbe8bd5b4	-0.2731148
112	0x3e680391	0.2265761
113	0xbea1a508	-0.3157122
114	0xbbdc128a	-0.006716077
115	0xbdf23975	-0.11827365
116	0xbd73be83	-0.059507858
117	0x3e209ddf	0.15685223
118	0x3e927070	0.28601408
119	0x3e27eedf	0.16399716
120	0x3e45ba23	0.19309287
121	0xbe9edc23	-0.31027326
122	0x3e4532e9	0.19257702
123	0x3e494a99	0.19657363
124	0xbeb0419e	-0.34425062
125	0x3dbcc80b	0.09217843
126	0x3d65f015	0.056137163
127	0x3be9330e	0.007116682
128	0xbe47a7b8	-0.19497573
129	0x3dccc6ae	0.09998833
130	0xbd85b738	-0.06529087
131	0xbdb04b1c	-0.08608076
132	0x3db87428	0.0900653
133	0x3df11f21	0.117735155
134	0x3ea763a4	0.32693207
135	0xbe481d65	-0.19542463
136	0x3e72131f	0.23640107
137	0xbe96367a	-0.29338437
138	0xbe27a236	-0.16370472
139	0x3c6add19	0.01433494
140	0x3e862673	0.2620121
141	0xbdfcb3cd	-0.12338982
142	0xbe8443fa	-0.25833112
143	0xbe7c994f	-0.24667858
144	0xbdbe7d30	-0.09301221
145	0x3d241b89	0.040065322
146	0xbd8bffab	-0.06835874
147	0xbd41f7a2	-0.0473553
148	0x3da7095f	0.08156084
149	0xbe298c4e	-0.16557428
150	0x3e88faa8	0.26753736
151	0x3ccc3ad5	0.024930397
152	0x3c99140e	0.01868632
153	0xbe32223c	-0.17395872
154	0x3e2219e7	0.15830193
155	0x3e767af6	0.24070343
156	0xbdecf58c	-0.11570272
157	0x3cb68a1b	0.02228265
158	0x3de675b4	0.11252919
159	0x3e0774c2	0.13228133
160	0xbe8b20dd	-0.2717351
161	0xbe4f6341	-0.20252706
162	0xbdf5e3a6	-0.12006311
163	0xbe9cde91	-0.30638555
164	0xbd8efa05	-0.06981281
165	0x3e414a49	0.18875994
166	0xbe970107	-0.2949297
167	0xbda78b97	-0.081809215
168	0xbdf8e50a	-0.12153061
169	0xbd8ac5f4	-0.06776038
170	0x3e90b780	0.28265
171	0xbe007b62	-0.12547067
172	0xbe4369d4	-0.19083339
173	0x3e65c5ba	0.22438708
174	0x3db296b1	0.08720148
175	0x3deeaa05	0.116535224
176	0x3eb9c328	0.36281705
177	0xbe8e9661	-0.27849105
178	0x3e23d107	0.15997706
179	0x3cf8efcb	0.03038778
180	0x3e950b98	0.29110408
181	0x3ea61dcb	0.32444605
182	0x3a2fa059	0.0006699614
183	0x3df6bfc6	0.12048297
184	0x3e8dbe76	0.27684373
185	0xbdc451c9	-0.09585912
186	0x3e710999	0.23538817
187	0x3c9d260a	0.019183178
188	0xbe88d6a7	-0.26726267
189	0x3d411d5f	0.04714715
190	0x3e698f28	0.22808516
191	0xbe1d0193	-0.15332632
192	0xbd788694	-0.06067522
193	0x3a99ecf6	0.0011743593
194	0x3e777e6e	0.24169323
195	0xbba52cb6	-0.0050407303
196	0xbe96b00b	-0.29431185
197	0x3e2e8b1d	0.17045255
198	0xbdc33513	-0.095316075
199	0x3cb83649	0.022486823
200	0x3d6cf204	0.05784799
201	0x3da239e2	0.079211965
202	0xbe4a1469	-0.19734348
203	0x3d4beb79	0.04978511
204	0x3e95b6ac	0.2924093
205	0x3cb8e68b	0.022570869
206	0xbd58573e	-0.052817576
207	0x3e59cf3d	0.21270461
208	0x3e41f617	0.18941532
209	0x3e5ff6f4	0.21871549
210	0xbd834569	-0.06409723
211	0xbe85259b	-0.26005253
212	0x3e2f9da9	0.17149986
213	0x3e29db6a	0.16587606
214	0x3e4a8e19	0.19780768
215	0x3dd01d9b	0.10161897
216	0xbc7c016b	-0.015381197
217	0x3e274abb	0.16337101
218	0x3e34d989	0.17661108
219	0xbd740705	-0.059577007
220	0xbea68d4f	-0.32529685
221	0xbea19698	-0.31560206
222	0x3db7ce89	0.0897494
223	0x3e9620bc	0.2932185
224	0x3de6cae9	0.11269171
225	0xbe10e881	-0.14151193
226	0x3e9f26e9	0.31084374
227	0xbcbc8dab	-0.023016771
228	0xbe0ab096	-0.13543925
229	0x3e5551d4	0.20831996
230	0xbdce8622	-0.100841776
231	0xbe901ad2	-0.28145462
232	0x3e9c9093	0.3057905
233	0xbe46b583	-0.19405179
234	0x3c9084da	0.017641474
235	0xbae90e0e	-0.0017780678
236	0x3e1284a4	0.14308411
237	0x3d84b18b	0.06479176
238	0x3dfefb48	0.12450272
239	0xbea1fa23	-0.31636152
240	0xbe7641d8	-0.24048555
241	0xbe27c9ba	-0.16385546
242	0x3dfc83ee	0.12329851
243	0x3d27738e	0.040881686
244	0x3ded094c	0.11574039
245	0xbe020f52	-0.12701157
246	0x3eb3e70a	0.35137206
247	0x3e1a8d17	0.15092884
248	0xbd8be1f7	-0.06830209
249	0x3d5309e0	0.05152309
250	0x3cad2a4f	0.021138338
251	0xbe8a73cf	-0.2704148
252	0x3d6ccc50	0.057812035
253	0xbd968777	-0.073500566
254	0xbe45af99	-0.19305266
255	0x3e34fed3	0.17675333

encoder.cnn_model.0.conv.0.bias f4 [32]
0	0xbd953696	-0.07285802
1	0x3e1b1ef6	0.1514853
2	0x3d1700a9	0.036865864
3	0xbe154d19	-0.14580192
4	0x3e0db824	0.13839775
5	0x3e0d614c	0.13806647
6	0xbe7fc422	-0.24977162
7	0xbe8b53b2	-0.27212292
8	0x3c59b5e4	0.013287995
9	0xbdcae587	-0.0990706
10	0xbe4e062a	-0.20119539
11	0x3e968838	0.29400802
12	0x3dd69af2	0.10478772
13	0x3e7e871d	0.24856229
14	0x3e72bf08	0.23705685
15	0xbe7715fe	-0.24129483
16	0x3e3a987c	0.1822223
17	0xbd4ce485	-0.05002262
18	0x3e8d78bb	0.27631173
19	0x3e82126d	0.25404683
20	0x3d33d5b0	0.04390496
21	0x3d978ef5	0.07400314
22	0xbe7c12e1	-0.24616577
23	0x3e07b49f	0.13252495
24	0xbe9edbe1	-0.3102713
25	0x3db7a4c8	0.089669764
26	0xbdc34777	-0.09535115
27	0xbe88a7e3	-0.26690587
28	0x3e7d63d1	0.24745108
29	0xbc454234	-0.01203971
30	0xbc95cfe7	-0.018287612
31	0x3d092c4a	0.033489503

encoder.cnn_model.0.conv.1.weight f4 [32]
0	0x3f7e2278	0.99271345
1	0x3f806075	1.0029436
2	0x3f80c0a4	1.0058789
3	0x3f782cf5	0.969436
4	0x3f84aac8	1.0364618
5	0x3f8469d0	1.0344791
6	0x3f83c3a6	1.0294082
7	0x3f89b7ac	1.0759177
8	0x3f8082a6	1.0039871
9	0x3f82cdba	1.0219033
10	0x3f7697ad	0.9632519
11	0x3f6ab4b9	0.9168201
12	0x3f7998d6	0.97498834
13	0x3f82cf09	1.0219432
14	0x3f6ff027	0.9372582
15	0x3f828ac5	1.0198599
16	0x3f722378	0.9458537
17	0x3f885f9e	1.065418
18	0x3f5eb633	0.86996764
19	0x3f809b5b	1.0047411
20	0x3f71f4aa	0.9451395
21	0x3f7d8412	0.9902965
22	0x3f750200	0.95706177
23	0x3f95545d	1.1666371
24	0x3f78795a	0.9706017
25	0x3f773a0d	0.96572953
26	0x3f789717	0.97105545
27	0x3f80a03f	1.0048903
28	0x3f71d760	0.9446926
29	0x3f8c254e	1.0948884
30	0x3f734d2f	0.9503965
31	0x3f7badb9	0.98311955

encoder.cnn_model.0.conv.1.bias f4 [32]
0	0xbbc44702	-0.00598991
1	0x3cac52cf	0.02103558
2	0x3cc18f91	0.023628028
3	0x3d140a7e	0.03614282
4	0xbc528abd	-0.012850461
5	0xbd1e5b5a	-0.03866134
6	0x3bbdcaa0	0.005791977
7	0x3cee9b09	0.02912666
8	0x3d1db475	0.038502175
9	0x3cfd995c	0.030956917
10	0x3c2a7350	0.010403469
11	0x3cb3c56e	0.021944728
12	0x3c82280a	0.015888233
13	0xbe2a98b7	-0.16659819
14	0x3bf9edbd	0.0076272176
15	0xbb1fd454	-0.0024388032
16	0x3db088f1	0.086198695
17	0xbce0bbe9	-0.027433353
18	0xbd950291	-0.0727588
19	0x3c1de465	0.009636973
20	0x3cc1158e	0.023569848
21	0xbc0e317f	-0.008678793
22	0xbc99be51	-0.018767508
23	0x3d1d354f	0.038380917
24	0x3b631e47	0.0034655498
25	0x3d7bbc5f	0.06145894
26	0xbd6ba8e5	-0.057534117
27	0x3cc5c3fd	0.024141306
28	0xbd011659	-0.031515453
29	0x3cb01a3a	0.02149688
30	0xbe09a457	-0.13441597
31	0x3dc77a44	0.09740117

encoder.cnn_model.0.conv.1.running_mean f4 [32]
0	0xbdb3ac26	-0.08773069
1	0x3e153c35	0.14573748
2	0x3d184d5b	0.037183147
3	0xbdf67ff9	-0.120361276
4	0x3e1cde2b	0.15319125
5	0x3e15e79b	0.14639132
6	0xbe81629b	-0.25270543
7	0xbe85f860	-0.26166058
8	0x3ac08416	0.0014687802
9	0xbdb45468	-0.08805162
10	0xbe463f65	-0.1936012
11	0x3e96ac50	0.2942834
12	0x3dc075ab	0.093974434
13	0x3e8b1966	0.27167815
14	0x3e7d8cd3	0.24760751
15	0xbe880d35	-0.26572576
16	0x3e3bdd95	0.18346246
17	0xbd546ca8	-0.051861435
18	0x3e8af51d	0.27140132
19	0x3e8315e4	0.2560264
20	0x3d6a6579	0.057225678
21	0x3d9f25c9	0.07770879
22	0xbe73399e	-0.23752448
23	0x3e24bc8e	0.16087553
24	0xbe98b58a	-0.29826003
25	0x3d9ca45f	0.07648539
26	0xbdcd6f32	-0.100309744
27	0xbe8a1426	-0.26968497
28	0x3e78f173	0.24310856
29	0x3b96ef0e	0.0046061343
30	0xbcb51c6b	-0.022108277
31	0x3d40b893	0.047051024

encoder.cnn_model.0.conv.1.running_var f4 [32]
0	0x3e8bf171	0.27332643
1	0x3ebae58f	0.36503264
2	0x3e76dac7	0.24106894
3	0x3eb32ee6	0.34996718
4	0x3e9a10e4	0.30091012
5	0x3d85abae	0.06526886
6	0x3e6fc5b3	0.2341526
7	0x3e09dde8	0.13463557
8	0x3e733961	0.23752357
9	0x3ec4743c	0.3836993
10	0x3e071ecf	0.13195346
11	0x3e32da2e	0.17466041
12	0x3e919dfe	0.2844085
13	0x3ea7cb93	0.32772502
14	0x3e16361f	0.14669083
15	0x3ec6df17	0.3884208
16	0x3d5b3d9a	0.053525545
17	0x3dd94023	0.10607936
18	0x3ecce5be	0.4001903
19	0x3ea7112e	0.32630295
20	0x3f700c5a	0.93768847
21	0x3d8500c6	0.06494288
22	0x3d5dac62	0.054119475
23	0x3f0a3dbf	0.5400047
24	0x3d4f07ef	0.050544675
25	0x3db0be71	0.08630074
26	0x3db4a72c	0.08820948
27	0x3e911684	0.2833749
28	0x3dcdd1b2	0.10049762
29	0x3f32cd1f	0.6984424
30	0x3eb6eb18	0.35726237
31	0x3f322320	0.69584846

encoder.cnn_model.0.conv.3.weight f4 [32, 32, 3, 3]
0	0x3c9e467e	0.019320723
1	0xbd309a10	-0.043115675
2	0x3c2815c1	0.010259093
3	0x3cb07d0e	0.021544006
4	0xbd92b214	-0.07162872
5	0x3c8d4d83	0.017248875
6	0xbd13ae5b	-0.03605495
7	0x3c692a01	0.014231206
8	0x3ccd343a	0.025049318
9	0x3bd7c0e0	0.006584272
10	0x3cc35233	0.023842907
11	0xbbfdf0c7	-0.00774965
12	0xbd2f8804	-0.042854324
13	0xbcbeb18b	-0.023278018
14	0x3d2ea358	0.042636245
15	0x3cf53b98	0.029935643
16	0x3d39383a	0.045219637
17	0x3d6d500f	0.057937678
18	0xbb883d7a	-0.004157719
19	0xbd3bbf55	-0.045836765
20	0xbac9abd7	-0.0015386295
21	0x3bb1d82a	0.00542738
22	0x3d9c0924	0.07618931
23	0x3cdadafc	0.026715748
24	0x3c7484f9	0.014924281
25	0xbbdd6734	-0.0067566875
26	0xbcf2f985	-0.029659996
27	0x3d291eb3	0.041289043
28	0x3d992a0f	0.07478725
29	0x3d4d4635	0.050115783
30	0x3c32b5ee	0.010907633
31	0x3cb2ad39	0.021811115
32	0xbd2ee7c1	-0.042701486
33	0xbbdb5112	-0.006693014
34	0xbbea3fda	-0.007148725
35	0x3c2bf02a	0.010494271
36	0x3d7a6586	0.061131977
37	0x3c93f636	0.018061738
38	0x3d2e7bbb	0.042598467
39	0x3d43fd5f	0.047849055
40	0x3d9b40d7	0.075807266
41	0xbc93c8a5	-0.01804001
42	0x3d29a6ad	0.04141872
43	0x3d2302aa	0.039797463
44	0xbd34a9ed	-0.044107366
45	0xbc2d4a46	-0.01057679
46	0xbd80147a	-0.062539056
47	0x3d33a70c	0.04386048
48	0xbd92d7d3	-0.071700715
49	0xbdc495eb	-0.09598907
50	0x3ad07a1d	0.0015905533
51	0x3b7d8a64	0.0038687224
52	0xbcec15d2	-0.028818998
53	0x3cfc8dac	0.030829273
54	0x3c867d82	0.016417269
55	0x3c844280	0.01614499
56	0x3d1e7c50	0.038692772
57	0x3c07f2fa	0.008297676
58	0xbd5e092e	-0.054207973
59	0xbd1c70ae	-0.038193397
60	0x3bc2c3a1	0.005943731
61	0xbce195c1	-0.027537229
62	0xbc271aa4	-0.010199223
63	0x3d5ea03d	0.054352034
64	0xbcbe91b2	-0.023262832
65	0xbc6e74ac	-0.014554184
66	0x3cbefbd0	0.023313433
67	0x3dfdf950	0.12401068
68	0xbcb36886	-0.021900427
69	0x3d89917d	0.06717203
70	0x3d66685e	0.056251876
71	0xbcc7c73e	-0.024386998
72	0x3c9d0f00	0.019172192
73	0xbba43270	-0.0050108954
74	0x3cca27ca	0.024677176
75	0xbd2f26cc	-0.04276161
76	0xbd34a030	-0.04409808
77	0x3c671e5d	0.01410636
78	0x3a7d25c2	0.00096568104
79	0x3cb55789	0.022136467
80	0x3d0971be	0.03355574
81	0x3cf85287	0.03031279
82	0x3d3d79fb	0.046258908
83	0xbd655098	-0.055985063
84	0xbce8171a	-0.028331328
85	0x3db2c135	0.087282576
86	0xbba758de	-0.0051070293
87	0x3d2f501a	0.042801
88	0x3d2d6901	0.042336468
89	0xbadaa0aa	-0.0016679962
90	0x3d84c8ab	0.06483587
91	0xbd042083	-0.032257568
92	0xbd32fcbe	-0.043698065
93	0x3ade4944	0.0016959091
94	0xbcc0f754	-0.023555435
95	0x3c77514d	0.015095067
96	0x3c49cb04	0.012316469
97	0xbce55465	-0.027994344
98	0xbd7443e6	-0.059635065
99	0xba5dbdf5	-0.0008458787
100	0xbc6fc808	-0.0146350935
101	0xbd938db9	-0.07204766
102	0x3d880a59	0.06642599
103	0xbcd65586	-0.026163828
104	0x3c7de5fa	0.015496725
105	0x3bbe6dfe	0.005811452
106	0xbd5182c4	-0.0511501
107	0x3ae59e65	0.0017518519
108	0xbdabc99d	-0.08388064
109	0x3bea29db	0.007146103
110	0xbd2e4a16	-0.042551123
111	0xbc2a2b43	-0.010386291
112	0xbc28775f	-0.010282367
113	0xbc37d1aa	-0.011219421
114	0x3d0aef9c	0.033919916
115	0xbd00e58b	-0.03146891
116	0xbd41f12d	-0.047349144
117	0xbc3a9dfc	-0.0113902055
118	0x3db630f4	0.08896056
119	0x3cb23891	0.021755489
120	0x3c12db7b	0.008963461
121	0x3dafadc9	0.08578069
122	0x3c9f45f1	0.01944253
123	0x3c05621f	0.00814107
124	0x3cbb9de2	0.022902433
125	0xbd765129	-0.060135994
126	0x3d399cca	0.04531554
127	0x3cbc429c	0.02298098
128	0xbd2e936b	-0.042621057
129	0x3ce50b41	0.027959468
130	0x3b8530dc	0.0040646624
131	0x3c044743	0.008073631
132	0xbd062c12	-0.032756872
133	0x3d37726d	0.04478686
134	0x3c180d1c	0.009280469
135	0xbd0b5d17	-0.034024324
136	0xbd86fd8c	-0.06591329
137	0xbd1e7db3	-0.038694095
138	0x3c32e201	0.010918141
139	0xbdcdd4b4	-0.100503355
140	0xbc3e7239	-0.0116239125
141	0xbd807feb	-0.062743984
142	0x3b735233	0.0037127852
143	0x3c01c7f1	0.007921205
144	0x3d44c7f3	0.04804225
145	0x3d36af5d	0.044600833
146	0xbb631265	-0.0034648415
147	0xbc5f89b5	-0.013643672
148	0xbd7650d4	-0.060135677
149	0xbd8bcf70	-0.06826675
150	0xbda965c0	-0.082713604
151	0xbd04e328	-0.032443196
152	0xbcc386c9	-0.023867982
153	0x3d3c7dea	0.04601852
154	0x3b467aff	0.0030285714
155	0x3d72c56d	0.05927031
156	0xbbf5b345	-0.0074981772
157	0xbd719897	-0.05898341
158	0xbcc3c73e	-0.023898717
159	0xbccc7cd4	-0.024961866
160	0xbd8ad28f	-0.06778442
161	0x3d2145cc	0.039373204
162	0xbc8c4d77	-0.017126782
163	0xbd4affe6	-0.04956045
164	0x3d09411e	0.033509366
165	0xbcddf805	-0.027095804
166	0x3cb06722	0.021533553
167	0xbd1f8269	-0.03894273
168	0x3c2b7079	0.010463827
169	0xbcb46e27	-0.022025181
170	0x3ca22fb2	0.019798134
171	0x3cb38aa8	0.021916702
172	0xbd7c3e79	-0.061583016
173	0x3d0d4f70	0.034499586
174	0x3c859ca1	0.016310038
175	0xbb9c4212	-0.0047686184
176	0xbcfd328b	-0.03090789
177	0x3c0342b8	0.008011512
178	0x3d5f2721	0.054480676
179	0x3ccde866	0.02513523
180	0x3cb9dc9b	0.0226882
181	0x3d2e425a	0.042543747
182	0x3c887a20	0.016659796
183	0x3d6515e8	0.055929095
184	0x3d6dca04	0.058053985
185	0x3d5fe162	0.0546583
186	0xbbcaa129	-0.0061837626
187	0xbc6101fb	-0.013733382
188	0xbd1bdf14	-0.03805454
189	0xbd71eb9a	-0.059062578
190	0xbd5e7151	-0.054307286
191	0x3b903301	0.0044006114
192	0xbd3784e9	-0.044804487
193	0x3d356a30	0.04429072
194	0x3d0462ee	0.03232091
195	0xbdb5c494	-0.08875385
196	0x3d1dbf08	0.03851226
197	0xbd0e7c9b	-0.0347868
198	0x3bc059fc	0.005870102
199	0xbc95f29a	-0.018304158
200	0xbd24a1ce	-0.04019337
201	0x3da76cb1	0.08175028
202	0x3d4258a5	0.04744782
203	0xbd14d24e	-0.036333375
204	0x3c85716b	0.016289433
205	0xbd5b1bf7	-0.053493466
206	0xbb6d03b0	-0.0036165528
207	0xbd35fcbe	-0.044430487
208	0x3d5ba1a5	0.053620953
209	0x3d3e0146	0.046387933
210	0x3c535aec	0.012900095
211	0x3e0c5f4b	0.13708226
212	0x3d7bcab6	0.061472617
213	0x3d3c2b55	0.045939762
214	0x3cc0ec54	0.02355019
215	0x3cccaa11	0.024983438
216	0xbb724c21	-0.0036971646
217	0x3d9d37fa	0.07676692
218	0x3c3a8526	0.011384284
219	0x3d45d77c	0.048301205
220	0xbcb8d4da	-0.022562433
221	0xbd2af658	-0.041738838
222	0xbcde9ba2	-0.02717382
223	0x3c51c1da	0.0128025655
224	0xbbda7b1f	-0.006667509
225	0xbba874ae	-0.0051408624
226	0x3bbbc716	0.00573052
227	0x3cefdcfd	0.02928018
228	0x3b7e1bfd	0.0038774007
229	0xb95541bb	-0.0002033775
230	0x3d5e91aa	0.054338135
231	0xbd102ed5	-0.035200913
232	0x3c1917a7	0.009344018
233	0x3ca55099	0.020180034
234	0x3c82c9ad	0.015965307
235	0xbd44ede9	-0.04807845
236	0xbcd21a52	-0.025647316
237	0x3d23df2d	0.04000776
238	0xbd2d4e3f	-0.04231095
239	0xbd2438cd	-0.040093232
240	0xbc0e7c06	-0.008696562
241	0x3a87b681	0.0010354073
242	0xbcd73fd7	-0.026275558
243	0x3d826612	0.063671246
244	0x3c25ae94	0.010112423
245	0x3cc09bae	0.023511734
246	0xbd26eeb3	-0.040754985
247	0x3c6dccef	0.014514192
248	0x3c3740a2	0.011184843
249	0xbd09779c	-0.033561334
250	0xbbabfb02	-0.0052484283
251	0xbc47345e	-0.012158481
252	0xbd1257f3	-0.035728406
253	0xbce308a6	-0.027714085
254	0xbbd69187	-0.00654811
255	0x3cb9b020	0.02266699

encoder.cnn_model.0.conv.3.bias f4 [32]
0	0x3cc8368d	0.024440074
1	0x3d53251b	0.05154906
2	0x3c3c9f8d	0.011512649
3	0xbc7687f9	-0.015047067
4	0x3c52b720	0.012861043
5	0xbc996d77	-0.018728955
6	0x3bd6b4ba	0.006552306
7	0x3c764eac	0.015033405
8	0xbc34cd67	-0.0110353
9	0xbd38dee0	-0.045134425
10	0xbbe5fac2	-0.007018418
11	0xbd43bc83	-0.0477872
12	0x3cc1beee	0.023650613
13	0x3d32c5d8	0.04364571
14	0x3d3ce1b6	0.046113692
15	0x3acc8c00	0.0015605688
16	0xbd0207cb	-0.031745713
17	0x3cc25fb9	0.023727285
18	0x3d157e28	0.036497265
19	0xbc8cf65d	-0.017207319
20	0x3c72daaf	0.014822646
21	0xbc4f8482	-0.01266587
22	0x3d134821	0.03595746
23	0x3d38f1f7	0.04515263
24	0xbb7dd9b9	-0.003873451
25	0x3a266cdf	0.00063486205
26	0x3c5b7b96	0.013396164
27	0x3c9bef06	0.019034874
28	0xbcd84635	-0.026400665
29	0x3d4a9965	0.049462695
30	0xbc28d1f8	-0.010303967
31	0xbcef5443	-0.029214984

encoder.cnn_model.0.conv.4.weight f4 [32]
0	0x3f8acf42	1.08445
1	0x3f7b0733	0.9805786
2	0x3f72978f	0.9476251
3	0x3f83122f	1.0239924
4	0x3f8abd35	1.0838991
5	0x3f8906be	1.0705183
6	0x3f6de29b	0.929239
7	0x3f81b67e	1.0133817
8	0x3f7d575f	0.9896144
9	0x3f89f1b6	1.0776889
10	0x3f706224	0.9389975
11	0x3f949740	1.1608658
12	0x3f7aa1b4	0.9790299
13	0x3f82af16	1.0209682
14	0x3f8c1138	1.0942755
15	0x3f717a67	0.94327396
16	0x3f816bde	1.0111043
17	0x3f78bfb0	0.9716749
18	0x3f7cdf72	0.9877845
19	0x3f7dbc25	0.9911521
20	0x3f7b4de3	0.9816572
21	0x3f9b3ce1	1.2127954
22	0x3f8d9c84	1.106339
23	0x3f7e586d	0.9935368
24	0x3f7c3f11	0.9853373
25	0x3f79366d	0.9734867
26	0x3f5f95e5	0.87338096
27	0x3f79143c	0.972965
28	0x3f6f62f9	0.93510395
29	0x3f9c3602	1.2203982
30	0x3f75af18	0.95970297
31	0x3f783956	0.9696249

encoder.cnn_model.0.conv.4.bias f4 [32]
0	0xbd74561b	-0.05965243
1	0xbc7e0b70	-0.015505657
2	0xbc778309	-0.015106925
3	0xbdd007da	-0.101577476
4	0xbd4b69fa	-0.049661614
5	0x3cfc59a7	0.030804468
6	0xbd0341f9	-0.03204534
7	0xbc86565f	-0.016398607
8	0x3cc37045	0.023857245
9	0x3c4c4e6b	0.012469868
10	0x3d54f4ea	0.05199138
11	0x3d1da9c0	0.038491964
12	0xbe00aba6	-0.12565479
13	0xbda97cb7	-0.082757406
14	0x3d415d58	0.04720816
15	0xbd5d1038	-0.053970546
16	0xbd822367	-0.06354409
17	0xbd1bd0a2	-0.038040765
18	0xbbb4e04e	-0.0055199033
19	0xbbde7557	-0.0067888903
20	0x3b2ed3e5	0.0026676592
21	0xbdc7c28d	-0.097539045
22	0xbcbf9d24	-0.02339036
23	0x3caf48df	0.021397052
24	0xbc67de0f	-0.014152064
25	0xbda70f46	-0.0815721
26	0xbdc2054d	-0.09473667
27	0xbca3e47b	-0.020006409
28	0xbdda8db0	-0.10671556
29	0xbdb0756c	-0.086161464
30	0x3d1ec17f	0.03875875
31	0x3c52e10f	0.012871041

encoder.cnn_model.0.conv.4.running_mean f4 [32]
0	0xbebb3969	-0.36567238
1	0xbedba798	-0.429013
2	0x3e631c74	0.22178823
3	0x3dc52602	0.0962639
4	0xbea012f0	-0.31264448
5	0x3d166c8b	0.03672461
6	0x3ea4731e	0.32119077
7	0xbeb53779	-0.35393885
8	0xbdcaf309	-0.099096365
9	0xbed8f490	-0.42374086
10	0xbe0fd02e	-0.14044258
11	0xbea6d269	-0.32582405
12	0x3e849650	0.2589593
13	0xbe4f3c9a	-0.20237961
14	0xbe2fa70e	-0.1715357
15	0x3e74ed4f	0.23918651
16	0x3eb2bd86	0.3491022
17	0x3e2a1532	0.16609648
18	0x3e664065	0.22485502
19	0x3e6dc8ce	0.23221132
20	0xbdaeaacf	-0.08528673
21	0xbe8ab4a0	-0.2709093
22	0xbe0272e5	-0.12739141
23	0x3e67148e	0.22566435
24	0xbe307ea9	-0.17235817
25	0x3ebdf513	0.3710104
26	0x3e83d5e4	0.25749123
27	0x3e8cc779	0.27495936
28	0x3eac7d6b	0.33689436
29	0xbe6e9cbd	-0.23301978
30	0xbe63e35a	-0.22254696
31	0x3ea57d22	0.3232203

encoder.cnn_model.0.conv.4.running_var f4 [32]
0	0x3fbf8f9e	1.4965703
1	0x400df4b2	2.21806
2	0x3f83ea07	1.0305794
3	0x3f11bfcd	0.5693329
4	0x3fa35ae6	1.2762115
5	0x3f9d233e	1.227638
6	0x3ff1b0d5	1.888209
7	0x3f9eb380	1.2398529
8	0x3f9306d0	1.1486454
9	0x3fc9f7dc	1.5778766
10	0x3f1d783d	0.61511594
11	0x3f0a2d7b	0.5397565
12	0x3f48e597	0.78475326
13	0x3f44cfce	0.76879585
14	0x3ef8f4f9	0.486244
15	0x3f7a558a	0.9778677
16	0x3f99435f	1.1973685
17	0x3f86a8f6	1.0520313
18	0x3f8a2133	1.0791382
19	0x3f88ecec	1.0697303
20	0x3f217310	0.63066196
21	0x3f5724ef	0.8404073
22	0x3eeaa4d5	0.45828882
23	0x3f12d6e4	0.5735915
24	0x3f1b7096	0.6071867
25	0x3fccbf40	1.5995865
26	0x3f845295	1.0337702
27	0x3f79339f	0.9734439
28	0x3fbc73cf	1.4722842
29	0x3f351c5c	0.707464
30	0x3ec38198	0.3818481
31	0x3f908f69	1.1293765

encoder.cnn_model.2.conv.0.weight f4 [32, 32, 3, 3]
0	0xbd928748	-0.07154709
1	0xbb8a0207	-0.0042116675
2	0x3ccf96ab	0.025340399
3	0xbd766681	-0.06015635
4	0xbc3b1223	-0.011417898
5	0xbc479231	-0.012180851
6	0xbd1da1fe	-0.038484566
7	0x3d771ccf	0.06033021
8	0x3d3eb56e	0.046559744
9	0xbd4a43cf	-0.049381074
10	0xbd172906	-0.036904357
11	0x3d4d5588	0.050130397
12	0xbd83c9d6	-0.064349815
13	0xbcb9ebeb	-0.022695502
14	0x3c4eaa6b	0.012613873
15	0x3cc2a619	0.023760842
16	0x3c99ba81	0.01876569
17	0xbd5faa7d	-0.05460595
18	0x3c99818b	0.018738529
19	0xbcf218b4	-0.029552795
20	0xbcd1bfa1	-0.025604071
21	0x3d9e7252	0.077366486
22	0x3d886858	0.06660527
23	0x3d50ceee	0.050978594
24	0x3dc581bf	0.09643888
25	0xbba507ca	-0.005036329
26	0x3525101d	6.149074e-07
27	0xbdfb6d86	-0.12276749
28	0xbcad0bef	-0.021123854
29	0x3b850c49	0.0040603024
30	0x3d932e23	0.07186534
31	0xbd3052fd	-0.043047894
32	0xbbe92be6	-0.007115829
33	0x3d55f606	0.05223658
34	0xbd8a1499	-0.0674221
35	0xbd4b9592	-0.04970319
36	0xbdb0b2a5	-0.08627824
37	0x3cc121cf	0.023575692
38	0x3d7c483a	0.061592318
39	0xbca04171	-0.019562455
40	0xbd137d8d	-0.036008406
41	0x3d5921a9	0.053010616
42	0x3cf6433b	0.030061355
43	0xbc2f2d29	-0.010691919
44	0x3bd706a4	0.006562071
45	0xbafa7440	-0.0019108132
46	0x3b1362b0	0.0022489242
47	0x3a2805e1	0.00064095674
48	0x3d05cceb	0.032666128
49	0x3d653f77	0.055968728
50	0xbcc0ca0f	-0.023533849
51	0xbc897150	-0.016777664
52	0x3c61c011	0.013778702
53	0x3d07c99d	0.033151258
54	0xbcda13e0	-0.026620805
55	0xbb10d3e0	-0.0022098944
56	0xba2f292d	-0.0006681856
57	0x3cebe965	0.028797815
58	0x3c1d2feb	0.009593944
59	0x3be94ec6	0.007119986
60	0xbd314235	-0.04327603
61	0x3d00096d	0.03125899
62	0xbbda8286	-0.0066683916
63	0xbd7faa25	-0.06241812
64	0x3bc4fdc2	0.0060116956
65	0x3d535c31	0.051601592
66	0x3ae54633	0.0017492234
67	0xbc8ba82d	-0.017047966
68	0xbc437634	-0.011930037
69	0xbb453653	-0.0030092194
70	0x3d1b51c9	0.037919793
71	0x3d119f26	0.035552166
72	0xbaaa92ed	-0.0013013758
73	0xbdd7dac5	-0.10539774
74	0xbcedbffd	-0.029022211
75	0x3bbad91a	0.00570215
76	0xbbbe937f	-0.0058159227
77	0x3a11d08f	0.00055623887
78	0x3be47cbf	0.0069728787
79	0x3d2c1fb0	0.042022407
80	0x39d2f6aa	0.000402381
81	0xbccd2ea8	-0.025046661
82	0xbd37a04e	-0.044830613
83	0xbc2e0843	-0.010622087
84	0xbd9ab3a2	-0.075537935
85	0xbcaba0f0	-0.020950764
86	0xbce56bb3	-0.028005457
87	0x3d463a13	0.048395228
88	0xbd25d337	-0.040484633
89	0x3d197972	0.037469335
90	0xbdcb15f3	-0.09916296
91	0x3be81ea4	0.007083731
92	0x3d4ce0cc	0.05001907
93	0x3cf1bf93	0.029510295
94	0x3d0a9b2a	0.033839382
95	0x3bde9e26	0.006793755
96	0xbbbe7ce1	-0.0058132266
97	0xbd058f51	-0.03260738
98	0x3c42ea1f	0.011896639
99	0xbd5d7e0e	-0.054075293
100	0x3a9b47c0	0.0011846945
101	0xbcd712d7	-0.0262541
102	0xbda18254	-0.07886186
103	0x3d39b2fe	0.045336716
104	0x3d6bca57	0.057566013
105	0xbd583a8d	-0.052790213
106	0xbb8c8bd6	-0.0042891307
107	0xbce38fba	-0.027778495
108	0x3bba9c3b	0.0056948937
109	0x3d7aab4b	0.061198514
110	0xbd591df8	-0.053007096
111	0x3dc1ca72	0.094624415
112	0x3cc5b4da	0.024134088
113	0xbc31cbe6	-0.010851836
114	0x3c9438ae	0.018093433
115	0x3c9bdd8d	0.019026542
116	0xbc9d64de	-0.019213136
117	0xbd72dc8b	-0.059292357
118	0x3d19ebaa	0.037578262
119	0x3b8d79b7	0.004317488
120	0xbcba8cd5	-0.022772232
121	0xbd09f845	-0.033684034
122	0x3ccaf24f	0.024773745
123	0x3da05ed6	0.078305885
124	0xbc38cf85	-0.011279945
125	0x3c9b82e6	0.018983316
126	0xbd42a999	-0.047525022
127	0x3d2be664	0.041967764
128	0x3b26ba2c	0.0025440557
129	0xbd8390bd	-0.06424091
130	0x3d1802d1	0.03711206
131	0xbb115d85	-0.0022180986
132	0xbc8c8f01	-0.017158033
133	0x3d95d7b4	0.07316533
134	0x3d85b26f	0.06528174
135	0x3ad70513	0.001640471
136	0x3d88df4d	0.06683216
137	0xbd5ec029	-0.054382477
138	0x3da17561	0.078837164
139	0xb9e4bfa4	-0.00043630332
140	0xbd920724	-0.07130268
141	0x3d31ff6e	0.043456487
142	0xbd224959	-0.03962073
143	0x3d0a256a	0.033727087
144	0xbbf2614f	-0.007396854
145	0x3af98231	0.0019035992
146	0xba8c9a5b	-0.0010727154
147	0x3c93f56b	0.01806136
148	0x3d015f75	0.031585176
149	0xbc85c483	-0.016329056
150	0xbcbe64f2	-0.023241494
151	0x3d23f780	0.040030956
152	0xbd43d40d	-0.04780965
153	0x3cbd7fd7	0.023132248
154	0x3decd6d9	0.115644164
155	0xbd38237d	-0.04495572
156	0x3d11765d	0.03551327
157	0x3d9f8342	0.07788707
158	0x3ce6e404	0.028184898
159	0xbc5676f7	-0.013089887
160	0x3d2b9897	0.041893568
161	0xb98a17f6	-0.00026339263
162	0x3d0efc6d	0.0349087
163	0x3d58e4d1	0.05295259
164	0xbce8aeb1	-0.028403612
165	0x3de02423	0.109443925
166	0x3d059957	0.03261694
167	0xb9b51b4a	-0.00034543342
168	0x3c619c23	0.013770136
169	0xbcd5c473	-0.02609465
170	0xbcc38868	-0.023868755
171	0x3c9e7da7	0.019347025
172	0xbc012a06	-0.007883554
173	0x3d1675c5	0.036733408
174	0xbcfb8f93	-0.03070811
175	0x3ce7002c	0.028198324
176	0xbc0f8190	-0.008758917
177	0x3d015758	0.031577438
178	0x3cb5d753	0.022197401
179	0xba187e72	-0.00058171817
180	0xbccf3efc	-0.025298588
181	0xbd96620a	-0.07342918
182	0x3c8d95d7	0.017283363
183	0xbc9002a3	-0.017579382
184	0xbc974531	-0.01846561
185	0xbcdf39b2	-0.027249191
186	0x3c16a5e4	0.009194825
187	0x3cfd7131	0.030937763
188	0x3d80c16d	0.06286893
189	0xbd53a93b	-0.051675063
190	0xbcb6e7b1	-0.022327276
191	0xbb9b08ad	-0.004731259
192	0xbd5713d7	-0.052509155
193	0x3b8f8ed3	0.0043810396
194	0xbd35af40	-0.044356585
195	0xbbd787ae	-0.0065774536
196	0xbd078b26	-0.033091687
197	0x3c821694	0.015879907
198	0xb92caaca	-0.00016466822
199	0xbd8165ad	-0.06318221
200	0xbcd887a9	-0.026431875
201	0x3b9b4668	0.0047386177
202	0xbd40fa0b	-0.04711346
203	0x3d21696f	0.03940719
204	0x3d1ad919	0.037804697
205	0xbcf12e2f	-0.029440967
206	0x3dd40688	0.10352808
207	0x3c91a226	0.017777514
208	0xbda638fe	-0.08116339
209	0x3d5ff51d	0.054677118
210	0x3c0a5e66	0.008445358
211	0xbd021557	-0.031758633
212	0x3c9d269a	0.019183446
213	0x3da8bc74	0.082390696
214	0x3c85b8d3	0.016323483
215	0xbdb5a5bc	-0.08869502
216	0xbd926fbc	-0.07150218
217	0x3d181738	0.037131518
218	0xbd0142fb	-0.03155802
219	0x3c5e1529	0.01355485
220	0x3d1bccc5	0.03803708
221	0x3a8600b0	0.0010223594
222	0xbd000a9a	-0.03126011
223	0x3bccd293	0.0062506883
224	0x3d8f1b89	0.06987674
225	0x3d4e6aa8	0.050394684
226	0xbc803536	-0.015650373
227	0xbd982a28	-0.07429916
228	0x3de94921	0.11390901
229	0x3d15bee0	0.036558986
230	0xbd0e29b0	-0.034707725
231	0x3d7fd816	0.062461935
232	0xbcdc55f7	-0.02689646
233	0x3c85a539	0.016314136
234	0x3c9f76aa	0.019465763
235	0xbd16ccfa	-0.036816575
236	0x3ccdaf07	0.025107874
237	0x3ac647fe	0.0015127657
238	0xbca820ec	-0.02052351
239	0xbd0fd74c	-0.035117432
240	0x3ba22d98	0.004949283
241	0xbcb24c58	-0.02176492
242	0xbd369053	-0.044571232
243	0xbca92942	-0.020649556
244	0x3d18b516	0.037282072
245	0x3c3142e6	0.0108191725
246	0x3d7ecb58	0.062205642
247	0xbd3cd016	-0.046096884
248	0x3b0958c8	0.0020957459
249	0xbd3b8b4c	-0.04578714
250	0xbd3ea554	-0.046544388
251	0xbd12ec20	-0.035869718
252	0xbca7ba49	-0.02047457
253	0x3d1fe246	0.03903415
254	0x3ca72976	0.020405512
255	0x3cab0894	0.020878114

encoder.cnn_model.2.conv.0.bias f4 [32]
0	0x3cb01d82	0.021498445
1	0x3c978bdf	0.018499313
2	0xbcf4be85	-0.029876003
3	0x3d45b961	0.048272494
4	0xbbc5a28a	-0.006031339
5	0x3c8c3f00	0.017119884
6	0xbc0369e3	-0.008020851
7	0xbd1b895a	-0.037972786
8	0x3cc0bb2f	0.023526756
9	0x3cfdcbf0	0.030981034
10	0x3c3e9887	0.011633045
11	0xbd0a74d5	-0.033802826
12	0x3d0eb8ae	0.034844093
13	0xbc7f4ee4	-0.015582774
14	0xbcea4927	-0.028599335
15	0x3d3fc049	0.046814237
16	0xbbbd2989	-0.0057727736
17	0xbcaa56d9	-0.020793365
18	0x3c9b8322	0.018983427
19	0xbd5d8faa	-0.054092087
20	0x3d0599a5	0.03261723
21	0x3d4b2031	0.049591247
22	0xbd654b01	-0.055979732
23	0x3d368c12	0.044567175
24	0x3cdb9405	0.02680398
25	0xbc33fc3b	-0.010985429
26	0x3d0eb431	0.034839813
27	0x3cdcd9e9	0.026959376
28	0xbc98c9ee	-0.018650975
29	0xbd50b6b3	-0.050955486
30	0x3d3ff229	0.0468618
31	0x3d435fd0	0.047698796

encoder.cnn_model.2.conv.1.weight f4 [32]
0	0x3f80023c	1.0000682
1	0x3f820cd0	1.016016
2	0x3f8dcf4e	1.1078889
3	0x3f9c75b9	1.2223426
4	0x3f85d9f4	1.0457139
5	0x3f9b7ffa	1.214843
6	0x3f85eb58	1.0462446
7	0x3f932480	1.1495514
8	0x3f926a83	1.1438755
9	0x3f869804	1.0515141
10	0x3f7a84a8	0.9785867
11	0x3f748f30	0.95530987
12	0x3f893cb0	1.0721645
13	0x3f823aeb	1.017423
14	0x3f883196	1.0640132
15	0x3f8ab92d	1.0837761
16	0x3f7a38ce	0.9774293
17	0x3f7805f4	0.96884084
18	0x3f916c89	1.1361247
19	0x3f86e5e0	1.0538902
20	0x3f7497a5	0.9554389
21	0x3f82f633	1.0231384
22	0x3f899a74	1.075026
23	0x3f8eca7a	1.1155541
24	0x3f7080bb	0.9394643
25	0x3f88de80	1.0692902
26	0x3f89660b	1.0734266
27	0x3f8e4a81	1.1116487
28	0x3f81b83f	1.0134352
29	0x3f8d00ff	1.1015929
30	0x3f8787b2	1.0588286
31	0x3f850ef1	1.0395185

encoder.cnn_model.2.conv.1.bias f4 [32]
0	0x3b4d981e	0.0031371186
1	0x3b8a1871	0.0042143394
2	0x3d4fe734	0.0507576
3	0xbe1718b9	-0.14755525
4	0xbc88e1ed	-0.016709292
5	0xbaa03d8c	-0.0012225374
6	0xbd72c88f	-0.0592733
7	0x3e50c0fd	0.20386119
8	0x3d869c42	0.065727726
9	0xbe0d3fa4	-0.13793808
10	0xbc1689d8	-0.009188138
11	0x3d841426	0.064491555
12	0x3d8211af	0.06351029
13	0xbd3fdc5b	-0.046841007
14	0x3df47b6f	0.119376056
15	0xbe6f4a45	-0.23368175
16	0xbd9ac703	-0.0755749
17	0xbcdbfb51	-0.026853235
18	0x3e2328f1	0.15933587
19	0xbd573ce9	-0.052548323
20	0xbdfcf80d	-0.123519994
21	0x3e008655	0.12551244
22	0x3c9885e5	0.018618533
23	0xbde11a22	-0.109913126
24	0xbcc3af4c	-0.023887299
25	0xbd636491	-0.05551583
26	0x3d2fe170	0.042939603
27	0xbd023bac	-0.03179519
28	0xbd9f762c	-0.07786211
29	0x3d686a8b	0.056742232
30	0x3db05ca5	0.086114205
31	0xbc1811fa	-0.00928163

encoder.cnn_model.2.conv.1.running_mean f4 [32]
0	0x3e9fc783	0.31206903
1	0x3e2d5555	0.16927083
2	0xbc8c5821	-0.017131867
3	0x3d8cef6c	0.068816036
4	0xbde18a08	-0.110126555
5	0x3dde22f4	0.108465105
6	0xbecd9e78	-0.40159965
7	0x3e7a5431	0.24446179
8	0xbe22f8d9	-0.1591524
9	0x3d6758dd	0.05648123
10	0x3f06ff90	0.5273371
11	0xbfa00a35	-1.2503115
12	0xbda838b4	-0.0821394
13	0xbd1a6cc5	-0.037701387
14	0xbcd2263f	-0.025653003
15	0xbe7ac9b4	-0.24491006
16	0xbc70d7b3	-0.014699864
17	0xbec8655d	-0.39139834
18	0x3c65caf1	0.014025436
19	0x3c29cf61	0.010364384
20	0x3f2fca54	0.68668103
21	0xbde524f3	-0.11188688
22	0x3d619b1c	0.055079564
23	0xbd5fd060	-0.05464208
24	0x3f589513	0.8460247
25	0xbe7710ab	-0.24127452
26	0x3e0801b2	0.13281897
27	0xbe859d36	-0.26096505
28	0xbdebbd0f	-0.115106694
29	0xbdb65593	-0.08903041
30	0xbe55ecc0	-0.20891094
31	0xbc6dba21	-0.014509709

encoder.cnn_model.2.conv.1.running_var f4 [32]
0	0x3fac3b88	1.3455667
1	0x3fa1b101	1.2632142
2	0x3f8266af	1.0187587
3	0x3f1a8549	0.60359627
4	0x3f4fde16	0.8119825
5	0x3f55f2fd	0.83573896
6	0x3fb35f29	1.4013416
7	0x3f4ccf34	0.80003667
8	0x3ea7bacd	0.32759705
9	0x3f878990	1.0588856
10	0x3f9250f1	1.1430951
11	0x3f2e875b	0.68175286
12	0x3f6081ec	0.87698245
13	0x3f170df8	0.5900569
14	0x3fc0c2e6	1.5059478
15	0x3f45c956	0.7726034
16	0x3f7cacec	0.9870136
17	0x3f31c5db	0.6944253
18	0x3eeb06a6	0.4590351
19	0x3f1a0dba	0.60177195
20	0x3f1904da	0.5977303
21	0x3f230ba5	0.63689643
22	0x3f7d88f5	0.99037105
23	0x3f5bbe74	0.85837483
24	0x3f2c1844	0.67224526
25	0x3f18cd80	0.5968857
26	0x3f9d96c4	1.2311635
27	0x3f62d31e	0.8860339
28	0x3f019b92	0.50628006
29	0x3f5a6318	0.85307455
30	0x3f218754	0.6309712
31	0x3f2e6ed2	0.6813785

encoder.cnn_model.2.conv.3.weight f4 [32, 32, 3, 3]
0	0xbd2098ba	-0.03920815
1	0xbd06f7a2	-0.032951005
2	0xbda173c3	-0.07883408
3	0x3d69ad95	0.057050306
4	0xbbd7226a	-0.006565382
5	0x3c9028d1	0.017597588
6	0x3cbcfe93	0.02307061
7	0x3da231ab	0.0791963
8	0xbd415690	-0.047201693
9	0xbd895911	-0.06706441
10	0xbc8d80bf	-0.017273305
11	0xbaa2206b	-0.001236928
12	0x3d9df6e8	0.07713109
13	0xbbe0ea8d	-0.006863898
14	0x3d9b5498	0.07584494
15	0x3b3c2d77	0.0028713623
16	0xbbdd186c	-0.006747296
17	0x3d54fa17	0.051996317
18	0x3d10cb5a	0.03535018
19	0xbc3c768f	-0.011502876
20	0x3caf6871	0.021412106
21	0x3d07f4d8	0.033192486
22	0xbba6a71f	-0.0050858404
23	0x3c8a0645	0.016848693
24	0x3d0fe6c0	0.03513217
25	0xbc9b00a5	-0.018921206
26	0xbd3287c2	-0.0435865
27	0xbd41b5e1	-0.047292594
28	0x3b6ae5e6	0.0035842597
29	0x3d35202d	0.04422014
30	0x3c94a8a5	0.018146822
31	0x3ccdd8da	0.025127817
32	0x3bd1dbc7	0.0064043733
33	0x3c335014	0.010944385
34	0xbc9fbd6f	-0.019499509
35	0xbd4bd5a7	-0.0497643
36	0xbd21e2ec	-0.03952305
37	0xbd255a7e	-0.040369503
38	0x3a5228f0	0.00080169644
39	0xbd04c240	-0.032411814
40	0x3bbc2452	0.0057416344
41	0xbd4eb819	-0.050468538
42	0xbd08f4a0	-0.033436418
43	0xbd24f4e4	-0.04027261
44	0xbd6b4d04	-0.057446495
45	0xbc8eef41	-0.01744807
46	0x3c568a71	0.01309453
47	0x3d9b924c	0.07596263
48	0x3d8779e7	0.06615048
49	0x3cd411f8	0.025887474
50	0x3d931ec4	0.071836025
51	0xbc5213a2	-0.012822064
52	0xb97515b5	-0.00023373107
53	0xbcc4b27e	-0.024010893
54	0xbd2c60e5	-0.042084593
55	0x3ae8787f	0.0017736106
56	0xbd6d23f0	-0.0578956
57	0x3d1085ad	0.035283733
58	0xbbe62405	-0.007023337
59	0x3d3d9d2d	0.046292473
60	0x3d0e802c	0.034790203
61	0xbb41efb4	-0.0029592337
62	0x3c2a50aa	0.010395208
63	0xbdc1bc08	-0.09459692
64	0xbdb6b22e	-0.08920704
65	0xbd94f8f7	-0.07274049
66	0x3d636038	0.055511683
67	0xbc161636	-0.009160569
68	0xbd50dba4	-0.050990716
69	0x3a46c94e	0.00075830973
70	0x3daaaca1	0.083337076
71	0x3d69026b	0.05688707
72	0x3d06eb56	0.032939278
73	0x3dc290c2	0.095002666
74	0x3cecd47a	0.02890991
75	0x3dfb5ce8	0.1227358
76	0x3d2c8031	0.04211444
77	0x3db9e26f	0.09076392
78	0x3d02ea70	0.03196186
79	0x3ba5d95c	0.0050613116
80	0x3c9745f1	0.018465968
81	0xbc7a743b	-0.015286501
82	0x3c7752e6	0.015095448
83	0x3d4ae823	0.04953779
84	0x3d49ced8	0.049269527
85	0xba7d4c50	-0.00096625555
86	0x3d891aa0	0.066945314
87	0xbd4f9482	-0.050678737
88	0x3d224ff6	0.039627038
89	0x3d4f517b	0.050614815
90	0xbb8e93f2	-0.0043511325
91	0xbb95deb2	-0.0045736665
92	0x3c945a49	0.018109458
93	0xbcfb3deb	-0.030669173
94	0xbc53411f	-0.012893944
95	0x3d75ec5c	0.060039863
96	0x3d2247c3	0.03961922
97	0xbc9644d8	-0.018343374
98	0x3d04b09f	0.032395
99	0xbd4be9e7	-0.049783614
100	0xbcd4c148	-0.02597107
101	0xbd6c2d76	-0.057660542
102	0x3d5f6ca0	0.054546952
103	0x3d4ec8fc	0.050484642
104	0x3d273ef0	0.040831506
105	0x3cdf3c1d	0.027250344
106	0xbce37a4f	-0.027768282
107	0x3c5e19ff	0.013556003
108	0xbb8aca2b	-0.004235526
109	0x3c82a330	0.015946954
110	0xbc14a908	-0.009073503
111	0x39f78fa3	0.0004721853
112	0x3d43b6b7	0.047781672
113	0xbd02c970	-0.031930387
114	0xba8a38d2	-0.0010545498
115	0xbcc45739	-0.023967372
116	0xbbbacf6f	-0.0057009975
117	0xbd0b2076	-0.033966504
118	0xbda213f1	-0.0791396
119	0x3d28d3f6	0.041217767
120	0x3c25b937	0.010114959
121	0xbcc48c22	-0.023992602
122	0x3c1849ab	0.009294908
123	0x3cf4b84a	0.029873032
124	0xbd228804	-0.039680496
125	0x3dd7dffb	0.10540768
126	0x3c75fae5	0.015013431
127	0x3bbc650a	0.0057493495
128	0xbd14eccf	-0.03635865
129	0xbc071cd2	-0.008246617
130	0xbd0ced3e	-0.03440594
131	0xbce567a5	-0.028003523
132	0x3cad6ee1	0.021171035
133	0x3d63f2a3	0.05565132
134	0xbb8cb476	-0.0042939736
135	0x3cb81640	0.022471547
136	0x3d677412	0.056507178
137	0x3b3a351f	0.002841301
138	0xbd11e837	-0.035621848
139	0x3da2481d	0.07923911
140	0x3d379cf6	0.044827424
141	0x3ce6a617	0.02815537
142	0x3bb78057	0.005600016
143	0xbdc3b3fd	-0.095558144
144	0x3cc382a6	0.023866009
145	0x3cbf3289	0.023339527
146	0x3bdb33a0	0.006689504
147	0x3d705754	0.058677033
148	0x3d3f9d18	0.046780676
149	0x3d78e21a	0.060762502
150	0xbc87dcff	-0.016584871
151	0xbd34a235	-0.044100005
152	0x3ba6cfa4	0.0050906707
153	0x3c334275	0.010941138
154	0xbcf3dd09	-0.029768484
155	0xbd9cf548	-0.07663971
156	0xbd572efd	-0.052535046
157	0xbc9e3eec	-0.019317113
158	0xbd3685db	-0.04456125
159	0xbd60770c	-0.054801032
160	0x3c041811	0.0080623785
161	0x3d07367d	0.03301095
162	0xbda0cc68	-0.078514874
163	0xbd5e0577	-0.05420443
164	0x39b25132	0.000340113
165	0xbc399f4d	-0.011329484
166	0xbc5eccb9	-0.013598614
167	0x3d036e09	0.03208736
168	0x3c431515	0.011906882
169	0x3d26269e	0.040564172
170	0x3d6abcdf	0.057309028
171	0x3d2ea50b	0.042637866
172	0xbd198d0a	-0.03748802
173	0xbca2c436	-0.019868951
174	0x3d12b3a9	0.03581587
175	0x3d2ff2e9	0.042956267
176	0xbd8ed4a5	-0.069741525
177	0xbda13dc9	-0.07873113
178	0xbd1f4cf0	-0.038891733
179	0xbdce8022	-0.10083033
180	0x3d6a58c2	0.057213552
181	0xbc830062	-0.015991393
182	0xbdbd18a8	-0.092332184
183	0x3d253ca8	0.04034105
184	0x3d8586a3	0.065198205
185	0xbb8025a0	-0.0039107352
186	0x3d8f9512	0.07010855
187	0xbcb93104	-0.02260638
188	0x3c81c501	0.01584101
189	0xbd456f49	-0.048201833
190	0x3a6907da	0.00088894146
191	0x3cdabcb7	0.026701314
192	0x3ca8e2cb	0.020615956
193	0xb969fac3	-0.00022314028
194	0xbb4fc4bd	-0.0031702959
195	0xbd0b98d2	-0.034081288
196	0xbd3b1a1a	-0.04567919
197	0xbc8294a7	-0.015940024
198	0x3d7aad5a	0.061200477
199	0xbaa9219c	-0.0012903693
200	0xbd09377a	-0.033500172
201	0x3d587547	0.05284622
202	0xba8bc8cc	-0.00106647
203	0xbd2fb729	-0.042899285
204	0xbd532c4a	-0.05155591
205	0xbd72c255	-0.05926736
206	0xbd0d770e	-0.034537368
207	0x3bb8e5d3	0.0056426316
208	0xbd4ec7b8	-0.050483435
209	0x3b6c0e45	0.0036019247
210	0xbd561cb1	-0.052273456
211	0xbcfcf2ce	-0.030877497
212	0xbd65c6ce	-0.056097798
213	0xbc6b7705	-0.014371638
214	0x3d56542d	0.05232637
215	0xba8e240e	-0.0010844485
216	0xbdac952e	-0.08426891
217	0xbd9ead7a	-0.07747932
218	0xbd3ea361	-0.04654253
219	0xbca0522c	-0.019570433
220	0xbd045f62	-0.032317527
221	0x3d338746	0.04383018
222	0xbc199ef3	-0.009376275
223	0xbc560cc4	-0.013064567
224	0x3df75aa3	0.120778345
225	0xbce0e203	-0.02745152
226	0xbda2f48c	-0.079568
227	0xb9ddbd85	-0.00042293608
228	0xbd10a0bc	-0.03530954
229	0x3d1cb1eb	0.038255613
230	0x3d27ced1	0.04096872
231	0x3c88deee	0.016707864
232	0x3ce9a7f9	0.028522478
233	0x3caf1ace	0.021375086
234	0x3cfc4719	0.03079562
235	0xbd57059b	-0.05249558
236	0xbc8587d7	-0.016300125
237	0x3d4fd308	0.050738364
238	0x3d8ccc13	0.068748616
239	0xbceed763	-0.029155439
240	0xbba5dbae	-0.0050615883
241	0x3cdd307c	0.027000658
242	0x3d19aa8a	0.037516154
243	0xbc3fde54	-0.011710722
244	0xbcc6b84a	-0.024257798
245	0xbd0d719b	-0.03453217
246	0xbda769f9	-0.081745096
247	0xbdc14998	-0.09437865
248	0xbda5aa75	-0.08089153
249	0x3c2eee23	0.010676893
250	0xbc0453ba	-0.008076603
251	0xbd8567e6	-0.06513958
252	0xbd7dd697	-0.061972227
253	0xbca1dbf4	-0.019758202
254	0xbd30e761	-0.04318941
255	0xbd00643b	-0.031345587

encoder.cnn_model.2.conv.3.bias f4 [32]
0	0x3d692734	0.056922153
1	0x3ced85b6	0.028994422
2	0xbd1f4acb	-0.038889688
3	0xbba33e59	-0.0049817977
4	0x3d0bdf43	0.034148466
5	0x3bae57ea	0.0053205388
6	0xbcced2af	-0.025246946
7	0xbd07cce6	-0.03315439
8	0xbd30fb93	-0.04320867
9	0x3d0218b6	0.031761847
10	0x3d28ddda	0.0412272
11	0x3ce5c0c8	0.028046027
12	0x3d1873eb	0.037219923
13	0xbb7f38af	-0.0038943698
14	0xbd5623e0	-0.052280307
15	0x3c8ec0c6	0.017425906
16	0x3d457035	0.048202712
17	0x3d09424c	0.03351049
18	0x3ccf7fc7	0.025329484
19	0x3cf42775	0.02980397
20	0x3cd9b075	0.0265734
21	0xbd57626d	-0.0525841
22	0xbb19793a	-0.0023418204
23	0xbd315bf2	-0.043300577
24	0xbd6945cc	-0.05695133
25	0x3c6b5224	0.014362846
26	0xbd1968cb	-0.037453454
27	0xbd04c3b0	-0.032413185
28	0xbbe06e28	-0.006849069
29	0xbd5e1003	-0.05421449
30	0xbcc9db2c	-0.024640642
31	0xbc59c91d	-0.013292578

encoder.cnn_model.2.conv.4.weight f4 [32]
0	0x3f6da9f9	0.9283748
1	0x3f47a942	0.7799264
2	0x3f73fd03	0.9530794
3	0x3f66e70a	0.9019629
4	0x3f94dae8	1.1629305
5	0x3f6bbbae	0.9208325
6	0x3f5bc058	0.8584037
7	0x3f4084d9	0.7520271
8	0x3f516df3	0.81808394
9	0x3f56ce5b	0.83908623
10	0x3f637c5d	0.8886164
11	0x3f84d2df	1.0376853
12	0x3f875ba6	1.0574844
13	0x3f7397b5	0.9515336
14	0x3f7557bd	0.95837003
15	0x3f6d5791	0.9271174
16	0x3f83b0f2	1.0288374
17	0x3f832ef3	1.0248703
18	0x3f91f8e1	1.1404077
19	0x3f8a6fab	1.0815328
20	0x3f7cf533	0.98811644
21	0x3f548dc1	0.830288
22	0x3f86be95	1.0526911
23	0x3f6cbe41	0.92477804
24	0x3f85d18a	1.0454571
25	0x3f67eb10	0.9059305
26	0x3f70706d	0.9392155
27	0x3f5932ec	0.84843326
28	0x3f6deccd	0.92939454
29	0x3f84412a	1.0332386
30	0x3f8b5fcc	1.088861
31	0x3f94be02	1.1620486

encoder.cnn_model.2.conv.4.bias f4 [32]
0	0xbe427e90	-0.18993592
1	0xbe2a1899	-0.16610946
2	0xbdd04481	-0.10169316
3	0xbd6193be	-0.05507254
4	0x3d992427	0.07477599
5	0xbd8e0d1e	-0.06936096
6	0xbe10c730	-0.14138484
7	0xbd87a929	-0.066240616
8	0xbcb8f83c	-0.022579305
9	0xbd335cab	-0.043789547
10	0xbc4db5f9	-0.012555593
11	0xbc23b6d3	-0.009992319
12	0x3d11e33c	0.0356171
13	0xbcae2576	-0.021258097
14	0xbdab9ffa	-0.083801225
15	0xbbdaf684	-0.006682219
16	0x3d99b153	0.07504525
17	0x3dfe9bbe	0.12432049
18	0x3db3305e	0.0874946
19	0x3dd6160c	0.10453424
20	0xbd87170e	-0.06596194
21	0xbd594b3e	-0.053050272
22	0xbc7b8c67	-0.015353299
23	0xbd510b9a	-0.051036455
24	0xbc88f705	-0.01671935
25	0xbd84c905	-0.06483654
26	0x3d3bb287	0.045824554
27	0xbde572f3	-0.112035654
28	0x3ce26bbd	0.027639264
29	0x3d29e207	0.041475322
30	0x3d8f7dd2	0.0700642
31	0x3e13a6c6	0.14419088

encoder.cnn_model.2.conv.4.running_mean f4 [32]
0	0x3e4e6e9a	0.20159379
1	0x3e67f2b2	0.22651175
2	0x3d2f5b52	0.0428117
3	0x3dd41097	0.10354727
4	0x3d1df022	0.038559087
5	0x3da68202	0.08130266
6	0x3c091758	0.008367382
7	0xbd2d7a1c	-0.04235278
8	0xbc6910ad	-0.014225167
9	0xbd41406e	-0.047180586
10	0x3d9e78a8	0.07737857
11	0xbde24c08	-0.11049658
12	0xbd8861b7	-0.066592626
13	0x3d7ef102	0.06224156
14	0xbdac71d4	-0.084201485
15	0x3cc5fcfb	0.024168482
16	0xbcb5ebb8	-0.022207126
17	0xbc2e9287	-0.010655052
18	0xbc39db15	-0.011343737
19	0xbd330adb	-0.043711524
20	0xbbfd37d1	-0.007727601
21	0x3dba1f1d	0.09087966
22	0xbd86a2b4	-0.06574002
23	0x3d25440c	0.040348098
24	0xbe4a330a	-0.19746032
25	0x3e75d7bf	0.24008082
26	0xbce8f6fd	-0.028438086
27	0xbd2dc88d	-0.04242759
28	0x3dd59f98	0.10430831
29	0xbe2cb4c1	-0.16865827
30	0xbc22189b	-0.009893562
31	0xbd956d5d	-0.0729625

encoder.cnn_model.2.conv.4.running_var f4 [32]
0	0x3fc2eb40	1.5228043
1	0x40198a1f	2.3990552
2	0x40198258	2.3985806
3	0x3f8cfc36	1.1014469
4	0x3f66ee43	0.9020731
5	0x3f842f23	1.0326885
6	0x400afa2c	2.1715193
7	0x3f0ab87e	0.5418776
8	0x3f9a9cb0	1.2079067
9	0x3f90d8b0	1.1316128
10	0x400af393	2.1711166
11	0x403eae84	2.9794016
12	0x40235d4d	2.5525696
13	0x3fd63983	1.6736301
14	0x3ff53c53	1.9159034
15	0x3f8ea8a0	1.114521
16	0x3ffaac95	1.9583918
17	0x3f65da03	0.89785784
18	0x3fd21332	1.6412108
19	0x3fddb966	1.7322204
20	0x3fcee7cd	1.616449
21	0x400a9a63	2.165673
22	0x400c5b79	2.193083
23	0x3fe97486	1.8238685
24	0x3ff4110a	1.90677
25	0x4023622c	2.552867
26	0x400aa57e	2.1663508
27	0x3f33840e	0.70123374
28	0x3f9155fb	1.1354364
29	0x40086ebb	2.1317585
30	0x3ff4e969	1.9133731
31	0x4013f4da	2.3118196
